…
I0419 13:43:44.345316 15088 solver.cpp:91] Creating training net from net file: /mnt/antares_raid/home/cindy/adhara/experiments/17/train_val_nd.prototxt
I0419 13:43:44.346468 15088 net.cpp:313] The NetState phase (0) differed from the phase (1) specified by a rule in layer data
I0419 13:43:44.346690 15088 net.cpp:49] Initializing net from parameters: 
name: "SoundNet"
state {
  phase: TRAIN
}
layer {
  name: "data"
  type: "HDF5Data"
  top: "amsFeatures"
  top: "ratemap"
  top: "label_scalar"
  include {
    phase: TRAIN
  }
  hdf5_data_param {
    source: "/mnt/antares_raid/home/cindy/adhara/experiments/twoears_data_train.txt"
    batch_size: 128
  }
}
layer {
  name: "conv1_a"
  type: "Convolution"
  bottom: "amsFeatures"
  top: "conv1_a"
  param {
    lr_mult: 1
    decay_mult: 1
  }
  param {
    lr_mult: 2
    decay_mult: 0
  }
  convolution_param {
    num_output: 128
    stride: 1
    weight_filler {
      type: "xavier"
    }
    bias_filler {
      type: "constant"
    }
    kernel_h: 8
    kernel_w: 6
  }
}
layer {
  name: "relu1_a"
  type: "ReLU"
  bottom: "conv1_a"
  top: "conv1_a"
}
layer {
  name: "conv2_a"
  type: "Convolution"
  bottom: "conv1_a"
  top: "conv2_a"
  param {
    lr_mult: 1
    decay_mult: 1
  }
  param {
    lr_mult: 2
    decay_mult: 0
  }
  convolution_param {
    num_output: 128
    stride: 1
    weight_filler {
      type: "xavier"
    }
    bias_filler {
      type: "constant"
    }
    kernel_h: 3
    kernel_w: 3
  }
}
layer {
  name: "pool2_a"
  type: "Pooling"
  bottom: "conv2_a"
  top: "pool2_a"
  pooling_param {
    pool: MAX
    kernel_size: 2
    stride: 2
  }
}
layer {
  name: "relu2_a"
  type: "ReLU"
  bottom: "pool2_a"
  top: "pool2_a"
}
layer {
  name: "ip2_a"
  type: "InnerProduct"
  bottom: "pool2_a"
  top: "ip2_a"
  param {
    lr_mult: 1
  }
  param {
    lr_mult: 2
  }
  inner_product_param {
    num_output: 256
    weight_filler {
      type: "xavier"
    }
    bias_filler {
      type: "constant"
    }
  }
}
layer {
  name: "conv1_r"
  type: "Convolution"
  bottom: "ratemap"
  top: "conv1_r"
  param {
    lr_mult: 1
    decay_mult: 1
  }
  param {
    lr_mult: 2
    decay_mult: 0
  }
  convolution_param {
    num_output: 128
    stride: 1
    weight_filler {
      type: "xavier"
    }
    bias_filler {
      type: "constant"
    }
    kernel_h: 8
    kernel_w: 6
  }
}
layer {
  name: "relu1_r"
  type: "ReLU"
  bottom: "conv1_r"
  top: "conv1_r"
}
layer {
  name: "conv2_r"
  type: "Convolution"
  bottom: "conv1_r"
  top: "conv2_r"
  param {
    lr_mult: 1
    decay_mult: 1
  }
  param {
    lr_mult: 2
    decay_mult: 0
  }
  convolution_param {
    num_output: 128
    stride: 1
    weight_filler {
      type: "xavier"
    }
    bias_filler {
      type: "constant"
    }
    kernel_h: 3
    kernel_w: 3
  }
}
layer {
  name: "pool2_r"
  type: "Pooling"
  bottom: "conv2_r"
  top: "pool2_r"
  pooling_param {
    pool: MAX
    kernel_size: 2
    stride: 2
  }
}
layer {
  name: "relu2_r"
  type: "ReLU"
  bottom: "pool2_r"
  top: "pool2_r"
}
layer {
  name: "ip2_r"
  type: "InnerProduct"
  bottom: "pool2_r"
  top: "ip2_r"
  param {
    lr_mult: 1
  }
  param {
    lr_mult: 2
  }
  inner_product_param {
    num_output: 256
    weight_filler {
      type: "xavier"
    }
    bias_filler {
      type: "constant"
    }
  }
}
layer {
  name: "concat_ar"
  type: "Concat"
  bottom: "ip2_a"
  bottom: "ip2_r"
  top: "ip2"
  concat_param {
    axis: 1
  }
}
layer {
  name: "relu2"
  type: "ReLU"
  bottom: "ip2"
  top: "ip2"
}
layer {
  name: "ip3"
  type: "InnerProduct"
  bottom: "ip2"
  top: "ip3"
  param {
    lr_mult: 1
  }
  param {
    lr_mult: 2
  }
  inner_product_param {
    num_output: 12
    weight_filler {
      type: "xavier"
    }
    bias_filler {
      type: "constant"
    }
  }
}
layer {
  name: "loss"
  type: "SoftmaxWithLoss"
  bottom: "ip3"
  bottom: "label_scalar"
  top: "loss"
}
I0419 13:43:44.347560 15088 layer_factory.hpp:77] Creating layer data
I0419 13:43:44.347586 15088 net.cpp:91] Creating Layer data
I0419 13:43:44.347602 15088 net.cpp:399] data -> amsFeatures
I0419 13:43:44.347637 15088 net.cpp:399] data -> ratemap
I0419 13:43:44.347650 15088 net.cpp:399] data -> label_scalar
I0419 13:43:44.347668 15088 hdf5_data_layer.cpp:79] Loading list of HDF5 filenames from: /mnt/antares_raid/home/cindy/adhara/experiments/twoears_data_train.txt
I0419 13:43:44.348141 15088 hdf5_data_layer.cpp:93] Number of HDF5 files: 5
I0419 13:43:44.350005 15088 hdf5.cpp:32] Datatype class: H5T_FLOAT
I0419 13:43:50.174368 15088 net.cpp:141] Setting up data
I0419 13:43:50.174417 15088 net.cpp:148] Top shape: 128 9 16 63 (1161216)
I0419 13:43:50.174425 15088 net.cpp:148] Top shape: 128 1 16 63 (129024)
I0419 13:43:50.174433 15088 net.cpp:148] Top shape: 128 1 1 1 (128)
I0419 13:43:50.174440 15088 net.cpp:156] Memory required for data: 5161472
I0419 13:43:50.174454 15088 layer_factory.hpp:77] Creating layer conv1_a
I0419 13:43:50.174497 15088 net.cpp:91] Creating Layer conv1_a
I0419 13:43:50.174505 15088 net.cpp:425] conv1_a <- amsFeatures
I0419 13:43:50.174518 15088 net.cpp:399] conv1_a -> conv1_a
I0419 13:43:50.177544 15088 net.cpp:141] Setting up conv1_a
I0419 13:43:50.177567 15088 net.cpp:148] Top shape: 128 128 9 58 (8552448)
I0419 13:43:50.177573 15088 net.cpp:156] Memory required for data: 39371264
I0419 13:43:50.177597 15088 layer_factory.hpp:77] Creating layer relu1_a
I0419 13:43:50.177618 15088 net.cpp:91] Creating Layer relu1_a
I0419 13:43:50.177626 15088 net.cpp:425] relu1_a <- conv1_a
I0419 13:43:50.177634 15088 net.cpp:386] relu1_a -> conv1_a (in-place)
I0419 13:43:50.177646 15088 net.cpp:141] Setting up relu1_a
I0419 13:43:50.177654 15088 net.cpp:148] Top shape: 128 128 9 58 (8552448)
I0419 13:43:50.177659 15088 net.cpp:156] Memory required for data: 73581056
I0419 13:43:50.177664 15088 layer_factory.hpp:77] Creating layer conv2_a
I0419 13:43:50.177680 15088 net.cpp:91] Creating Layer conv2_a
I0419 13:43:50.177686 15088 net.cpp:425] conv2_a <- conv1_a
I0419 13:43:50.177693 15088 net.cpp:399] conv2_a -> conv2_a
I0419 13:43:50.179136 15088 net.cpp:141] Setting up conv2_a
I0419 13:43:50.179149 15088 net.cpp:148] Top shape: 128 128 7 56 (6422528)
I0419 13:43:50.179154 15088 net.cpp:156] Memory required for data: 99271168
I0419 13:43:50.179165 15088 layer_factory.hpp:77] Creating layer pool2_a
I0419 13:43:50.179177 15088 net.cpp:91] Creating Layer pool2_a
I0419 13:43:50.179183 15088 net.cpp:425] pool2_a <- conv2_a
I0419 13:43:50.179194 15088 net.cpp:399] pool2_a -> pool2_a
I0419 13:43:50.179267 15088 net.cpp:141] Setting up pool2_a
I0419 13:43:50.179278 15088 net.cpp:148] Top shape: 128 128 4 28 (1835008)
I0419 13:43:50.179296 15088 net.cpp:156] Memory required for data: 106611200
I0419 13:43:50.179301 15088 layer_factory.hpp:77] Creating layer relu2_a
I0419 13:43:50.179323 15088 net.cpp:91] Creating Layer relu2_a
I0419 13:43:50.179329 15088 net.cpp:425] relu2_a <- pool2_a
I0419 13:43:50.179337 15088 net.cpp:386] relu2_a -> pool2_a (in-place)
I0419 13:43:50.179345 15088 net.cpp:141] Setting up relu2_a
I0419 13:43:50.179353 15088 net.cpp:148] Top shape: 128 128 4 28 (1835008)
I0419 13:43:50.179358 15088 net.cpp:156] Memory required for data: 113951232
I0419 13:43:50.179364 15088 layer_factory.hpp:77] Creating layer ip2_a
I0419 13:43:50.179378 15088 net.cpp:91] Creating Layer ip2_a
I0419 13:43:50.179384 15088 net.cpp:425] ip2_a <- pool2_a
I0419 13:43:50.179393 15088 net.cpp:399] ip2_a -> ip2_a
I0419 13:43:50.217491 15088 net.cpp:141] Setting up ip2_a
I0419 13:43:50.217525 15088 net.cpp:148] Top shape: 128 256 (32768)
I0419 13:43:50.217531 15088 net.cpp:156] Memory required for data: 114082304
I0419 13:43:50.217548 15088 layer_factory.hpp:77] Creating layer conv1_r
I0419 13:43:50.217574 15088 net.cpp:91] Creating Layer conv1_r
I0419 13:43:50.217581 15088 net.cpp:425] conv1_r <- ratemap
I0419 13:43:50.217592 15088 net.cpp:399] conv1_r -> conv1_r
I0419 13:43:50.218535 15088 net.cpp:141] Setting up conv1_r
I0419 13:43:50.218565 15088 net.cpp:148] Top shape: 128 128 9 58 (8552448)
I0419 13:43:50.218571 15088 net.cpp:156] Memory required for data: 148292096
I0419 13:43:50.218580 15088 layer_factory.hpp:77] Creating layer relu1_r
I0419 13:43:50.218590 15088 net.cpp:91] Creating Layer relu1_r
I0419 13:43:50.218596 15088 net.cpp:425] relu1_r <- conv1_r
I0419 13:43:50.218616 15088 net.cpp:386] relu1_r -> conv1_r (in-place)
I0419 13:43:50.218626 15088 net.cpp:141] Setting up relu1_r
I0419 13:43:50.218632 15088 net.cpp:148] Top shape: 128 128 9 58 (8552448)
I0419 13:43:50.218637 15088 net.cpp:156] Memory required for data: 182501888
I0419 13:43:50.218642 15088 layer_factory.hpp:77] Creating layer conv2_r
I0419 13:43:50.218667 15088 net.cpp:91] Creating Layer conv2_r
I0419 13:43:50.218673 15088 net.cpp:425] conv2_r <- conv1_r
I0419 13:43:50.218683 15088 net.cpp:399] conv2_r -> conv2_r
I0419 13:43:50.220686 15088 net.cpp:141] Setting up conv2_r
I0419 13:43:50.220711 15088 net.cpp:148] Top shape: 128 128 7 56 (6422528)
I0419 13:43:50.220717 15088 net.cpp:156] Memory required for data: 208192000
I0419 13:43:50.220729 15088 layer_factory.hpp:77] Creating layer pool2_r
I0419 13:43:50.220739 15088 net.cpp:91] Creating Layer pool2_r
I0419 13:43:50.220746 15088 net.cpp:425] pool2_r <- conv2_r
I0419 13:43:50.220767 15088 net.cpp:399] pool2_r -> pool2_r
I0419 13:43:50.220818 15088 net.cpp:141] Setting up pool2_r
I0419 13:43:50.220827 15088 net.cpp:148] Top shape: 128 128 4 28 (1835008)
I0419 13:43:50.220834 15088 net.cpp:156] Memory required for data: 215532032
I0419 13:43:50.220850 15088 layer_factory.hpp:77] Creating layer relu2_r
I0419 13:43:50.220867 15088 net.cpp:91] Creating Layer relu2_r
I0419 13:43:50.220873 15088 net.cpp:425] relu2_r <- pool2_r
I0419 13:43:50.220882 15088 net.cpp:386] relu2_r -> pool2_r (in-place)
I0419 13:43:50.220890 15088 net.cpp:141] Setting up relu2_r
I0419 13:43:50.220897 15088 net.cpp:148] Top shape: 128 128 4 28 (1835008)
I0419 13:43:50.220902 15088 net.cpp:156] Memory required for data: 222872064
I0419 13:43:50.220908 15088 layer_factory.hpp:77] Creating layer ip2_r
I0419 13:43:50.220921 15088 net.cpp:91] Creating Layer ip2_r
I0419 13:43:50.220927 15088 net.cpp:425] ip2_r <- pool2_r
I0419 13:43:50.220934 15088 net.cpp:399] ip2_r -> ip2_r
I0419 13:43:50.259526 15088 net.cpp:141] Setting up ip2_r
I0419 13:43:50.259549 15088 net.cpp:148] Top shape: 128 256 (32768)
I0419 13:43:50.259554 15088 net.cpp:156] Memory required for data: 223003136
I0419 13:43:50.259564 15088 layer_factory.hpp:77] Creating layer concat_ar
I0419 13:43:50.259580 15088 net.cpp:91] Creating Layer concat_ar
I0419 13:43:50.259588 15088 net.cpp:425] concat_ar <- ip2_a
I0419 13:43:50.259596 15088 net.cpp:425] concat_ar <- ip2_r
I0419 13:43:50.259604 15088 net.cpp:399] concat_ar -> ip2
I0419 13:43:50.259629 15088 net.cpp:141] Setting up concat_ar
I0419 13:43:50.259639 15088 net.cpp:148] Top shape: 128 512 (65536)
I0419 13:43:50.259655 15088 net.cpp:156] Memory required for data: 223265280
I0419 13:43:50.259661 15088 layer_factory.hpp:77] Creating layer relu2
I0419 13:43:50.259686 15088 net.cpp:91] Creating Layer relu2
I0419 13:43:50.259691 15088 net.cpp:425] relu2 <- ip2
I0419 13:43:50.259709 15088 net.cpp:386] relu2 -> ip2 (in-place)
I0419 13:43:50.259718 15088 net.cpp:141] Setting up relu2
I0419 13:43:50.259726 15088 net.cpp:148] Top shape: 128 512 (65536)
I0419 13:43:50.259732 15088 net.cpp:156] Memory required for data: 223527424
I0419 13:43:50.259737 15088 layer_factory.hpp:77] Creating layer ip3
I0419 13:43:50.259752 15088 net.cpp:91] Creating Layer ip3
I0419 13:43:50.259758 15088 net.cpp:425] ip3 <- ip2
I0419 13:43:50.259766 15088 net.cpp:399] ip3 -> ip3
I0419 13:43:50.259934 15088 net.cpp:141] Setting up ip3
I0419 13:43:50.259946 15088 net.cpp:148] Top shape: 128 12 (1536)
I0419 13:43:50.259956 15088 net.cpp:156] Memory required for data: 223533568
I0419 13:43:50.259965 15088 layer_factory.hpp:77] Creating layer loss
I0419 13:43:50.260004 15088 net.cpp:91] Creating Layer loss
I0419 13:43:50.260022 15088 net.cpp:425] loss <- ip3
I0419 13:43:50.260028 15088 net.cpp:425] loss <- label_scalar
I0419 13:43:50.260037 15088 net.cpp:399] loss -> loss
I0419 13:43:50.260053 15088 layer_factory.hpp:77] Creating layer loss
…
