…
I0420 12:36:28.497830 17306 solver.cpp:91] Creating training net from net file: /mnt/antares_raid/home/cindy/merope/experiments/03/train_val.prototxt
I0420 12:36:28.517707 17306 net.cpp:313] The NetState phase (0) differed from the phase (1) specified by a rule in layer data
I0420 12:36:28.518100 17306 net.cpp:49] Initializing net from parameters: 
name: "SoundNet"
state {
  phase: TRAIN
}
layer {
  name: "data"
  type: "HDF5Data"
  top: "amsFeatures"
  top: "ratemap"
  top: "label"
  include {
    phase: TRAIN
  }
  hdf5_data_param {
    source: "/mnt/antares_raid/home/cindy/merope/experiments/03/twoears_data_train.txt"
    batch_size: 128
  }
}
layer {
  name: "conv1_a"
  type: "Convolution"
  bottom: "amsFeatures"
  top: "conv1_a"
  param {
    lr_mult: 1
    decay_mult: 1
  }
  param {
    lr_mult: 2
    decay_mult: 0
  }
  convolution_param {
    num_output: 128
    stride: 1
    weight_filler {
      type: "xavier"
    }
    bias_filler {
      type: "constant"
    }
    kernel_h: 8
    kernel_w: 6
  }
}
layer {
  name: "relu1_a"
  type: "ReLU"
  bottom: "conv1_a"
  top: "conv1_a"
}
layer {
  name: "conv2_a"
  type: "Convolution"
  bottom: "conv1_a"
  top: "conv2_a"
  param {
    lr_mult: 1
    decay_mult: 1
  }
  param {
    lr_mult: 2
    decay_mult: 0
  }
  convolution_param {
    num_output: 128
    stride: 1
    weight_filler {
      type: "xavier"
    }
    bias_filler {
      type: "constant"
    }
    kernel_h: 3
    kernel_w: 3
  }
}
layer {
  name: "pool2_a"
  type: "Pooling"
  bottom: "conv2_a"
  top: "pool2_a"
  pooling_param {
    pool: MAX
    kernel_size: 2
    stride: 2
  }
}
layer {
  name: "relu2_a"
  type: "ReLU"
  bottom: "pool2_a"
  top: "pool2_a"
}
layer {
  name: "ip2_a"
  type: "InnerProduct"
  bottom: "pool2_a"
  top: "ip2_a"
  param {
    lr_mult: 1
  }
  param {
    lr_mult: 2
  }
  inner_product_param {
    num_output: 256
    weight_filler {
      type: "xavier"
    }
    bias_filler {
      type: "constant"
    }
  }
}
layer {
  name: "conv1_r"
  type: "Convolution"
  bottom: "ratemap"
  top: "conv1_r"
  param {
    lr_mult: 1
    decay_mult: 1
  }
  param {
    lr_mult: 2
    decay_mult: 0
  }
  convolution_param {
    num_output: 128
    stride: 1
    weight_filler {
      type: "xavier"
    }
    bias_filler {
      type: "constant"
    }
    kernel_h: 8
    kernel_w: 6
  }
}
layer {
  name: "relu1_r"
  type: "ReLU"
  bottom: "conv1_r"
  top: "conv1_r"
}
layer {
  name: "conv2_r"
  type: "Convolution"
  bottom: "conv1_r"
  top: "conv2_r"
  param {
    lr_mult: 1
    decay_mult: 1
  }
  param {
    lr_mult: 2
    decay_mult: 0
  }
  convolution_param {
    num_output: 128
    stride: 1
    weight_filler {
      type: "xavier"
    }
    bias_filler {
      type: "constant"
    }
    kernel_h: 3
    kernel_w: 3
  }
}
layer {
  name: "pool2_r"
  type: "Pooling"
  bottom: "conv2_r"
  top: "pool2_r"
  pooling_param {
    pool: MAX
    kernel_size: 2
    stride: 2
  }
}
layer {
  name: "relu2_r"
  type: "ReLU"
  bottom: "pool2_r"
  top: "pool2_r"
}
layer {
  name: "ip2_r"
  type: "InnerProduct"
  bottom: "pool2_r"
  top: "ip2_r"
  param {
    lr_mult: 1
  }
  param {
    lr_mult: 2
  }
  inner_product_param {
    num_output: 256
    weight_filler {
      type: "xavier"
    }
    bias_filler {
      type: "constant"
    }
  }
}
layer {
  name: "concat_ar"
  type: "Concat"
  bottom: "ip2_a"
  bottom: "ip2_r"
  top: "ip2"
  concat_param {
    axis: 1
  }
}
layer {
  name: "relu2"
  type: "ReLU"
  bottom: "ip2"
  top: "ip2"
}
layer {
  name: "dropip2"
  type: "Dropout"
  bottom: "ip2"
  top: "ip2"
  dropout_param {
    dropout_ratio: 0.5
  }
}
layer {
  name: "ip3"
  type: "InnerProduct"
  bottom: "ip2"
  top: "ip3"
  param {
    lr_mult: 1
  }
  param {
    lr_mult: 2
  }
  inner_product_param {
    num_output: 11
    weight_filler {
      type: "xavier"
    }
    bias_filler {
      type: "constant"
    }
  }
}
layer {
  name: "loss"
  type: "SigmoidCrossEntropyLoss"
  bottom: "ip3"
  bottom: "label"
  top: "loss"
}
I0420 12:36:28.518373 17306 layer_factory.hpp:77] Creating layer data
I0420 12:36:28.518399 17306 net.cpp:91] Creating Layer data
I0420 12:36:28.518415 17306 net.cpp:399] data -> amsFeatures
I0420 12:36:28.518455 17306 net.cpp:399] data -> ratemap
I0420 12:36:28.518471 17306 net.cpp:399] data -> label
I0420 12:36:28.518493 17306 hdf5_data_layer.cpp:79] Loading list of HDF5 filenames from: /mnt/antares_raid/home/cindy/merope/experiments/03/twoears_data_train.txt
I0420 12:36:28.528666 17306 hdf5_data_layer.cpp:93] Number of HDF5 files: 5
I0420 12:36:28.584436 17306 hdf5.cpp:32] Datatype class: H5T_FLOAT
I0420 12:37:39.498698 17306 net.cpp:141] Setting up data
I0420 12:37:39.503331 17306 net.cpp:148] Top shape: 128 9 16 63 (1161216)
I0420 12:37:39.503360 17306 net.cpp:148] Top shape: 128 1 16 63 (129024)
I0420 12:37:39.503381 17306 net.cpp:148] Top shape: 128 1 11 1 (1408)
I0420 12:37:39.503396 17306 net.cpp:156] Memory required for data: 5166592
I0420 12:37:39.503425 17306 layer_factory.hpp:77] Creating layer conv1_a
I0420 12:37:39.503479 17306 net.cpp:91] Creating Layer conv1_a
I0420 12:37:39.503494 17306 net.cpp:425] conv1_a <- amsFeatures
I0420 12:37:39.503512 17306 net.cpp:399] conv1_a -> conv1_a
I0420 12:37:39.505457 17306 net.cpp:141] Setting up conv1_a
I0420 12:37:39.505481 17306 net.cpp:148] Top shape: 128 128 9 58 (8552448)
I0420 12:37:39.505491 17306 net.cpp:156] Memory required for data: 39376384
I0420 12:37:39.505514 17306 layer_factory.hpp:77] Creating layer relu1_a
I0420 12:37:39.505529 17306 net.cpp:91] Creating Layer relu1_a
I0420 12:37:39.505538 17306 net.cpp:425] relu1_a <- conv1_a
I0420 12:37:39.505549 17306 net.cpp:386] relu1_a -> conv1_a (in-place)
I0420 12:37:39.505565 17306 net.cpp:141] Setting up relu1_a
I0420 12:37:39.505576 17306 net.cpp:148] Top shape: 128 128 9 58 (8552448)
I0420 12:37:39.505584 17306 net.cpp:156] Memory required for data: 73586176
I0420 12:37:39.505596 17306 layer_factory.hpp:77] Creating layer conv2_a
I0420 12:37:39.505610 17306 net.cpp:91] Creating Layer conv2_a
I0420 12:37:39.505620 17306 net.cpp:425] conv2_a <- conv1_a
I0420 12:37:39.505630 17306 net.cpp:399] conv2_a -> conv2_a
I0420 12:37:39.507261 17306 net.cpp:141] Setting up conv2_a
I0420 12:37:39.507287 17306 net.cpp:148] Top shape: 128 128 7 56 (6422528)
I0420 12:37:39.507295 17306 net.cpp:156] Memory required for data: 99276288
I0420 12:37:39.507310 17306 layer_factory.hpp:77] Creating layer pool2_a
I0420 12:37:39.507324 17306 net.cpp:91] Creating Layer pool2_a
I0420 12:37:39.507334 17306 net.cpp:425] pool2_a <- conv2_a
I0420 12:37:39.507345 17306 net.cpp:399] pool2_a -> pool2_a
I0420 12:37:39.507406 17306 net.cpp:141] Setting up pool2_a
I0420 12:37:39.507426 17306 net.cpp:148] Top shape: 128 128 4 28 (1835008)
I0420 12:37:39.507436 17306 net.cpp:156] Memory required for data: 106616320
I0420 12:37:39.507444 17306 layer_factory.hpp:77] Creating layer relu2_a
I0420 12:37:39.507454 17306 net.cpp:91] Creating Layer relu2_a
I0420 12:37:39.507463 17306 net.cpp:425] relu2_a <- pool2_a
I0420 12:37:39.507473 17306 net.cpp:386] relu2_a -> pool2_a (in-place)
I0420 12:37:39.507485 17306 net.cpp:141] Setting up relu2_a
I0420 12:37:39.507495 17306 net.cpp:148] Top shape: 128 128 4 28 (1835008)
I0420 12:37:39.507503 17306 net.cpp:156] Memory required for data: 113956352
I0420 12:37:39.507510 17306 layer_factory.hpp:77] Creating layer ip2_a
I0420 12:37:39.507525 17306 net.cpp:91] Creating Layer ip2_a
I0420 12:37:39.507534 17306 net.cpp:425] ip2_a <- pool2_a
I0420 12:37:39.507544 17306 net.cpp:399] ip2_a -> ip2_a
I0420 12:37:39.535295 17306 net.cpp:141] Setting up ip2_a
I0420 12:37:39.535334 17306 net.cpp:148] Top shape: 128 256 (32768)
I0420 12:37:39.535343 17306 net.cpp:156] Memory required for data: 114087424
I0420 12:37:39.535362 17306 layer_factory.hpp:77] Creating layer conv1_r
I0420 12:37:39.535383 17306 net.cpp:91] Creating Layer conv1_r
I0420 12:37:39.535393 17306 net.cpp:425] conv1_r <- ratemap
I0420 12:37:39.535406 17306 net.cpp:399] conv1_r -> conv1_r
I0420 12:37:39.536195 17306 net.cpp:141] Setting up conv1_r
I0420 12:37:39.536216 17306 net.cpp:148] Top shape: 128 128 9 58 (8552448)
I0420 12:37:39.536223 17306 net.cpp:156] Memory required for data: 148297216
I0420 12:37:39.536236 17306 layer_factory.hpp:77] Creating layer relu1_r
I0420 12:37:39.536248 17306 net.cpp:91] Creating Layer relu1_r
I0420 12:37:39.536257 17306 net.cpp:425] relu1_r <- conv1_r
I0420 12:37:39.536269 17306 net.cpp:386] relu1_r -> conv1_r (in-place)
I0420 12:37:39.536281 17306 net.cpp:141] Setting up relu1_r
I0420 12:37:39.536291 17306 net.cpp:148] Top shape: 128 128 9 58 (8552448)
I0420 12:37:39.536299 17306 net.cpp:156] Memory required for data: 182507008
I0420 12:37:39.536308 17306 layer_factory.hpp:77] Creating layer conv2_r
I0420 12:37:39.536322 17306 net.cpp:91] Creating Layer conv2_r
I0420 12:37:39.536331 17306 net.cpp:425] conv2_r <- conv1_r
I0420 12:37:39.536342 17306 net.cpp:399] conv2_r -> conv2_r
I0420 12:37:39.537899 17306 net.cpp:141] Setting up conv2_r
I0420 12:37:39.537921 17306 net.cpp:148] Top shape: 128 128 7 56 (6422528)
I0420 12:37:39.537930 17306 net.cpp:156] Memory required for data: 208197120
I0420 12:37:39.537943 17306 layer_factory.hpp:77] Creating layer pool2_r
I0420 12:37:39.537957 17306 net.cpp:91] Creating Layer pool2_r
I0420 12:37:39.537966 17306 net.cpp:425] pool2_r <- conv2_r
I0420 12:37:39.537976 17306 net.cpp:399] pool2_r -> pool2_r
I0420 12:37:39.538023 17306 net.cpp:141] Setting up pool2_r
I0420 12:37:39.538040 17306 net.cpp:148] Top shape: 128 128 4 28 (1835008)
I0420 12:37:39.538048 17306 net.cpp:156] Memory required for data: 215537152
I0420 12:37:39.538056 17306 layer_factory.hpp:77] Creating layer relu2_r
I0420 12:37:39.538066 17306 net.cpp:91] Creating Layer relu2_r
I0420 12:37:39.538074 17306 net.cpp:425] relu2_r <- pool2_r
I0420 12:37:39.538086 17306 net.cpp:386] relu2_r -> pool2_r (in-place)
I0420 12:37:39.538099 17306 net.cpp:141] Setting up relu2_r
I0420 12:37:39.538108 17306 net.cpp:148] Top shape: 128 128 4 28 (1835008)
I0420 12:37:39.538116 17306 net.cpp:156] Memory required for data: 222877184
I0420 12:37:39.538125 17306 layer_factory.hpp:77] Creating layer ip2_r
I0420 12:37:39.538137 17306 net.cpp:91] Creating Layer ip2_r
I0420 12:37:39.538146 17306 net.cpp:425] ip2_r <- pool2_r
I0420 12:37:39.538157 17306 net.cpp:399] ip2_r -> ip2_r
I0420 12:37:39.566089 17306 net.cpp:141] Setting up ip2_r
I0420 12:37:39.566128 17306 net.cpp:148] Top shape: 128 256 (32768)
I0420 12:37:39.566136 17306 net.cpp:156] Memory required for data: 223008256
I0420 12:37:39.566151 17306 layer_factory.hpp:77] Creating layer concat_ar
I0420 12:37:39.566172 17306 net.cpp:91] Creating Layer concat_ar
I0420 12:37:39.566182 17306 net.cpp:425] concat_ar <- ip2_a
I0420 12:37:39.566193 17306 net.cpp:425] concat_ar <- ip2_r
I0420 12:37:39.566206 17306 net.cpp:399] concat_ar -> ip2
I0420 12:37:39.566243 17306 net.cpp:141] Setting up concat_ar
I0420 12:37:39.566257 17306 net.cpp:148] Top shape: 128 512 (65536)
I0420 12:37:39.566264 17306 net.cpp:156] Memory required for data: 223270400
I0420 12:37:39.566272 17306 layer_factory.hpp:77] Creating layer relu2
I0420 12:37:39.566283 17306 net.cpp:91] Creating Layer relu2
I0420 12:37:39.566292 17306 net.cpp:425] relu2 <- ip2
I0420 12:37:39.566304 17306 net.cpp:386] relu2 -> ip2 (in-place)
I0420 12:37:39.566316 17306 net.cpp:141] Setting up relu2
I0420 12:37:39.566330 17306 net.cpp:148] Top shape: 128 512 (65536)
I0420 12:37:39.566339 17306 net.cpp:156] Memory required for data: 223532544
I0420 12:37:39.566346 17306 layer_factory.hpp:77] Creating layer dropip2
I0420 12:37:39.566359 17306 net.cpp:91] Creating Layer dropip2
I0420 12:37:39.566367 17306 net.cpp:425] dropip2 <- ip2
I0420 12:37:39.566377 17306 net.cpp:386] dropip2 -> ip2 (in-place)
I0420 12:37:39.566412 17306 net.cpp:141] Setting up dropip2
I0420 12:37:39.566426 17306 net.cpp:148] Top shape: 128 512 (65536)
I0420 12:37:39.566434 17306 net.cpp:156] Memory required for data: 223794688
I0420 12:37:39.566442 17306 layer_factory.hpp:77] Creating layer ip3
I0420 12:37:39.566462 17306 net.cpp:91] Creating Layer ip3
I0420 12:37:39.566470 17306 net.cpp:425] ip3 <- ip2
I0420 12:37:39.566481 17306 net.cpp:399] ip3 -> ip3
I0420 12:37:39.566619 17306 net.cpp:141] Setting up ip3
I0420 12:37:39.566638 17306 net.cpp:148] Top shape: 128 11 (1408)
I0420 12:37:39.566648 17306 net.cpp:156] Memory required for data: 223800320
I0420 12:37:39.566658 17306 layer_factory.hpp:77] Creating layer loss
I0420 12:37:39.566674 17306 net.cpp:91] Creating Layer loss
I0420 12:37:39.566684 17306 net.cpp:425] loss <- ip3
I0420 12:37:39.566691 17306 net.cpp:425] loss <- label
I0420 12:37:39.566710 17306 net.cpp:399] loss -> loss
I0420 12:37:39.566761 17306 net.cpp:141] Setting up loss
…
