…
I0408 13:16:57.984194 14539 solver.cpp:91] Creating training net from net file: /mnt/antares_raid/home/cindy/merope/experiments/03/train_val.prototxt
I0408 13:16:57.985234 14539 net.cpp:313] The NetState phase (0) differed from the phase (1) specified by a rule in layer data
I0408 13:16:57.985451 14539 net.cpp:49] Initializing net from parameters: 
name: "SoundNet"
state {
  phase: TRAIN
}
layer {
  name: "data"
  type: "HDF5Data"
  top: "amsFeatures"
  top: "ratemap"
  top: "label"
  include {
    phase: TRAIN
  }
  hdf5_data_param {
    source: "/mnt/antares_raid/home/cindy/merope/experiments/03/twoears_data_train.txt"
    batch_size: 128
  }
}
layer {
  name: "conv1_a"
  type: "Convolution"
  bottom: "amsFeatures"
  top: "conv1_a"
  param {
    lr_mult: 1
    decay_mult: 1
  }
  param {
    lr_mult: 2
    decay_mult: 0
  }
  convolution_param {
    num_output: 128
    stride: 1
    weight_filler {
      type: "xavier"
    }
    bias_filler {
      type: "constant"
    }
    kernel_h: 8
    kernel_w: 6
  }
}
layer {
  name: "relu1_a"
  type: "ReLU"
  bottom: "conv1_a"
  top: "conv1_a"
}
layer {
  name: "conv2_a"
  type: "Convolution"
  bottom: "conv1_a"
  top: "conv2_a"
  param {
    lr_mult: 1
    decay_mult: 1
  }
  param {
    lr_mult: 2
    decay_mult: 0
  }
  convolution_param {
    num_output: 128
    stride: 1
    weight_filler {
      type: "xavier"
    }
    bias_filler {
      type: "constant"
    }
    kernel_h: 3
    kernel_w: 3
  }
}
layer {
  name: "pool2_a"
  type: "Pooling"
  bottom: "conv2_a"
  top: "pool2_a"
  pooling_param {
    pool: MAX
    kernel_size: 2
    stride: 2
  }
}
layer {
  name: "relu2_a"
  type: "ReLU"
  bottom: "pool2_a"
  top: "pool2_a"
}
layer {
  name: "ip2_a"
  type: "InnerProduct"
  bottom: "pool2_a"
  top: "ip2_a"
  param {
    lr_mult: 1
  }
  param {
    lr_mult: 2
  }
  inner_product_param {
    num_output: 256
    weight_filler {
      type: "xavier"
    }
    bias_filler {
      type: "constant"
    }
  }
}
layer {
  name: "conv1_r"
  type: "Convolution"
  bottom: "ratemap"
  top: "conv1_r"
  param {
    lr_mult: 1
    decay_mult: 1
  }
  param {
    lr_mult: 2
    decay_mult: 0
  }
  convolution_param {
    num_output: 128
    stride: 1
    weight_filler {
      type: "xavier"
    }
    bias_filler {
      type: "constant"
    }
    kernel_h: 8
    kernel_w: 6
  }
}
layer {
  name: "relu1_r"
  type: "ReLU"
  bottom: "conv1_r"
  top: "conv1_r"
}
layer {
  name: "conv2_r"
  type: "Convolution"
  bottom: "conv1_r"
  top: "conv2_r"
  param {
    lr_mult: 1
    decay_mult: 1
  }
  param {
    lr_mult: 2
    decay_mult: 0
  }
  convolution_param {
    num_output: 128
    stride: 1
    weight_filler {
      type: "xavier"
    }
    bias_filler {
      type: "constant"
    }
    kernel_h: 3
    kernel_w: 3
  }
}
layer {
  name: "pool2_r"
  type: "Pooling"
  bottom: "conv2_r"
  top: "pool2_r"
  pooling_param {
    pool: MAX
    kernel_size: 2
    stride: 2
  }
}
layer {
  name: "relu2_r"
  type: "ReLU"
  bottom: "pool2_r"
  top: "pool2_r"
}
layer {
  name: "ip2_r"
  type: "InnerProduct"
  bottom: "pool2_r"
  top: "ip2_r"
  param {
    lr_mult: 1
  }
  param {
    lr_mult: 2
  }
  inner_product_param {
    num_output: 256
    weight_filler {
      type: "xavier"
    }
    bias_filler {
      type: "constant"
    }
  }
}
layer {
  name: "concat_ar"
  type: "Concat"
  bottom: "ip2_a"
  bottom: "ip2_r"
  top: "ip2"
  concat_param {
    axis: 1
  }
}
layer {
  name: "relu2"
  type: "ReLU"
  bottom: "ip2"
  top: "ip2"
}
layer {
  name: "dropip2"
  type: "Dropout"
  bottom: "ip2"
  top: "ip2"
  dropout_param {
    dropout_ratio: 0.5
  }
}
layer {
  name: "ip3"
  type: "InnerProduct"
  bottom: "ip2"
  top: "ip3"
  param {
    lr_mult: 1
  }
  param {
    lr_mult: 2
  }
  inner_product_param {
    num_output: 11
    weight_filler {
      type: "xavier"
    }
    bias_filler {
      type: "constant"
    }
  }
}
layer {
  name: "loss"
  type: "SigmoidCrossEntropyLoss"
  bottom: "ip3"
  bottom: "label"
  top: "loss"
}
I0408 13:16:57.986160 14539 layer_factory.hpp:77] Creating layer data
I0408 13:16:57.986186 14539 net.cpp:91] Creating Layer data
I0408 13:16:57.986201 14539 net.cpp:399] data -> amsFeatures
I0408 13:16:57.986232 14539 net.cpp:399] data -> ratemap
I0408 13:16:57.986248 14539 net.cpp:399] data -> label
I0408 13:16:57.986265 14539 hdf5_data_layer.cpp:79] Loading list of HDF5 filenames from: /mnt/antares_raid/home/cindy/merope/experiments/03/twoears_data_train.txt
I0408 13:16:57.986757 14539 hdf5_data_layer.cpp:93] Number of HDF5 files: 5
I0408 13:16:58.064637 14539 hdf5.cpp:32] Datatype class: H5T_FLOAT
I0408 13:18:06.493163 14539 net.cpp:141] Setting up data
I0408 13:18:06.508141 14539 net.cpp:148] Top shape: 128 9 16 63 (1161216)
I0408 13:18:06.508170 14539 net.cpp:148] Top shape: 128 1 16 63 (129024)
I0408 13:18:06.508180 14539 net.cpp:148] Top shape: 128 1 11 1 (1408)
I0408 13:18:06.508188 14539 net.cpp:156] Memory required for data: 5166592
I0408 13:18:06.508213 14539 layer_factory.hpp:77] Creating layer conv1_a
I0408 13:18:06.508246 14539 net.cpp:91] Creating Layer conv1_a
I0408 13:18:06.508261 14539 net.cpp:425] conv1_a <- amsFeatures
I0408 13:18:06.508280 14539 net.cpp:399] conv1_a -> conv1_a
I0408 13:18:06.511359 14539 net.cpp:141] Setting up conv1_a
I0408 13:18:06.511397 14539 net.cpp:148] Top shape: 128 128 9 58 (8552448)
I0408 13:18:06.511415 14539 net.cpp:156] Memory required for data: 39376384
I0408 13:18:06.511451 14539 layer_factory.hpp:77] Creating layer relu1_a
I0408 13:18:06.511476 14539 net.cpp:91] Creating Layer relu1_a
I0408 13:18:06.511492 14539 net.cpp:425] relu1_a <- conv1_a
I0408 13:18:06.511520 14539 net.cpp:386] relu1_a -> conv1_a (in-place)
I0408 13:18:06.511549 14539 net.cpp:141] Setting up relu1_a
I0408 13:18:06.511571 14539 net.cpp:148] Top shape: 128 128 9 58 (8552448)
I0408 13:18:06.511587 14539 net.cpp:156] Memory required for data: 73586176
I0408 13:18:06.511603 14539 layer_factory.hpp:77] Creating layer conv2_a
I0408 13:18:06.511628 14539 net.cpp:91] Creating Layer conv2_a
I0408 13:18:06.511651 14539 net.cpp:425] conv2_a <- conv1_a
I0408 13:18:06.511673 14539 net.cpp:399] conv2_a -> conv2_a
I0408 13:18:06.513579 14539 net.cpp:141] Setting up conv2_a
I0408 13:18:06.513603 14539 net.cpp:148] Top shape: 128 128 7 56 (6422528)
I0408 13:18:06.513612 14539 net.cpp:156] Memory required for data: 99276288
I0408 13:18:06.513627 14539 layer_factory.hpp:77] Creating layer pool2_a
I0408 13:18:06.513640 14539 net.cpp:91] Creating Layer pool2_a
I0408 13:18:06.513649 14539 net.cpp:425] pool2_a <- conv2_a
I0408 13:18:06.513659 14539 net.cpp:399] pool2_a -> pool2_a
I0408 13:18:06.513716 14539 net.cpp:141] Setting up pool2_a
I0408 13:18:06.513733 14539 net.cpp:148] Top shape: 128 128 4 28 (1835008)
I0408 13:18:06.513742 14539 net.cpp:156] Memory required for data: 106616320
I0408 13:18:06.513751 14539 layer_factory.hpp:77] Creating layer relu2_a
I0408 13:18:06.513761 14539 net.cpp:91] Creating Layer relu2_a
I0408 13:18:06.513770 14539 net.cpp:425] relu2_a <- pool2_a
I0408 13:18:06.513780 14539 net.cpp:386] relu2_a -> pool2_a (in-place)
I0408 13:18:06.513792 14539 net.cpp:141] Setting up relu2_a
I0408 13:18:06.513803 14539 net.cpp:148] Top shape: 128 128 4 28 (1835008)
I0408 13:18:06.513811 14539 net.cpp:156] Memory required for data: 113956352
I0408 13:18:06.513819 14539 layer_factory.hpp:77] Creating layer ip2_a
I0408 13:18:06.513833 14539 net.cpp:91] Creating Layer ip2_a
I0408 13:18:06.513844 14539 net.cpp:425] ip2_a <- pool2_a
I0408 13:18:06.513855 14539 net.cpp:399] ip2_a -> ip2_a
I0408 13:18:06.541311 14539 net.cpp:141] Setting up ip2_a
I0408 13:18:06.541349 14539 net.cpp:148] Top shape: 128 256 (32768)
I0408 13:18:06.541358 14539 net.cpp:156] Memory required for data: 114087424
I0408 13:18:06.541378 14539 layer_factory.hpp:77] Creating layer conv1_r
I0408 13:18:06.541399 14539 net.cpp:91] Creating Layer conv1_r
I0408 13:18:06.541410 14539 net.cpp:425] conv1_r <- ratemap
I0408 13:18:06.541424 14539 net.cpp:399] conv1_r -> conv1_r
I0408 13:18:06.542220 14539 net.cpp:141] Setting up conv1_r
I0408 13:18:06.542243 14539 net.cpp:148] Top shape: 128 128 9 58 (8552448)
I0408 13:18:06.542251 14539 net.cpp:156] Memory required for data: 148297216
I0408 13:18:06.542263 14539 layer_factory.hpp:77] Creating layer relu1_r
I0408 13:18:06.542279 14539 net.cpp:91] Creating Layer relu1_r
I0408 13:18:06.542289 14539 net.cpp:425] relu1_r <- conv1_r
I0408 13:18:06.542299 14539 net.cpp:386] relu1_r -> conv1_r (in-place)
I0408 13:18:06.542311 14539 net.cpp:141] Setting up relu1_r
I0408 13:18:06.542321 14539 net.cpp:148] Top shape: 128 128 9 58 (8552448)
I0408 13:18:06.542330 14539 net.cpp:156] Memory required for data: 182507008
I0408 13:18:06.542337 14539 layer_factory.hpp:77] Creating layer conv2_r
I0408 13:18:06.542352 14539 net.cpp:91] Creating Layer conv2_r
I0408 13:18:06.542364 14539 net.cpp:425] conv2_r <- conv1_r
I0408 13:18:06.542376 14539 net.cpp:399] conv2_r -> conv2_r
I0408 13:18:06.543929 14539 net.cpp:141] Setting up conv2_r
I0408 13:18:06.543952 14539 net.cpp:148] Top shape: 128 128 7 56 (6422528)
I0408 13:18:06.543961 14539 net.cpp:156] Memory required for data: 208197120
I0408 13:18:06.543977 14539 layer_factory.hpp:77] Creating layer pool2_r
I0408 13:18:06.543992 14539 net.cpp:91] Creating Layer pool2_r
I0408 13:18:06.543999 14539 net.cpp:425] pool2_r <- conv2_r
I0408 13:18:06.544010 14539 net.cpp:399] pool2_r -> pool2_r
I0408 13:18:06.544059 14539 net.cpp:141] Setting up pool2_r
I0408 13:18:06.544075 14539 net.cpp:148] Top shape: 128 128 4 28 (1835008)
I0408 13:18:06.544082 14539 net.cpp:156] Memory required for data: 215537152
I0408 13:18:06.544090 14539 layer_factory.hpp:77] Creating layer relu2_r
I0408 13:18:06.544102 14539 net.cpp:91] Creating Layer relu2_r
I0408 13:18:06.544111 14539 net.cpp:425] relu2_r <- pool2_r
I0408 13:18:06.544122 14539 net.cpp:386] relu2_r -> pool2_r (in-place)
I0408 13:18:06.544142 14539 net.cpp:141] Setting up relu2_r
I0408 13:18:06.544154 14539 net.cpp:148] Top shape: 128 128 4 28 (1835008)
I0408 13:18:06.544164 14539 net.cpp:156] Memory required for data: 222877184
I0408 13:18:06.544173 14539 layer_factory.hpp:77] Creating layer ip2_r
I0408 13:18:06.544184 14539 net.cpp:91] Creating Layer ip2_r
I0408 13:18:06.544194 14539 net.cpp:425] ip2_r <- pool2_r
I0408 13:18:06.544209 14539 net.cpp:399] ip2_r -> ip2_r
I0408 13:18:06.572007 14539 net.cpp:141] Setting up ip2_r
I0408 13:18:06.572048 14539 net.cpp:148] Top shape: 128 256 (32768)
I0408 13:18:06.572057 14539 net.cpp:156] Memory required for data: 223008256
I0408 13:18:06.572072 14539 layer_factory.hpp:77] Creating layer concat_ar
I0408 13:18:06.572094 14539 net.cpp:91] Creating Layer concat_ar
I0408 13:18:06.572104 14539 net.cpp:425] concat_ar <- ip2_a
I0408 13:18:06.572116 14539 net.cpp:425] concat_ar <- ip2_r
I0408 13:18:06.572129 14539 net.cpp:399] concat_ar -> ip2
I0408 13:18:06.572167 14539 net.cpp:141] Setting up concat_ar
I0408 13:18:06.572183 14539 net.cpp:148] Top shape: 128 512 (65536)
I0408 13:18:06.572191 14539 net.cpp:156] Memory required for data: 223270400
I0408 13:18:06.572201 14539 layer_factory.hpp:77] Creating layer relu2
I0408 13:18:06.572214 14539 net.cpp:91] Creating Layer relu2
I0408 13:18:06.572224 14539 net.cpp:425] relu2 <- ip2
I0408 13:18:06.572234 14539 net.cpp:386] relu2 -> ip2 (in-place)
I0408 13:18:06.572249 14539 net.cpp:141] Setting up relu2
I0408 13:18:06.572263 14539 net.cpp:148] Top shape: 128 512 (65536)
I0408 13:18:06.572273 14539 net.cpp:156] Memory required for data: 223532544
I0408 13:18:06.572281 14539 layer_factory.hpp:77] Creating layer dropip2
I0408 13:18:06.572296 14539 net.cpp:91] Creating Layer dropip2
I0408 13:18:06.572307 14539 net.cpp:425] dropip2 <- ip2
I0408 13:18:06.572319 14539 net.cpp:386] dropip2 -> ip2 (in-place)
I0408 13:18:06.572358 14539 net.cpp:141] Setting up dropip2
I0408 13:18:06.572374 14539 net.cpp:148] Top shape: 128 512 (65536)
I0408 13:18:06.572382 14539 net.cpp:156] Memory required for data: 223794688
I0408 13:18:06.572391 14539 layer_factory.hpp:77] Creating layer ip3
I0408 13:18:06.572408 14539 net.cpp:91] Creating Layer ip3
I0408 13:18:06.572417 14539 net.cpp:425] ip3 <- ip2
I0408 13:18:06.572432 14539 net.cpp:399] ip3 -> ip3
I0408 13:18:06.572588 14539 net.cpp:141] Setting up ip3
I0408 13:18:06.572607 14539 net.cpp:148] Top shape: 128 11 (1408)
I0408 13:18:06.572614 14539 net.cpp:156] Memory required for data: 223800320
I0408 13:18:06.572626 14539 layer_factory.hpp:77] Creating layer loss
I0408 13:18:06.572650 14539 net.cpp:91] Creating Layer loss
I0408 13:18:06.572660 14539 net.cpp:425] loss <- ip3
I0408 13:18:06.572669 14539 net.cpp:425] loss <- label
I0408 13:18:06.572684 14539 net.cpp:399] loss -> loss
I0408 13:18:06.572733 14539 net.cpp:141] Setting up loss
…
