…
I0519 16:37:36.462465 28927 solver.cpp:91] Creating training net from net file: /mnt/antares_raid/home/cindy/sabik/experiments/s1/train_val.prototxt
I0519 16:37:36.463508 28927 net.cpp:313] The NetState phase (0) differed from the phase (1) specified by a rule in layer data
I0519 16:37:36.463835 28927 net.cpp:49] Initializing net from parameters: 
name: "SoundNet"
state {
  phase: TRAIN
}
layer {
  name: "data"
  type: "HDF5Data"
  top: "amsFeatures"
  top: "ratemap"
  top: "label"
  include {
    phase: TRAIN
  }
  hdf5_data_param {
    source: "/mnt/antares_raid/home/cindy/sabik/experiments/twoears_data_train.txt"
    batch_size: 128
  }
}
layer {
  name: "ratemap"
  type: "Python"
  bottom: "ratemap"
  top: "ratemap"
  python_param {
    module: "nideep.layers.jitterlayer"
    layer: "JitterLayer"
    param_str: "{\'min_shift_t\':-4,\'max_shift_t\':4,\'min_shift_f\':-15,\'max_shift_f\':15}"
  }
}
layer {
  name: "amsFeatures"
  type: "Python"
  bottom: "amsFeatures"
  top: "amsFeatures"
  python_param {
    module: "nideep.layers.jitterlayer"
    layer: "JitterLayer"
    param_str: "{\'min_shift_t\':-4,\'max_shift_t\':4,\'min_shift_f\':-15,\'max_shift_f\':15}"
  }
}
layer {
  name: "conv1_a"
  type: "Convolution"
  bottom: "amsFeatures"
  top: "conv1_a"
  param {
    lr_mult: 1
    decay_mult: 1
  }
  param {
    lr_mult: 2
    decay_mult: 0
  }
  convolution_param {
    num_output: 128
    stride: 1
    weight_filler {
      type: "xavier"
    }
    bias_filler {
      type: "constant"
    }
    kernel_h: 8
    kernel_w: 6
  }
}
layer {
  name: "relu1_a"
  type: "ReLU"
  bottom: "conv1_a"
  top: "conv1_a"
}
layer {
  name: "conv2_a"
  type: "Convolution"
  bottom: "conv1_a"
  top: "conv2_a"
  param {
    lr_mult: 1
    decay_mult: 1
  }
  param {
    lr_mult: 2
    decay_mult: 0
  }
  convolution_param {
    num_output: 128
    stride: 1
    weight_filler {
      type: "xavier"
    }
    bias_filler {
      type: "constant"
    }
    kernel_h: 3
    kernel_w: 3
  }
}
layer {
  name: "pool2_a"
  type: "Pooling"
  bottom: "conv2_a"
  top: "pool2_a"
  pooling_param {
    pool: MAX
    kernel_size: 2
    stride: 2
  }
}
layer {
  name: "relu2_a"
  type: "ReLU"
  bottom: "pool2_a"
  top: "pool2_a"
}
layer {
  name: "ip2_a"
  type: "InnerProduct"
  bottom: "pool2_a"
  top: "ip2_a"
  param {
    lr_mult: 1
  }
  param {
    lr_mult: 2
  }
  inner_product_param {
    num_output: 256
    weight_filler {
      type: "xavier"
    }
    bias_filler {
      type: "constant"
    }
  }
}
layer {
  name: "conv1_r"
  type: "Convolution"
  bottom: "ratemap"
  top: "conv1_r"
  param {
    lr_mult: 1
    decay_mult: 1
  }
  param {
    lr_mult: 2
    decay_mult: 0
  }
  convolution_param {
    num_output: 128
    stride: 1
    weight_filler {
      type: "xavier"
    }
    bias_filler {
      type: "constant"
    }
    kernel_h: 8
    kernel_w: 6
  }
}
layer {
  name: "relu1_r"
  type: "ReLU"
  bottom: "conv1_r"
  top: "conv1_r"
}
layer {
  name: "conv2_r"
  type: "Convolution"
  bottom: "conv1_r"
  top: "conv2_r"
  param {
    lr_mult: 1
    decay_mult: 1
  }
  param {
    lr_mult: 2
    decay_mult: 0
  }
  convolution_param {
    num_output: 128
    stride: 1
    weight_filler {
      type: "xavier"
    }
    bias_filler {
      type: "constant"
    }
    kernel_h: 3
    kernel_w: 3
  }
}
layer {
  name: "pool2_r"
  type: "Pooling"
  bottom: "conv2_r"
  top: "pool2_r"
  pooling_param {
    pool: MAX
    kernel_size: 2
    stride: 2
  }
}
layer {
  name: "relu2_r"
  type: "ReLU"
  bottom: "pool2_r"
  top: "pool2_r"
}
layer {
  name: "ip2_r"
  type: "InnerProduct"
  bottom: "pool2_r"
  top: "ip2_r"
  param {
    lr_mult: 1
  }
  param {
    lr_mult: 2
  }
  inner_product_param {
    num_output: 256
    weight_filler {
      type: "xavier"
    }
    bias_filler {
      type: "constant"
    }
  }
}
layer {
  name: "concat_ar"
  type: "Concat"
  bottom: "ip2_a"
  bottom: "ip2_r"
  top: "ip2"
  concat_param {
    axis: 1
  }
}
layer {
  name: "relu2"
  type: "ReLU"
  bottom: "ip2"
  top: "ip2"
}
layer {
  name: "dropip2"
  type: "Dropout"
  bottom: "ip2"
  top: "ip2"
  dropout_param {
    dropout_ratio: 0.5
  }
}
layer {
  name: "ip3"
  type: "InnerProduct"
  bottom: "ip2"
  top: "ip3"
  param {
    lr_mult: 1
  }
  param {
    lr_mult: 2
  }
  inner_product_param {
    num_output: 11
    weight_filler {
      type: "xavier"
    }
    bias_filler {
      type: "constant"
    }
  }
}
layer {
  name: "loss"
  type: "SigmoidCrossEntropyLoss"
  bottom: "ip3"
  bottom: "label"
  top: "loss"
}
I0519 16:37:36.464946 28927 layer_factory.hpp:77] Creating layer data
I0519 16:37:36.464982 28927 net.cpp:91] Creating Layer data
I0519 16:37:36.465006 28927 net.cpp:399] data -> amsFeatures
I0519 16:37:36.465052 28927 net.cpp:399] data -> ratemap
I0519 16:37:36.465076 28927 net.cpp:399] data -> label
I0519 16:37:36.465104 28927 hdf5_data_layer.cpp:79] Loading list of HDF5 filenames from: /mnt/antares_raid/home/cindy/sabik/experiments/twoears_data_train.txt
I0519 16:37:36.465456 28927 hdf5_data_layer.cpp:93] Number of HDF5 files: 5
I0519 16:37:36.467190 28927 hdf5.cpp:32] Datatype class: H5T_FLOAT
I0519 16:37:42.735167 28927 net.cpp:141] Setting up data
I0519 16:37:42.735240 28927 net.cpp:148] Top shape: 128 9 16 63 (1161216)
I0519 16:37:42.735255 28927 net.cpp:148] Top shape: 128 1 16 63 (129024)
I0519 16:37:42.735265 28927 net.cpp:148] Top shape: 128 1 11 1 (1408)
I0519 16:37:42.735275 28927 net.cpp:156] Memory required for data: 5166592
I0519 16:37:42.735318 28927 layer_factory.hpp:77] Creating layer ratemap
I0519 16:37:43.446182 28927 net.cpp:91] Creating Layer ratemap
I0519 16:37:43.446236 28927 net.cpp:425] ratemap <- ratemap
I0519 16:37:43.446265 28927 net.cpp:386] ratemap -> ratemap (in-place)
I0519 16:37:43.447201 28927 net.cpp:141] Setting up ratemap
I0519 16:37:43.447228 28927 net.cpp:148] Top shape: 128 1 16 63 (129024)
I0519 16:37:43.447238 28927 net.cpp:156] Memory required for data: 5682688
I0519 16:37:43.447252 28927 layer_factory.hpp:77] Creating layer amsFeatures
I0519 16:37:43.447300 28927 net.cpp:91] Creating Layer amsFeatures
I0519 16:37:43.447314 28927 net.cpp:425] amsFeatures <- amsFeatures
I0519 16:37:43.447329 28927 net.cpp:386] amsFeatures -> amsFeatures (in-place)
I0519 16:37:43.449672 28927 net.cpp:141] Setting up amsFeatures
I0519 16:37:43.449698 28927 net.cpp:148] Top shape: 128 9 16 63 (1161216)
I0519 16:37:43.449708 28927 net.cpp:156] Memory required for data: 10327552
I0519 16:37:43.449718 28927 layer_factory.hpp:77] Creating layer conv1_a
I0519 16:37:43.449755 28927 net.cpp:91] Creating Layer conv1_a
I0519 16:37:43.449779 28927 net.cpp:425] conv1_a <- amsFeatures
I0519 16:37:43.449793 28927 net.cpp:399] conv1_a -> conv1_a
I0519 16:37:43.451999 28927 net.cpp:141] Setting up conv1_a
I0519 16:37:43.452023 28927 net.cpp:148] Top shape: 128 128 9 58 (8552448)
I0519 16:37:43.452033 28927 net.cpp:156] Memory required for data: 44537344
I0519 16:37:43.452062 28927 layer_factory.hpp:77] Creating layer relu1_a
I0519 16:37:43.452097 28927 net.cpp:91] Creating Layer relu1_a
I0519 16:37:43.452108 28927 net.cpp:425] relu1_a <- conv1_a
I0519 16:37:43.452122 28927 net.cpp:386] relu1_a -> conv1_a (in-place)
I0519 16:37:43.452143 28927 net.cpp:141] Setting up relu1_a
I0519 16:37:43.452170 28927 net.cpp:148] Top shape: 128 128 9 58 (8552448)
I0519 16:37:43.452179 28927 net.cpp:156] Memory required for data: 78747136
I0519 16:37:43.452188 28927 layer_factory.hpp:77] Creating layer conv2_a
I0519 16:37:43.452203 28927 net.cpp:91] Creating Layer conv2_a
I0519 16:37:43.452214 28927 net.cpp:425] conv2_a <- conv1_a
I0519 16:37:43.452236 28927 net.cpp:399] conv2_a -> conv2_a
I0519 16:37:43.454076 28927 net.cpp:141] Setting up conv2_a
I0519 16:37:43.454110 28927 net.cpp:148] Top shape: 128 128 7 56 (6422528)
I0519 16:37:43.454120 28927 net.cpp:156] Memory required for data: 104437248
I0519 16:37:43.454138 28927 layer_factory.hpp:77] Creating layer pool2_a
I0519 16:37:43.454152 28927 net.cpp:91] Creating Layer pool2_a
I0519 16:37:43.454166 28927 net.cpp:425] pool2_a <- conv2_a
I0519 16:37:43.454179 28927 net.cpp:399] pool2_a -> pool2_a
I0519 16:37:43.454260 28927 net.cpp:141] Setting up pool2_a
I0519 16:37:43.454277 28927 net.cpp:148] Top shape: 128 128 4 28 (1835008)
I0519 16:37:43.454288 28927 net.cpp:156] Memory required for data: 111777280
I0519 16:37:43.454296 28927 layer_factory.hpp:77] Creating layer relu2_a
I0519 16:37:43.454309 28927 net.cpp:91] Creating Layer relu2_a
I0519 16:37:43.454319 28927 net.cpp:425] relu2_a <- pool2_a
I0519 16:37:43.454330 28927 net.cpp:386] relu2_a -> pool2_a (in-place)
I0519 16:37:43.454354 28927 net.cpp:141] Setting up relu2_a
I0519 16:37:43.454365 28927 net.cpp:148] Top shape: 128 128 4 28 (1835008)
I0519 16:37:43.454373 28927 net.cpp:156] Memory required for data: 119117312
I0519 16:37:43.454382 28927 layer_factory.hpp:77] Creating layer ip2_a
I0519 16:37:43.454414 28927 net.cpp:91] Creating Layer ip2_a
I0519 16:37:43.454424 28927 net.cpp:425] ip2_a <- pool2_a
I0519 16:37:43.454437 28927 net.cpp:399] ip2_a -> ip2_a
I0519 16:37:43.490067 28927 net.cpp:141] Setting up ip2_a
I0519 16:37:43.490123 28927 net.cpp:148] Top shape: 128 256 (32768)
I0519 16:37:43.490134 28927 net.cpp:156] Memory required for data: 119248384
I0519 16:37:43.490170 28927 layer_factory.hpp:77] Creating layer conv1_r
I0519 16:37:43.490196 28927 net.cpp:91] Creating Layer conv1_r
I0519 16:37:43.490208 28927 net.cpp:425] conv1_r <- ratemap
I0519 16:37:43.490226 28927 net.cpp:399] conv1_r -> conv1_r
I0519 16:37:43.491220 28927 net.cpp:141] Setting up conv1_r
I0519 16:37:43.491242 28927 net.cpp:148] Top shape: 128 128 9 58 (8552448)
I0519 16:37:43.491252 28927 net.cpp:156] Memory required for data: 153458176
I0519 16:37:43.491266 28927 layer_factory.hpp:77] Creating layer relu1_r
I0519 16:37:43.491279 28927 net.cpp:91] Creating Layer relu1_r
I0519 16:37:43.491289 28927 net.cpp:425] relu1_r <- conv1_r
I0519 16:37:43.491302 28927 net.cpp:386] relu1_r -> conv1_r (in-place)
I0519 16:37:43.491329 28927 net.cpp:141] Setting up relu1_r
I0519 16:37:43.491341 28927 net.cpp:148] Top shape: 128 128 9 58 (8552448)
I0519 16:37:43.491350 28927 net.cpp:156] Memory required for data: 187667968
I0519 16:37:43.491359 28927 layer_factory.hpp:77] Creating layer conv2_r
I0519 16:37:43.491380 28927 net.cpp:91] Creating Layer conv2_r
I0519 16:37:43.491394 28927 net.cpp:425] conv2_r <- conv1_r
I0519 16:37:43.491407 28927 net.cpp:399] conv2_r -> conv2_r
I0519 16:37:43.493257 28927 net.cpp:141] Setting up conv2_r
I0519 16:37:43.493280 28927 net.cpp:148] Top shape: 128 128 7 56 (6422528)
I0519 16:37:43.493289 28927 net.cpp:156] Memory required for data: 213358080
I0519 16:37:43.493307 28927 layer_factory.hpp:77] Creating layer pool2_r
I0519 16:37:43.493324 28927 net.cpp:91] Creating Layer pool2_r
I0519 16:37:43.493336 28927 net.cpp:425] pool2_r <- conv2_r
I0519 16:37:43.493361 28927 net.cpp:399] pool2_r -> pool2_r
I0519 16:37:43.493415 28927 net.cpp:141] Setting up pool2_r
I0519 16:37:43.493448 28927 net.cpp:148] Top shape: 128 128 4 28 (1835008)
I0519 16:37:43.493458 28927 net.cpp:156] Memory required for data: 220698112
I0519 16:37:43.493468 28927 layer_factory.hpp:77] Creating layer relu2_r
I0519 16:37:43.493479 28927 net.cpp:91] Creating Layer relu2_r
I0519 16:37:43.493487 28927 net.cpp:425] relu2_r <- pool2_r
I0519 16:37:43.493499 28927 net.cpp:386] relu2_r -> pool2_r (in-place)
I0519 16:37:43.493525 28927 net.cpp:141] Setting up relu2_r
I0519 16:37:43.493536 28927 net.cpp:148] Top shape: 128 128 4 28 (1835008)
I0519 16:37:43.493546 28927 net.cpp:156] Memory required for data: 228038144
I0519 16:37:43.493554 28927 layer_factory.hpp:77] Creating layer ip2_r
I0519 16:37:43.493571 28927 net.cpp:91] Creating Layer ip2_r
I0519 16:37:43.493589 28927 net.cpp:425] ip2_r <- pool2_r
I0519 16:37:43.493603 28927 net.cpp:399] ip2_r -> ip2_r
I0519 16:37:43.526908 28927 net.cpp:141] Setting up ip2_r
I0519 16:37:43.526968 28927 net.cpp:148] Top shape: 128 256 (32768)
I0519 16:37:43.526978 28927 net.cpp:156] Memory required for data: 228169216
I0519 16:37:43.526998 28927 layer_factory.hpp:77] Creating layer concat_ar
I0519 16:37:43.527025 28927 net.cpp:91] Creating Layer concat_ar
I0519 16:37:43.527037 28927 net.cpp:425] concat_ar <- ip2_a
I0519 16:37:43.527051 28927 net.cpp:425] concat_ar <- ip2_r
I0519 16:37:43.527066 28927 net.cpp:399] concat_ar -> ip2
I0519 16:37:43.527127 28927 net.cpp:141] Setting up concat_ar
I0519 16:37:43.527146 28927 net.cpp:148] Top shape: 128 512 (65536)
I0519 16:37:43.527155 28927 net.cpp:156] Memory required for data: 228431360
I0519 16:37:43.527165 28927 layer_factory.hpp:77] Creating layer relu2
I0519 16:37:43.527197 28927 net.cpp:91] Creating Layer relu2
I0519 16:37:43.527210 28927 net.cpp:425] relu2 <- ip2
I0519 16:37:43.527222 28927 net.cpp:386] relu2 -> ip2 (in-place)
I0519 16:37:43.527238 28927 net.cpp:141] Setting up relu2
I0519 16:37:43.527251 28927 net.cpp:148] Top shape: 128 512 (65536)
I0519 16:37:43.527269 28927 net.cpp:156] Memory required for data: 228693504
I0519 16:37:43.527278 28927 layer_factory.hpp:77] Creating layer dropip2
I0519 16:37:43.527299 28927 net.cpp:91] Creating Layer dropip2
I0519 16:37:43.527310 28927 net.cpp:425] dropip2 <- ip2
I0519 16:37:43.527333 28927 net.cpp:386] dropip2 -> ip2 (in-place)
I0519 16:37:43.527375 28927 net.cpp:141] Setting up dropip2
I0519 16:37:43.527392 28927 net.cpp:148] Top shape: 128 512 (65536)
I0519 16:37:43.527400 28927 net.cpp:156] Memory required for data: 228955648
I0519 16:37:43.527410 28927 layer_factory.hpp:77] Creating layer ip3
I0519 16:37:43.527443 28927 net.cpp:91] Creating Layer ip3
I0519 16:37:43.527453 28927 net.cpp:425] ip3 <- ip2
I0519 16:37:43.527464 28927 net.cpp:399] ip3 -> ip3
I0519 16:37:43.527668 28927 net.cpp:141] Setting up ip3
I0519 16:37:43.527688 28927 net.cpp:148] Top shape: 128 11 (1408)
I0519 16:37:43.527707 28927 net.cpp:156] Memory required for data: 228961280
I0519 16:37:43.527720 28927 layer_factory.hpp:77] Creating layer loss
I0519 16:37:43.527739 28927 net.cpp:91] Creating Layer loss
I0519 16:37:43.527748 28927 net.cpp:425] loss <- ip3
I0519 16:37:43.527770 28927 net.cpp:425] loss <- label
I0519 16:37:43.527797 28927 net.cpp:399] loss -> loss
I0519 16:37:43.527861 28927 net.cpp:141] Setting up loss
…
