…
I0519 13:41:52.783498 27321 solver.cpp:91] Creating training net from net file: /mnt/antares_raid/home/cindy/sabik/experiments/s1/train_val.prototxt
I0519 13:41:52.784931 27321 net.cpp:313] The NetState phase (0) differed from the phase (1) specified by a rule in layer data
I0519 13:41:52.785238 27321 net.cpp:49] Initializing net from parameters: 
name: "SoundNet"
state {
  phase: TRAIN
}
layer {
  name: "data"
  type: "HDF5Data"
  top: "amsFeatures"
  top: "ratemap"
  top: "label"
  include {
    phase: TRAIN
  }
  hdf5_data_param {
    source: "/mnt/antares_raid/home/cindy/sabik/experiments/twoears_data_train.txt"
    batch_size: 128
  }
}
layer {
  name: "ratemap"
  type: "Python"
  bottom: "ratemap"
  top: "ratemap"
  python_param {
    module: "nideep.layers.jitterlayer"
    layer: "JitterLayer"
    param_str: "{\'min_shift_t\':-4,\'max_shift_t\':4,\'min_shift_f\':-15,\'max_shift_f\':15}"
  }
}
layer {
  name: "amsFeatures"
  type: "Python"
  bottom: "amsFeatures"
  top: "amsFeatures"
  python_param {
    module: "nideep.layers.jitterlayer"
    layer: "JitterLayer"
    param_str: "{\'min_shift_t\':-4,\'max_shift_t\':4,\'min_shift_f\':-15,\'max_shift_f\':15}"
  }
}
layer {
  name: "conv1_a"
  type: "Convolution"
  bottom: "amsFeatures"
  top: "conv1_a"
  param {
    lr_mult: 1
    decay_mult: 1
  }
  param {
    lr_mult: 2
    decay_mult: 0
  }
  convolution_param {
    num_output: 128
    stride: 1
    weight_filler {
      type: "xavier"
    }
    bias_filler {
      type: "constant"
    }
    kernel_h: 8
    kernel_w: 6
  }
}
layer {
  name: "relu1_a"
  type: "ReLU"
  bottom: "conv1_a"
  top: "conv1_a"
}
layer {
  name: "conv2_a"
  type: "Convolution"
  bottom: "conv1_a"
  top: "conv2_a"
  param {
    lr_mult: 1
    decay_mult: 1
  }
  param {
    lr_mult: 2
    decay_mult: 0
  }
  convolution_param {
    num_output: 128
    stride: 1
    weight_filler {
      type: "xavier"
    }
    bias_filler {
      type: "constant"
    }
    kernel_h: 3
    kernel_w: 3
  }
}
layer {
  name: "pool2_a"
  type: "Pooling"
  bottom: "conv2_a"
  top: "pool2_a"
  pooling_param {
    pool: MAX
    kernel_size: 2
    stride: 2
  }
}
layer {
  name: "relu2_a"
  type: "ReLU"
  bottom: "pool2_a"
  top: "pool2_a"
}
layer {
  name: "ip2_a"
  type: "InnerProduct"
  bottom: "pool2_a"
  top: "ip2_a"
  param {
    lr_mult: 1
  }
  param {
    lr_mult: 2
  }
  inner_product_param {
    num_output: 256
    weight_filler {
      type: "xavier"
    }
    bias_filler {
      type: "constant"
    }
  }
}
layer {
  name: "conv1_r"
  type: "Convolution"
  bottom: "ratemap"
  top: "conv1_r"
  param {
    lr_mult: 1
    decay_mult: 1
  }
  param {
    lr_mult: 2
    decay_mult: 0
  }
  convolution_param {
    num_output: 128
    stride: 1
    weight_filler {
      type: "xavier"
    }
    bias_filler {
      type: "constant"
    }
    kernel_h: 8
    kernel_w: 6
  }
}
layer {
  name: "relu1_r"
  type: "ReLU"
  bottom: "conv1_r"
  top: "conv1_r"
}
layer {
  name: "conv2_r"
  type: "Convolution"
  bottom: "conv1_r"
  top: "conv2_r"
  param {
    lr_mult: 1
    decay_mult: 1
  }
  param {
    lr_mult: 2
    decay_mult: 0
  }
  convolution_param {
    num_output: 128
    stride: 1
    weight_filler {
      type: "xavier"
    }
    bias_filler {
      type: "constant"
    }
    kernel_h: 3
    kernel_w: 3
  }
}
layer {
  name: "pool2_r"
  type: "Pooling"
  bottom: "conv2_r"
  top: "pool2_r"
  pooling_param {
    pool: MAX
    kernel_size: 2
    stride: 2
  }
}
layer {
  name: "relu2_r"
  type: "ReLU"
  bottom: "pool2_r"
  top: "pool2_r"
}
layer {
  name: "ip2_r"
  type: "InnerProduct"
  bottom: "pool2_r"
  top: "ip2_r"
  param {
    lr_mult: 1
  }
  param {
    lr_mult: 2
  }
  inner_product_param {
    num_output: 256
    weight_filler {
      type: "xavier"
    }
    bias_filler {
      type: "constant"
    }
  }
}
layer {
  name: "concat_ar"
  type: "Concat"
  bottom: "ip2_a"
  bottom: "ip2_r"
  top: "ip2"
  concat_param {
    axis: 1
  }
}
layer {
  name: "relu2"
  type: "ReLU"
  bottom: "ip2"
  top: "ip2"
}
layer {
  name: "dropip2"
  type: "Dropout"
  bottom: "ip2"
  top: "ip2"
  dropout_param {
    dropout_ratio: 0.5
  }
}
layer {
  name: "ip3"
  type: "InnerProduct"
  bottom: "ip2"
  top: "ip3"
  param {
    lr_mult: 1
  }
  param {
    lr_mult: 2
  }
  inner_product_param {
    num_output: 11
    weight_filler {
      type: "xavier"
    }
    bias_filler {
      type: "constant"
    }
  }
}
layer {
  name: "loss"
  type: "SigmoidCrossEntropyLoss"
  bottom: "ip3"
  bottom: "label"
  top: "loss"
}
I0519 13:41:52.786332 27321 layer_factory.hpp:77] Creating layer data
I0519 13:41:52.786365 27321 net.cpp:91] Creating Layer data
I0519 13:41:52.786386 27321 net.cpp:399] data -> amsFeatures
I0519 13:41:52.786423 27321 net.cpp:399] data -> ratemap
I0519 13:41:52.786445 27321 net.cpp:399] data -> label
I0519 13:41:52.786469 27321 hdf5_data_layer.cpp:79] Loading list of HDF5 filenames from: /mnt/antares_raid/home/cindy/sabik/experiments/twoears_data_train.txt
I0519 13:41:52.794276 27321 hdf5_data_layer.cpp:93] Number of HDF5 files: 5
I0519 13:41:52.848865 27321 hdf5.cpp:32] Datatype class: H5T_FLOAT
I0519 13:42:45.992882 27321 net.cpp:141] Setting up data
I0519 13:42:45.993379 27321 net.cpp:148] Top shape: 128 9 16 63 (1161216)
I0519 13:42:45.993399 27321 net.cpp:148] Top shape: 128 1 16 63 (129024)
I0519 13:42:45.993410 27321 net.cpp:148] Top shape: 128 1 11 1 (1408)
I0519 13:42:45.993419 27321 net.cpp:156] Memory required for data: 5166592
I0519 13:42:45.993439 27321 layer_factory.hpp:77] Creating layer ratemap
I0519 13:42:46.897761 27321 net.cpp:91] Creating Layer ratemap
I0519 13:42:46.897804 27321 net.cpp:425] ratemap <- ratemap
I0519 13:42:46.897835 27321 net.cpp:386] ratemap -> ratemap (in-place)
I0519 13:42:46.898761 27321 net.cpp:141] Setting up ratemap
I0519 13:42:46.898792 27321 net.cpp:148] Top shape: 128 1 16 63 (129024)
I0519 13:42:46.898805 27321 net.cpp:156] Memory required for data: 5682688
I0519 13:42:46.898818 27321 layer_factory.hpp:77] Creating layer amsFeatures
I0519 13:42:46.898865 27321 net.cpp:91] Creating Layer amsFeatures
I0519 13:42:46.898882 27321 net.cpp:425] amsFeatures <- amsFeatures
I0519 13:42:46.898897 27321 net.cpp:386] amsFeatures -> amsFeatures (in-place)
I0519 13:42:46.901715 27321 net.cpp:141] Setting up amsFeatures
I0519 13:42:46.901744 27321 net.cpp:148] Top shape: 128 9 16 63 (1161216)
I0519 13:42:46.901756 27321 net.cpp:156] Memory required for data: 10327552
I0519 13:42:46.901767 27321 layer_factory.hpp:77] Creating layer conv1_a
I0519 13:42:46.901806 27321 net.cpp:91] Creating Layer conv1_a
I0519 13:42:46.901823 27321 net.cpp:425] conv1_a <- amsFeatures
I0519 13:42:46.901839 27321 net.cpp:399] conv1_a -> conv1_a
I0519 13:42:46.904417 27321 net.cpp:141] Setting up conv1_a
I0519 13:42:46.904445 27321 net.cpp:148] Top shape: 128 128 9 58 (8552448)
I0519 13:42:46.904458 27321 net.cpp:156] Memory required for data: 44537344
I0519 13:42:46.904489 27321 layer_factory.hpp:77] Creating layer relu1_a
I0519 13:42:46.904510 27321 net.cpp:91] Creating Layer relu1_a
I0519 13:42:46.904525 27321 net.cpp:425] relu1_a <- conv1_a
I0519 13:42:46.904538 27321 net.cpp:386] relu1_a -> conv1_a (in-place)
I0519 13:42:46.904558 27321 net.cpp:141] Setting up relu1_a
I0519 13:42:46.904572 27321 net.cpp:148] Top shape: 128 128 9 58 (8552448)
I0519 13:42:46.904582 27321 net.cpp:156] Memory required for data: 78747136
I0519 13:42:46.904592 27321 layer_factory.hpp:77] Creating layer conv2_a
I0519 13:42:46.904610 27321 net.cpp:91] Creating Layer conv2_a
I0519 13:42:46.904623 27321 net.cpp:425] conv2_a <- conv1_a
I0519 13:42:46.904639 27321 net.cpp:399] conv2_a -> conv2_a
I0519 13:42:46.906932 27321 net.cpp:141] Setting up conv2_a
I0519 13:42:46.906960 27321 net.cpp:148] Top shape: 128 128 7 56 (6422528)
I0519 13:42:46.906972 27321 net.cpp:156] Memory required for data: 104437248
I0519 13:42:46.906991 27321 layer_factory.hpp:77] Creating layer pool2_a
I0519 13:42:46.907011 27321 net.cpp:91] Creating Layer pool2_a
I0519 13:42:46.907022 27321 net.cpp:425] pool2_a <- conv2_a
I0519 13:42:46.907042 27321 net.cpp:399] pool2_a -> pool2_a
I0519 13:42:46.907114 27321 net.cpp:141] Setting up pool2_a
I0519 13:42:46.907135 27321 net.cpp:148] Top shape: 128 128 4 28 (1835008)
I0519 13:42:46.907150 27321 net.cpp:156] Memory required for data: 111777280
I0519 13:42:46.907160 27321 layer_factory.hpp:77] Creating layer relu2_a
I0519 13:42:46.907176 27321 net.cpp:91] Creating Layer relu2_a
I0519 13:42:46.907187 27321 net.cpp:425] relu2_a <- pool2_a
I0519 13:42:46.907202 27321 net.cpp:386] relu2_a -> pool2_a (in-place)
I0519 13:42:46.907217 27321 net.cpp:141] Setting up relu2_a
I0519 13:42:46.907229 27321 net.cpp:148] Top shape: 128 128 4 28 (1835008)
I0519 13:42:46.907239 27321 net.cpp:156] Memory required for data: 119117312
I0519 13:42:46.907250 27321 layer_factory.hpp:77] Creating layer ip2_a
I0519 13:42:46.907272 27321 net.cpp:91] Creating Layer ip2_a
I0519 13:42:46.907286 27321 net.cpp:425] ip2_a <- pool2_a
I0519 13:42:46.907301 27321 net.cpp:399] ip2_a -> ip2_a
I0519 13:42:46.947590 27321 net.cpp:141] Setting up ip2_a
I0519 13:42:46.947644 27321 net.cpp:148] Top shape: 128 256 (32768)
I0519 13:42:46.947664 27321 net.cpp:156] Memory required for data: 119248384
I0519 13:42:46.947691 27321 layer_factory.hpp:77] Creating layer conv1_r
I0519 13:42:46.947720 27321 net.cpp:91] Creating Layer conv1_r
I0519 13:42:46.947733 27321 net.cpp:425] conv1_r <- ratemap
I0519 13:42:46.947753 27321 net.cpp:399] conv1_r -> conv1_r
I0519 13:42:46.948751 27321 net.cpp:141] Setting up conv1_r
I0519 13:42:46.948777 27321 net.cpp:148] Top shape: 128 128 9 58 (8552448)
I0519 13:42:46.948788 27321 net.cpp:156] Memory required for data: 153458176
I0519 13:42:46.948806 27321 layer_factory.hpp:77] Creating layer relu1_r
I0519 13:42:46.948820 27321 net.cpp:91] Creating Layer relu1_r
I0519 13:42:46.948832 27321 net.cpp:425] relu1_r <- conv1_r
I0519 13:42:46.948848 27321 net.cpp:386] relu1_r -> conv1_r (in-place)
I0519 13:42:46.948866 27321 net.cpp:141] Setting up relu1_r
I0519 13:42:46.948879 27321 net.cpp:148] Top shape: 128 128 9 58 (8552448)
I0519 13:42:46.948890 27321 net.cpp:156] Memory required for data: 187667968
I0519 13:42:46.948904 27321 layer_factory.hpp:77] Creating layer conv2_r
I0519 13:42:46.948920 27321 net.cpp:91] Creating Layer conv2_r
I0519 13:42:46.948932 27321 net.cpp:425] conv2_r <- conv1_r
I0519 13:42:46.948947 27321 net.cpp:399] conv2_r -> conv2_r
I0519 13:42:46.951133 27321 net.cpp:141] Setting up conv2_r
I0519 13:42:46.951160 27321 net.cpp:148] Top shape: 128 128 7 56 (6422528)
I0519 13:42:46.951174 27321 net.cpp:156] Memory required for data: 213358080
I0519 13:42:46.951194 27321 layer_factory.hpp:77] Creating layer pool2_r
I0519 13:42:46.951212 27321 net.cpp:91] Creating Layer pool2_r
I0519 13:42:46.951226 27321 net.cpp:425] pool2_r <- conv2_r
I0519 13:42:46.951241 27321 net.cpp:399] pool2_r -> pool2_r
I0519 13:42:46.951297 27321 net.cpp:141] Setting up pool2_r
I0519 13:42:46.951315 27321 net.cpp:148] Top shape: 128 128 4 28 (1835008)
I0519 13:42:46.951328 27321 net.cpp:156] Memory required for data: 220698112
I0519 13:42:46.951339 27321 layer_factory.hpp:77] Creating layer relu2_r
I0519 13:42:46.951352 27321 net.cpp:91] Creating Layer relu2_r
I0519 13:42:46.951370 27321 net.cpp:425] relu2_r <- pool2_r
I0519 13:42:46.951383 27321 net.cpp:386] relu2_r -> pool2_r (in-place)
I0519 13:42:46.951398 27321 net.cpp:141] Setting up relu2_r
I0519 13:42:46.951411 27321 net.cpp:148] Top shape: 128 128 4 28 (1835008)
I0519 13:42:46.951423 27321 net.cpp:156] Memory required for data: 228038144
I0519 13:42:46.951434 27321 layer_factory.hpp:77] Creating layer ip2_r
I0519 13:42:46.951452 27321 net.cpp:91] Creating Layer ip2_r
I0519 13:42:46.951462 27321 net.cpp:425] ip2_r <- pool2_r
I0519 13:42:46.951477 27321 net.cpp:399] ip2_r -> ip2_r
I0519 13:42:46.993016 27321 net.cpp:141] Setting up ip2_r
I0519 13:42:46.993075 27321 net.cpp:148] Top shape: 128 256 (32768)
I0519 13:42:46.993088 27321 net.cpp:156] Memory required for data: 228169216
I0519 13:42:46.993119 27321 layer_factory.hpp:77] Creating layer concat_ar
I0519 13:42:46.993151 27321 net.cpp:91] Creating Layer concat_ar
I0519 13:42:46.993172 27321 net.cpp:425] concat_ar <- ip2_a
I0519 13:42:46.993187 27321 net.cpp:425] concat_ar <- ip2_r
I0519 13:42:46.993203 27321 net.cpp:399] concat_ar -> ip2
I0519 13:42:46.993253 27321 net.cpp:141] Setting up concat_ar
I0519 13:42:46.993273 27321 net.cpp:148] Top shape: 128 512 (65536)
I0519 13:42:46.993283 27321 net.cpp:156] Memory required for data: 228431360
I0519 13:42:46.993294 27321 layer_factory.hpp:77] Creating layer relu2
I0519 13:42:46.993324 27321 net.cpp:91] Creating Layer relu2
I0519 13:42:46.993335 27321 net.cpp:425] relu2 <- ip2
I0519 13:42:46.993350 27321 net.cpp:386] relu2 -> ip2 (in-place)
I0519 13:42:46.993367 27321 net.cpp:141] Setting up relu2
I0519 13:42:46.993381 27321 net.cpp:148] Top shape: 128 512 (65536)
I0519 13:42:46.993391 27321 net.cpp:156] Memory required for data: 228693504
I0519 13:42:46.993402 27321 layer_factory.hpp:77] Creating layer dropip2
I0519 13:42:46.993420 27321 net.cpp:91] Creating Layer dropip2
I0519 13:42:46.993432 27321 net.cpp:425] dropip2 <- ip2
I0519 13:42:46.993445 27321 net.cpp:386] dropip2 -> ip2 (in-place)
I0519 13:42:46.993495 27321 net.cpp:141] Setting up dropip2
I0519 13:42:46.993525 27321 net.cpp:148] Top shape: 128 512 (65536)
I0519 13:42:46.993535 27321 net.cpp:156] Memory required for data: 228955648
I0519 13:42:46.993546 27321 layer_factory.hpp:77] Creating layer ip3
I0519 13:42:46.993566 27321 net.cpp:91] Creating Layer ip3
I0519 13:42:46.993579 27321 net.cpp:425] ip3 <- ip2
I0519 13:42:46.993594 27321 net.cpp:399] ip3 -> ip3
I0519 13:42:46.993800 27321 net.cpp:141] Setting up ip3
I0519 13:42:46.993820 27321 net.cpp:148] Top shape: 128 11 (1408)
I0519 13:42:46.993831 27321 net.cpp:156] Memory required for data: 228961280
I0519 13:42:46.993846 27321 layer_factory.hpp:77] Creating layer loss
I0519 13:42:46.993870 27321 net.cpp:91] Creating Layer loss
I0519 13:42:46.993881 27321 net.cpp:425] loss <- ip3
I0519 13:42:46.993896 27321 net.cpp:425] loss <- label
I0519 13:42:46.993913 27321 net.cpp:399] loss -> loss
I0519 13:42:46.993973 27321 net.cpp:141] Setting up loss
…
