…
I0519 17:32:09.300473 30084 solver.cpp:91] Creating training net from net file: /mnt/antares_raid/home/cindy/sabik/experiments/s1/train_val.prototxt
I0519 17:32:09.302320 30084 net.cpp:313] The NetState phase (0) differed from the phase (1) specified by a rule in layer data
I0519 17:32:09.302925 30084 net.cpp:49] Initializing net from parameters: 
name: "SoundNet"
state {
  phase: TRAIN
}
layer {
  name: "data"
  type: "HDF5Data"
  top: "amsFeatures"
  top: "ratemap"
  top: "label"
  include {
    phase: TRAIN
  }
  hdf5_data_param {
    source: "/mnt/antares_raid/home/cindy/sabik/experiments/twoears_data_train.txt"
    batch_size: 128
  }
}
layer {
  name: "ratemap"
  type: "Python"
  bottom: "ratemap"
  top: "ratemap"
  include {
    phase: TRAIN
  }
  python_param {
    module: "nideep.layers.jitterlayer"
    layer: "JitterLayer"
    param_str: "{\'min_shift_f\':-4,\'max_shift_f\':4,\'min_shift_t\':-15,\'max_shift_t\':15}"
  }
}
layer {
  name: "amsFeatures"
  type: "Python"
  bottom: "amsFeatures"
  top: "amsFeatures"
  include {
    phase: TRAIN
  }
  python_param {
    module: "nideep.layers.jitterlayer"
    layer: "JitterLayer"
    param_str: "{\'min_shift_f\':-4,\'max_shift_f\':4,\'min_shift_t\':-15,\'max_shift_t\':15}"
  }
}
layer {
  name: "conv1_a"
  type: "Convolution"
  bottom: "amsFeatures"
  top: "conv1_a"
  param {
    lr_mult: 1
    decay_mult: 1
  }
  param {
    lr_mult: 2
    decay_mult: 0
  }
  convolution_param {
    num_output: 128
    stride: 1
    weight_filler {
      type: "xavier"
    }
    bias_filler {
      type: "constant"
    }
    kernel_h: 8
    kernel_w: 6
  }
}
layer {
  name: "relu1_a"
  type: "ReLU"
  bottom: "conv1_a"
  top: "conv1_a"
}
layer {
  name: "conv2_a"
  type: "Convolution"
  bottom: "conv1_a"
  top: "conv2_a"
  param {
    lr_mult: 1
    decay_mult: 1
  }
  param {
    lr_mult: 2
    decay_mult: 0
  }
  convolution_param {
    num_output: 128
    stride: 1
    weight_filler {
      type: "xavier"
    }
    bias_filler {
      type: "constant"
    }
    kernel_h: 3
    kernel_w: 3
  }
}
layer {
  name: "pool2_a"
  type: "Pooling"
  bottom: "conv2_a"
  top: "pool2_a"
  pooling_param {
    pool: MAX
    kernel_size: 2
    stride: 2
  }
}
layer {
  name: "relu2_a"
  type: "ReLU"
  bottom: "pool2_a"
  top: "pool2_a"
}
layer {
  name: "ip2_a"
  type: "InnerProduct"
  bottom: "pool2_a"
  top: "ip2_a"
  param {
    lr_mult: 1
  }
  param {
    lr_mult: 2
  }
  inner_product_param {
    num_output: 256
    weight_filler {
      type: "xavier"
    }
    bias_filler {
      type: "constant"
    }
  }
}
layer {
  name: "conv1_r"
  type: "Convolution"
  bottom: "ratemap"
  top: "conv1_r"
  param {
    lr_mult: 1
    decay_mult: 1
  }
  param {
    lr_mult: 2
    decay_mult: 0
  }
  convolution_param {
    num_output: 128
    stride: 1
    weight_filler {
      type: "xavier"
    }
    bias_filler {
      type: "constant"
    }
    kernel_h: 8
    kernel_w: 6
  }
}
layer {
  name: "relu1_r"
  type: "ReLU"
  bottom: "conv1_r"
  top: "conv1_r"
}
layer {
  name: "conv2_r"
  type: "Convolution"
  bottom: "conv1_r"
  top: "conv2_r"
  param {
    lr_mult: 1
    decay_mult: 1
  }
  param {
    lr_mult: 2
    decay_mult: 0
  }
  convolution_param {
    num_output: 128
    stride: 1
    weight_filler {
      type: "xavier"
    }
    bias_filler {
      type: "constant"
    }
    kernel_h: 3
    kernel_w: 3
  }
}
layer {
  name: "pool2_r"
  type: "Pooling"
  bottom: "conv2_r"
  top: "pool2_r"
  pooling_param {
    pool: MAX
    kernel_size: 2
    stride: 2
  }
}
layer {
  name: "relu2_r"
  type: "ReLU"
  bottom: "pool2_r"
  top: "pool2_r"
}
layer {
  name: "ip2_r"
  type: "InnerProduct"
  bottom: "pool2_r"
  top: "ip2_r"
  param {
    lr_mult: 1
  }
  param {
    lr_mult: 2
  }
  inner_product_param {
    num_output: 256
    weight_filler {
      type: "xavier"
    }
    bias_filler {
      type: "constant"
    }
  }
}
layer {
  name: "concat_ar"
  type: "Concat"
  bottom: "ip2_a"
  bottom: "ip2_r"
  top: "ip2"
  concat_param {
    axis: 1
  }
}
layer {
  name: "relu2"
  type: "ReLU"
  bottom: "ip2"
  top: "ip2"
}
layer {
  name: "dropip2"
  type: "Dropout"
  bottom: "ip2"
  top: "ip2"
  dropout_param {
    dropout_ratio: 0.5
  }
}
layer {
  name: "ip3"
  type: "InnerProduct"
  bottom: "ip2"
  top: "ip3"
  param {
    lr_mult: 1
  }
  param {
    lr_mult: 2
  }
  inner_product_param {
    num_output: 11
    weight_filler {
      type: "xavier"
    }
    bias_filler {
      type: "constant"
    }
  }
}
layer {
  name: "loss"
  type: "SigmoidCrossEntropyLoss"
  bottom: "ip3"
  bottom: "label"
  top: "loss"
}
I0519 17:32:09.305071 30084 layer_factory.hpp:77] Creating layer data
I0519 17:32:09.305141 30084 net.cpp:91] Creating Layer data
I0519 17:32:09.305192 30084 net.cpp:399] data -> amsFeatures
I0519 17:32:09.305269 30084 net.cpp:399] data -> ratemap
I0519 17:32:09.305315 30084 net.cpp:399] data -> label
I0519 17:32:09.305344 30084 hdf5_data_layer.cpp:79] Loading list of HDF5 filenames from: /mnt/antares_raid/home/cindy/sabik/experiments/twoears_data_train.txt
I0519 17:32:09.306088 30084 hdf5_data_layer.cpp:93] Number of HDF5 files: 5
I0519 17:32:09.309082 30084 hdf5.cpp:32] Datatype class: H5T_FLOAT
I0519 17:32:15.600786 30084 net.cpp:141] Setting up data
I0519 17:32:15.600875 30084 net.cpp:148] Top shape: 128 9 16 63 (1161216)
I0519 17:32:15.600888 30084 net.cpp:148] Top shape: 128 1 16 63 (129024)
I0519 17:32:15.600899 30084 net.cpp:148] Top shape: 128 1 11 1 (1408)
I0519 17:32:15.600908 30084 net.cpp:156] Memory required for data: 5166592
I0519 17:32:15.600930 30084 layer_factory.hpp:77] Creating layer ratemap
I0519 17:32:16.369964 30084 net.cpp:91] Creating Layer ratemap
I0519 17:32:16.370023 30084 net.cpp:425] ratemap <- ratemap
I0519 17:32:16.370057 30084 net.cpp:386] ratemap -> ratemap (in-place)
I0519 17:32:16.371101 30084 net.cpp:141] Setting up ratemap
I0519 17:32:16.371134 30084 net.cpp:148] Top shape: 128 1 16 63 (129024)
I0519 17:32:16.371145 30084 net.cpp:156] Memory required for data: 5682688
I0519 17:32:16.371160 30084 layer_factory.hpp:77] Creating layer amsFeatures
I0519 17:32:16.371206 30084 net.cpp:91] Creating Layer amsFeatures
I0519 17:32:16.371224 30084 net.cpp:425] amsFeatures <- amsFeatures
I0519 17:32:16.371238 30084 net.cpp:386] amsFeatures -> amsFeatures (in-place)
I0519 17:32:16.374152 30084 net.cpp:141] Setting up amsFeatures
I0519 17:32:16.374186 30084 net.cpp:148] Top shape: 128 9 16 63 (1161216)
I0519 17:32:16.374198 30084 net.cpp:156] Memory required for data: 10327552
I0519 17:32:16.374212 30084 layer_factory.hpp:77] Creating layer conv1_a
I0519 17:32:16.374270 30084 net.cpp:91] Creating Layer conv1_a
I0519 17:32:16.374289 30084 net.cpp:425] conv1_a <- amsFeatures
I0519 17:32:16.374305 30084 net.cpp:399] conv1_a -> conv1_a
I0519 17:32:16.377097 30084 net.cpp:141] Setting up conv1_a
I0519 17:32:16.377128 30084 net.cpp:148] Top shape: 128 128 9 58 (8552448)
I0519 17:32:16.377142 30084 net.cpp:156] Memory required for data: 44537344
I0519 17:32:16.377185 30084 layer_factory.hpp:77] Creating layer relu1_a
I0519 17:32:16.377221 30084 net.cpp:91] Creating Layer relu1_a
I0519 17:32:16.377236 30084 net.cpp:425] relu1_a <- conv1_a
I0519 17:32:16.377256 30084 net.cpp:386] relu1_a -> conv1_a (in-place)
I0519 17:32:16.377279 30084 net.cpp:141] Setting up relu1_a
I0519 17:32:16.377297 30084 net.cpp:148] Top shape: 128 128 9 58 (8552448)
I0519 17:32:16.377308 30084 net.cpp:156] Memory required for data: 78747136
I0519 17:32:16.377321 30084 layer_factory.hpp:77] Creating layer conv2_a
I0519 17:32:16.377341 30084 net.cpp:91] Creating Layer conv2_a
I0519 17:32:16.377357 30084 net.cpp:425] conv2_a <- conv1_a
I0519 17:32:16.377377 30084 net.cpp:399] conv2_a -> conv2_a
I0519 17:32:16.379747 30084 net.cpp:141] Setting up conv2_a
I0519 17:32:16.379776 30084 net.cpp:148] Top shape: 128 128 7 56 (6422528)
I0519 17:32:16.379788 30084 net.cpp:156] Memory required for data: 104437248
I0519 17:32:16.379811 30084 layer_factory.hpp:77] Creating layer pool2_a
I0519 17:32:16.379830 30084 net.cpp:91] Creating Layer pool2_a
I0519 17:32:16.379843 30084 net.cpp:425] pool2_a <- conv2_a
I0519 17:32:16.379863 30084 net.cpp:399] pool2_a -> pool2_a
I0519 17:32:16.379951 30084 net.cpp:141] Setting up pool2_a
I0519 17:32:16.379976 30084 net.cpp:148] Top shape: 128 128 4 28 (1835008)
I0519 17:32:16.379987 30084 net.cpp:156] Memory required for data: 111777280
I0519 17:32:16.380000 30084 layer_factory.hpp:77] Creating layer relu2_a
I0519 17:32:16.380015 30084 net.cpp:91] Creating Layer relu2_a
I0519 17:32:16.380028 30084 net.cpp:425] relu2_a <- pool2_a
I0519 17:32:16.380041 30084 net.cpp:386] relu2_a -> pool2_a (in-place)
I0519 17:32:16.380058 30084 net.cpp:141] Setting up relu2_a
I0519 17:32:16.380075 30084 net.cpp:148] Top shape: 128 128 4 28 (1835008)
I0519 17:32:16.380086 30084 net.cpp:156] Memory required for data: 119117312
I0519 17:32:16.380097 30084 layer_factory.hpp:77] Creating layer ip2_a
I0519 17:32:16.380122 30084 net.cpp:91] Creating Layer ip2_a
I0519 17:32:16.380138 30084 net.cpp:425] ip2_a <- pool2_a
I0519 17:32:16.380154 30084 net.cpp:399] ip2_a -> ip2_a
I0519 17:32:16.419890 30084 net.cpp:141] Setting up ip2_a
I0519 17:32:16.419952 30084 net.cpp:148] Top shape: 128 256 (32768)
I0519 17:32:16.419965 30084 net.cpp:156] Memory required for data: 119248384
I0519 17:32:16.419996 30084 layer_factory.hpp:77] Creating layer conv1_r
I0519 17:32:16.420034 30084 net.cpp:91] Creating Layer conv1_r
I0519 17:32:16.420049 30084 net.cpp:425] conv1_r <- ratemap
I0519 17:32:16.420073 30084 net.cpp:399] conv1_r -> conv1_r
I0519 17:32:16.421205 30084 net.cpp:141] Setting up conv1_r
I0519 17:32:16.421229 30084 net.cpp:148] Top shape: 128 128 9 58 (8552448)
I0519 17:32:16.421241 30084 net.cpp:156] Memory required for data: 153458176
I0519 17:32:16.421260 30084 layer_factory.hpp:77] Creating layer relu1_r
I0519 17:32:16.421277 30084 net.cpp:91] Creating Layer relu1_r
I0519 17:32:16.421288 30084 net.cpp:425] relu1_r <- conv1_r
I0519 17:32:16.421303 30084 net.cpp:386] relu1_r -> conv1_r (in-place)
I0519 17:32:16.421321 30084 net.cpp:141] Setting up relu1_r
I0519 17:32:16.421334 30084 net.cpp:148] Top shape: 128 128 9 58 (8552448)
I0519 17:32:16.421344 30084 net.cpp:156] Memory required for data: 187667968
I0519 17:32:16.421355 30084 layer_factory.hpp:77] Creating layer conv2_r
I0519 17:32:16.421375 30084 net.cpp:91] Creating Layer conv2_r
I0519 17:32:16.421387 30084 net.cpp:425] conv2_r <- conv1_r
I0519 17:32:16.421407 30084 net.cpp:399] conv2_r -> conv2_r
I0519 17:32:16.423589 30084 net.cpp:141] Setting up conv2_r
I0519 17:32:16.423624 30084 net.cpp:148] Top shape: 128 128 7 56 (6422528)
I0519 17:32:16.423636 30084 net.cpp:156] Memory required for data: 213358080
I0519 17:32:16.423656 30084 layer_factory.hpp:77] Creating layer pool2_r
I0519 17:32:16.423676 30084 net.cpp:91] Creating Layer pool2_r
I0519 17:32:16.423694 30084 net.cpp:425] pool2_r <- conv2_r
I0519 17:32:16.423713 30084 net.cpp:399] pool2_r -> pool2_r
I0519 17:32:16.423774 30084 net.cpp:141] Setting up pool2_r
I0519 17:32:16.423792 30084 net.cpp:148] Top shape: 128 128 4 28 (1835008)
I0519 17:32:16.423804 30084 net.cpp:156] Memory required for data: 220698112
I0519 17:32:16.423817 30084 layer_factory.hpp:77] Creating layer relu2_r
I0519 17:32:16.423830 30084 net.cpp:91] Creating Layer relu2_r
I0519 17:32:16.423842 30084 net.cpp:425] relu2_r <- pool2_r
I0519 17:32:16.423856 30084 net.cpp:386] relu2_r -> pool2_r (in-place)
I0519 17:32:16.423869 30084 net.cpp:141] Setting up relu2_r
I0519 17:32:16.423884 30084 net.cpp:148] Top shape: 128 128 4 28 (1835008)
I0519 17:32:16.423894 30084 net.cpp:156] Memory required for data: 228038144
I0519 17:32:16.423907 30084 layer_factory.hpp:77] Creating layer ip2_r
I0519 17:32:16.423929 30084 net.cpp:91] Creating Layer ip2_r
I0519 17:32:16.423943 30084 net.cpp:425] ip2_r <- pool2_r
I0519 17:32:16.423959 30084 net.cpp:399] ip2_r -> ip2_r
I0519 17:32:16.463439 30084 net.cpp:141] Setting up ip2_r
I0519 17:32:16.463503 30084 net.cpp:148] Top shape: 128 256 (32768)
I0519 17:32:16.463516 30084 net.cpp:156] Memory required for data: 228169216
I0519 17:32:16.463536 30084 layer_factory.hpp:77] Creating layer concat_ar
I0519 17:32:16.463568 30084 net.cpp:91] Creating Layer concat_ar
I0519 17:32:16.463582 30084 net.cpp:425] concat_ar <- ip2_a
I0519 17:32:16.463595 30084 net.cpp:425] concat_ar <- ip2_r
I0519 17:32:16.463624 30084 net.cpp:399] concat_ar -> ip2
I0519 17:32:16.463681 30084 net.cpp:141] Setting up concat_ar
I0519 17:32:16.463706 30084 net.cpp:148] Top shape: 128 512 (65536)
I0519 17:32:16.463721 30084 net.cpp:156] Memory required for data: 228431360
I0519 17:32:16.463732 30084 layer_factory.hpp:77] Creating layer relu2
I0519 17:32:16.463768 30084 net.cpp:91] Creating Layer relu2
I0519 17:32:16.463780 30084 net.cpp:425] relu2 <- ip2
I0519 17:32:16.463796 30084 net.cpp:386] relu2 -> ip2 (in-place)
I0519 17:32:16.463814 30084 net.cpp:141] Setting up relu2
I0519 17:32:16.463827 30084 net.cpp:148] Top shape: 128 512 (65536)
I0519 17:32:16.463836 30084 net.cpp:156] Memory required for data: 228693504
I0519 17:32:16.463847 30084 layer_factory.hpp:77] Creating layer dropip2
I0519 17:32:16.463871 30084 net.cpp:91] Creating Layer dropip2
I0519 17:32:16.463882 30084 net.cpp:425] dropip2 <- ip2
I0519 17:32:16.463896 30084 net.cpp:386] dropip2 -> ip2 (in-place)
I0519 17:32:16.463943 30084 net.cpp:141] Setting up dropip2
I0519 17:32:16.463961 30084 net.cpp:148] Top shape: 128 512 (65536)
I0519 17:32:16.463971 30084 net.cpp:156] Memory required for data: 228955648
I0519 17:32:16.463985 30084 layer_factory.hpp:77] Creating layer ip3
I0519 17:32:16.464005 30084 net.cpp:91] Creating Layer ip3
I0519 17:32:16.464016 30084 net.cpp:425] ip3 <- ip2
I0519 17:32:16.464033 30084 net.cpp:399] ip3 -> ip3
I0519 17:32:16.464236 30084 net.cpp:141] Setting up ip3
I0519 17:32:16.464256 30084 net.cpp:148] Top shape: 128 11 (1408)
I0519 17:32:16.464265 30084 net.cpp:156] Memory required for data: 228961280
I0519 17:32:16.464280 30084 layer_factory.hpp:77] Creating layer loss
I0519 17:32:16.464306 30084 net.cpp:91] Creating Layer loss
I0519 17:32:16.464318 30084 net.cpp:425] loss <- ip3
I0519 17:32:16.464332 30084 net.cpp:425] loss <- label
I0519 17:32:16.464351 30084 net.cpp:399] loss -> loss
I0519 17:32:16.464416 30084 net.cpp:141] Setting up loss
…
I0519 17:32:16.466078 30084 net.cpp:313] The NetState phase (1) differed from the phase (0) specified by a rule in layer ratemap
I0519 17:32:16.466089 30084 net.cpp:313] The NetState phase (1) differed from the phase (0) specified by a rule in layer amsFeatures
I0519 17:32:16.466352 30084 net.cpp:49] Initializing net from parameters: 
name: "SoundNet"
state {
  phase: TEST
}
layer {
  name: "data"
  type: "HDF5Data"
  top: "amsFeatures"
  top: "ratemap"
  top: "label"
  include {
    phase: TEST
  }
  hdf5_data_param {
    source: "/mnt/antares_raid/home/cindy/sabik/experiments/twoears_data_test.txt"
    batch_size: 128
  }
}
layer {
  name: "conv1_a"
  type: "Convolution"
  bottom: "amsFeatures"
  top: "conv1_a"
  param {
    lr_mult: 1
    decay_mult: 1
  }
  param {
    lr_mult: 2
    decay_mult: 0
  }
  convolution_param {
    num_output: 128
    stride: 1
    weight_filler {
      type: "xavier"
    }
    bias_filler {
      type: "constant"
    }
    kernel_h: 8
    kernel_w: 6
  }
}
layer {
  name: "relu1_a"
  type: "ReLU"
  bottom: "conv1_a"
  top: "conv1_a"
}
layer {
  name: "conv2_a"
  type: "Convolution"
  bottom: "conv1_a"
  top: "conv2_a"
  param {
    lr_mult: 1
    decay_mult: 1
  }
  param {
    lr_mult: 2
    decay_mult: 0
  }
  convolution_param {
    num_output: 128
    stride: 1
    weight_filler {
      type: "xavier"
    }
    bias_filler {
      type: "constant"
    }
    kernel_h: 3
    kernel_w: 3
  }
}
layer {
  name: "pool2_a"
  type: "Pooling"
  bottom: "conv2_a"
  top: "pool2_a"
  pooling_param {
    pool: MAX
    kernel_size: 2
    stride: 2
  }
}
layer {
  name: "relu2_a"
  type: "ReLU"
  bottom: "pool2_a"
  top: "pool2_a"
}
layer {
  name: "ip2_a"
  type: "InnerProduct"
  bottom: "pool2_a"
  top: "ip2_a"
  param {
    lr_mult: 1
  }
  param {
    lr_mult: 2
  }
  inner_product_param {
    num_output: 256
    weight_filler {
      type: "xavier"
    }
    bias_filler {
      type: "constant"
    }
  }
}
layer {
  name: "conv1_r"
  type: "Convolution"
  bottom: "ratemap"
  top: "conv1_r"
  param {
    lr_mult: 1
    decay_mult: 1
  }
  param {
    lr_mult: 2
    decay_mult: 0
  }
  convolution_param {
    num_output: 128
    stride: 1
    weight_filler {
      type: "xavier"
    }
    bias_filler {
      type: "constant"
    }
    kernel_h: 8
    kernel_w: 6
  }
}
layer {
  name: "relu1_r"
  type: "ReLU"
  bottom: "conv1_r"
  top: "conv1_r"
}
layer {
  name: "conv2_r"
  type: "Convolution"
  bottom: "conv1_r"
  top: "conv2_r"
  param {
    lr_mult: 1
    decay_mult: 1
  }
  param {
    lr_mult: 2
    decay_mult: 0
  }
  convolution_param {
    num_output: 128
    stride: 1
    weight_filler {
      type: "xavier"
    }
    bias_filler {
      type: "constant"
    }
    kernel_h: 3
    kernel_w: 3
  }
}
layer {
  name: "pool2_r"
  type: "Pooling"
  bottom: "conv2_r"
  top: "pool2_r"
  pooling_param {
    pool: MAX
    kernel_size: 2
    stride: 2
  }
}
layer {
  name: "relu2_r"
  type: "ReLU"
  bottom: "pool2_r"
  top: "pool2_r"
}
layer {
  name: "ip2_r"
  type: "InnerProduct"
  bottom: "pool2_r"
  top: "ip2_r"
  param {
    lr_mult: 1
  }
  param {
    lr_mult: 2
  }
  inner_product_param {
    num_output: 256
    weight_filler {
      type: "xavier"
    }
    bias_filler {
      type: "constant"
    }
  }
}
layer {
  name: "concat_ar"
  type: "Concat"
  bottom: "ip2_a"
  bottom: "ip2_r"
  top: "ip2"
  concat_param {
    axis: 1
  }
}
layer {
  name: "relu2"
  type: "ReLU"
  bottom: "ip2"
  top: "ip2"
}
layer {
  name: "dropip2"
  type: "Dropout"
  bottom: "ip2"
  top: "ip2"
  dropout_param {
    dropout_ratio: 0.5
  }
}
layer {
  name: "ip3"
  type: "InnerProduct"
  bottom: "ip2"
  top: "ip3"
  param {
    lr_mult: 1
  }
  param {
    lr_mult: 2
  }
  inner_product_param {
    num_output: 11
    weight_filler {
      type: "xavier"
    }
    bias_filler {
      type: "constant"
    }
  }
}
layer {
  name: "loss"
  type: "SigmoidCrossEntropyLoss"
  bottom: "ip3"
  bottom: "label"
  top: "loss"
}
I0519 17:32:16.467339 30084 layer_factory.hpp:77] Creating layer data
I0519 17:32:16.467363 30084 net.cpp:91] Creating Layer data
I0519 17:32:16.467378 30084 net.cpp:399] data -> amsFeatures
I0519 17:32:16.467402 30084 net.cpp:399] data -> ratemap
I0519 17:32:16.467422 30084 net.cpp:399] data -> label
I0519 17:32:16.467442 30084 hdf5_data_layer.cpp:79] Loading list of HDF5 filenames from: /mnt/antares_raid/home/cindy/sabik/experiments/twoears_data_test.txt
I0519 17:32:16.468034 30084 hdf5_data_layer.cpp:93] Number of HDF5 files: 2
I0519 17:32:22.611796 30084 net.cpp:141] Setting up data
I0519 17:32:22.611857 30084 net.cpp:148] Top shape: 128 9 16 63 (1161216)
I0519 17:32:22.611870 30084 net.cpp:148] Top shape: 128 1 16 63 (129024)
I0519 17:32:22.611879 30084 net.cpp:148] Top shape: 128 1 11 1 (1408)
I0519 17:32:22.611888 30084 net.cpp:156] Memory required for data: 5166592
I0519 17:32:22.611907 30084 layer_factory.hpp:77] Creating layer conv1_a
I0519 17:32:22.611948 30084 net.cpp:91] Creating Layer conv1_a
I0519 17:32:22.611975 30084 net.cpp:425] conv1_a <- amsFeatures
I0519 17:32:22.611991 30084 net.cpp:399] conv1_a -> conv1_a
I0519 17:32:22.612689 30084 net.cpp:141] Setting up conv1_a
I0519 17:32:22.612709 30084 net.cpp:148] Top shape: 128 128 9 58 (8552448)
I0519 17:32:22.612716 30084 net.cpp:156] Memory required for data: 39376384
I0519 17:32:22.612737 30084 layer_factory.hpp:77] Creating layer relu1_a
I0519 17:32:22.612787 30084 net.cpp:91] Creating Layer relu1_a
I0519 17:32:22.612798 30084 net.cpp:425] relu1_a <- conv1_a
I0519 17:32:22.612809 30084 net.cpp:386] relu1_a -> conv1_a (in-place)
I0519 17:32:22.612826 30084 net.cpp:141] Setting up relu1_a
I0519 17:32:22.612838 30084 net.cpp:148] Top shape: 128 128 9 58 (8552448)
I0519 17:32:22.612846 30084 net.cpp:156] Memory required for data: 73586176
I0519 17:32:22.612865 30084 layer_factory.hpp:77] Creating layer conv2_a
I0519 17:32:22.612881 30084 net.cpp:91] Creating Layer conv2_a
I0519 17:32:22.612893 30084 net.cpp:425] conv2_a <- conv1_a
I0519 17:32:22.612905 30084 net.cpp:399] conv2_a -> conv2_a
I0519 17:32:22.615011 30084 net.cpp:141] Setting up conv2_a
I0519 17:32:22.615034 30084 net.cpp:148] Top shape: 128 128 7 56 (6422528)
I0519 17:32:22.615043 30084 net.cpp:156] Memory required for data: 99276288
I0519 17:32:22.615058 30084 layer_factory.hpp:77] Creating layer pool2_a
I0519 17:32:22.615073 30084 net.cpp:91] Creating Layer pool2_a
I0519 17:32:22.615083 30084 net.cpp:425] pool2_a <- conv2_a
I0519 17:32:22.615094 30084 net.cpp:399] pool2_a -> pool2_a
I0519 17:32:22.615155 30084 net.cpp:141] Setting up pool2_a
I0519 17:32:22.615175 30084 net.cpp:148] Top shape: 128 128 4 28 (1835008)
I0519 17:32:22.615185 30084 net.cpp:156] Memory required for data: 106616320
I0519 17:32:22.615195 30084 layer_factory.hpp:77] Creating layer relu2_a
I0519 17:32:22.615218 30084 net.cpp:91] Creating Layer relu2_a
I0519 17:32:22.615229 30084 net.cpp:425] relu2_a <- pool2_a
I0519 17:32:22.615241 30084 net.cpp:386] relu2_a -> pool2_a (in-place)
I0519 17:32:22.615252 30084 net.cpp:141] Setting up relu2_a
I0519 17:32:22.615264 30084 net.cpp:148] Top shape: 128 128 4 28 (1835008)
I0519 17:32:22.615284 30084 net.cpp:156] Memory required for data: 113956352
I0519 17:32:22.615293 30084 layer_factory.hpp:77] Creating layer ip2_a
I0519 17:32:22.615311 30084 net.cpp:91] Creating Layer ip2_a
I0519 17:32:22.615320 30084 net.cpp:425] ip2_a <- pool2_a
I0519 17:32:22.615331 30084 net.cpp:399] ip2_a -> ip2_a
I0519 17:32:22.648211 30084 net.cpp:141] Setting up ip2_a
I0519 17:32:22.648269 30084 net.cpp:148] Top shape: 128 256 (32768)
I0519 17:32:22.648280 30084 net.cpp:156] Memory required for data: 114087424
I0519 17:32:22.648306 30084 layer_factory.hpp:77] Creating layer conv1_r
I0519 17:32:22.648334 30084 net.cpp:91] Creating Layer conv1_r
I0519 17:32:22.648345 30084 net.cpp:425] conv1_r <- ratemap
I0519 17:32:22.648360 30084 net.cpp:399] conv1_r -> conv1_r
I0519 17:32:22.648684 30084 net.cpp:141] Setting up conv1_r
I0519 17:32:22.648700 30084 net.cpp:148] Top shape: 128 128 9 58 (8552448)
I0519 17:32:22.648708 30084 net.cpp:156] Memory required for data: 148297216
I0519 17:32:22.648721 30084 layer_factory.hpp:77] Creating layer relu1_r
I0519 17:32:22.648736 30084 net.cpp:91] Creating Layer relu1_r
I0519 17:32:22.648746 30084 net.cpp:425] relu1_r <- conv1_r
I0519 17:32:22.648758 30084 net.cpp:386] relu1_r -> conv1_r (in-place)
I0519 17:32:22.648785 30084 net.cpp:141] Setting up relu1_r
I0519 17:32:22.648797 30084 net.cpp:148] Top shape: 128 128 9 58 (8552448)
I0519 17:32:22.648805 30084 net.cpp:156] Memory required for data: 182507008
I0519 17:32:22.648818 30084 layer_factory.hpp:77] Creating layer conv2_r
I0519 17:32:22.648846 30084 net.cpp:91] Creating Layer conv2_r
I0519 17:32:22.648855 30084 net.cpp:425] conv2_r <- conv1_r
I0519 17:32:22.648869 30084 net.cpp:399] conv2_r -> conv2_r
I0519 17:32:22.650872 30084 net.cpp:141] Setting up conv2_r
I0519 17:32:22.650893 30084 net.cpp:148] Top shape: 128 128 7 56 (6422528)
I0519 17:32:22.650903 30084 net.cpp:156] Memory required for data: 208197120
I0519 17:32:22.650920 30084 layer_factory.hpp:77] Creating layer pool2_r
I0519 17:32:22.650935 30084 net.cpp:91] Creating Layer pool2_r
I0519 17:32:22.650945 30084 net.cpp:425] pool2_r <- conv2_r
I0519 17:32:22.650959 30084 net.cpp:399] pool2_r -> pool2_r
I0519 17:32:22.651026 30084 net.cpp:141] Setting up pool2_r
I0519 17:32:22.651044 30084 net.cpp:148] Top shape: 128 128 4 28 (1835008)
I0519 17:32:22.651052 30084 net.cpp:156] Memory required for data: 215537152
I0519 17:32:22.651062 30084 layer_factory.hpp:77] Creating layer relu2_r
I0519 17:32:22.651088 30084 net.cpp:91] Creating Layer relu2_r
I0519 17:32:22.651098 30084 net.cpp:425] relu2_r <- pool2_r
I0519 17:32:22.651108 30084 net.cpp:386] relu2_r -> pool2_r (in-place)
I0519 17:32:22.651118 30084 net.cpp:141] Setting up relu2_r
I0519 17:32:22.651129 30084 net.cpp:148] Top shape: 128 128 4 28 (1835008)
I0519 17:32:22.651150 30084 net.cpp:156] Memory required for data: 222877184
I0519 17:32:22.651160 30084 layer_factory.hpp:77] Creating layer ip2_r
I0519 17:32:22.651175 30084 net.cpp:91] Creating Layer ip2_r
I0519 17:32:22.651183 30084 net.cpp:425] ip2_r <- pool2_r
I0519 17:32:22.651199 30084 net.cpp:399] ip2_r -> ip2_r
I0519 17:32:22.684065 30084 net.cpp:141] Setting up ip2_r
I0519 17:32:22.684121 30084 net.cpp:148] Top shape: 128 256 (32768)
I0519 17:32:22.684131 30084 net.cpp:156] Memory required for data: 223008256
I0519 17:32:22.684150 30084 layer_factory.hpp:77] Creating layer concat_ar
I0519 17:32:22.684172 30084 net.cpp:91] Creating Layer concat_ar
I0519 17:32:22.684183 30084 net.cpp:425] concat_ar <- ip2_a
I0519 17:32:22.684196 30084 net.cpp:425] concat_ar <- ip2_r
I0519 17:32:22.684207 30084 net.cpp:399] concat_ar -> ip2
I0519 17:32:22.684253 30084 net.cpp:141] Setting up concat_ar
I0519 17:32:22.684268 30084 net.cpp:148] Top shape: 128 512 (65536)
I0519 17:32:22.684278 30084 net.cpp:156] Memory required for data: 223270400
I0519 17:32:22.684286 30084 layer_factory.hpp:77] Creating layer relu2
I0519 17:32:22.684305 30084 net.cpp:91] Creating Layer relu2
I0519 17:32:22.684315 30084 net.cpp:425] relu2 <- ip2
I0519 17:32:22.684327 30084 net.cpp:386] relu2 -> ip2 (in-place)
I0519 17:32:22.684351 30084 net.cpp:141] Setting up relu2
I0519 17:32:22.684363 30084 net.cpp:148] Top shape: 128 512 (65536)
I0519 17:32:22.684371 30084 net.cpp:156] Memory required for data: 223532544
I0519 17:32:22.684381 30084 layer_factory.hpp:77] Creating layer dropip2
I0519 17:32:22.684409 30084 net.cpp:91] Creating Layer dropip2
I0519 17:32:22.684424 30084 net.cpp:425] dropip2 <- ip2
I0519 17:32:22.684435 30084 net.cpp:386] dropip2 -> ip2 (in-place)
I0519 17:32:22.684478 30084 net.cpp:141] Setting up dropip2
I0519 17:32:22.684492 30084 net.cpp:148] Top shape: 128 512 (65536)
I0519 17:32:22.684500 30084 net.cpp:156] Memory required for data: 223794688
I0519 17:32:22.684509 30084 layer_factory.hpp:77] Creating layer ip3
I0519 17:32:22.684535 30084 net.cpp:91] Creating Layer ip3
I0519 17:32:22.684550 30084 net.cpp:425] ip3 <- ip2
I0519 17:32:22.684561 30084 net.cpp:399] ip3 -> ip3
I0519 17:32:22.684767 30084 net.cpp:141] Setting up ip3
I0519 17:32:22.684783 30084 net.cpp:148] Top shape: 128 11 (1408)
I0519 17:32:22.684792 30084 net.cpp:156] Memory required for data: 223800320
I0519 17:32:22.684803 30084 layer_factory.hpp:77] Creating layer loss
I0519 17:32:22.684818 30084 net.cpp:91] Creating Layer loss
I0519 17:32:22.684826 30084 net.cpp:425] loss <- ip3
I0519 17:32:22.684836 30084 net.cpp:425] loss <- label
I0519 17:32:22.684849 30084 net.cpp:399] loss -> loss
I0519 17:32:22.684911 30084 net.cpp:141] Setting up loss
…
