…
I0519 16:31:17.005548 28865 solver.cpp:91] Creating training net from net file: /mnt/antares_raid/home/cindy/sabik/experiments/s1/train_val.prototxt
I0519 16:31:17.007354 28865 net.cpp:313] The NetState phase (0) differed from the phase (1) specified by a rule in layer data
I0519 16:31:17.007982 28865 net.cpp:49] Initializing net from parameters: 
name: "SoundNet"
state {
  phase: TRAIN
}
layer {
  name: "data"
  type: "HDF5Data"
  top: "amsFeatures"
  top: "ratemap"
  top: "label"
  include {
    phase: TRAIN
  }
  hdf5_data_param {
    source: "/mnt/antares_raid/home/cindy/sabik/experiments/twoears_data_train.txt"
    batch_size: 128
  }
}
layer {
  name: "ratemap"
  type: "Python"
  bottom: "ratemap"
  top: "ratemap"
  python_param {
    module: "nideep.layers.jitterlayer"
    layer: "JitterLayer"
    param_str: "{\'min_shift_t\':-4,\'max_shift_t\':4,\'min_shift_f\':-15,\'max_shift_f\':15}"
  }
}
layer {
  name: "amsFeatures"
  type: "Python"
  bottom: "amsFeatures"
  top: "amsFeatures"
  python_param {
    module: "nideep.layers.jitterlayer"
    layer: "JitterLayer"
    param_str: "{\'min_shift_t\':-4,\'max_shift_t\':4,\'min_shift_f\':-15,\'max_shift_f\':15}"
  }
}
layer {
  name: "conv1_a"
  type: "Convolution"
  bottom: "amsFeatures"
  top: "conv1_a"
  param {
    lr_mult: 1
    decay_mult: 1
  }
  param {
    lr_mult: 2
    decay_mult: 0
  }
  convolution_param {
    num_output: 128
    stride: 1
    weight_filler {
      type: "xavier"
    }
    bias_filler {
      type: "constant"
    }
    kernel_h: 8
    kernel_w: 6
  }
}
layer {
  name: "relu1_a"
  type: "ReLU"
  bottom: "conv1_a"
  top: "conv1_a"
}
layer {
  name: "conv2_a"
  type: "Convolution"
  bottom: "conv1_a"
  top: "conv2_a"
  param {
    lr_mult: 1
    decay_mult: 1
  }
  param {
    lr_mult: 2
    decay_mult: 0
  }
  convolution_param {
    num_output: 128
    stride: 1
    weight_filler {
      type: "xavier"
    }
    bias_filler {
      type: "constant"
    }
    kernel_h: 3
    kernel_w: 3
  }
}
layer {
  name: "pool2_a"
  type: "Pooling"
  bottom: "conv2_a"
  top: "pool2_a"
  pooling_param {
    pool: MAX
    kernel_size: 2
    stride: 2
  }
}
layer {
  name: "relu2_a"
  type: "ReLU"
  bottom: "pool2_a"
  top: "pool2_a"
}
layer {
  name: "ip2_a"
  type: "InnerProduct"
  bottom: "pool2_a"
  top: "ip2_a"
  param {
    lr_mult: 1
  }
  param {
    lr_mult: 2
  }
  inner_product_param {
    num_output: 256
    weight_filler {
      type: "xavier"
    }
    bias_filler {
      type: "constant"
    }
  }
}
layer {
  name: "conv1_r"
  type: "Convolution"
  bottom: "ratemap"
  top: "conv1_r"
  param {
    lr_mult: 1
    decay_mult: 1
  }
  param {
    lr_mult: 2
    decay_mult: 0
  }
  convolution_param {
    num_output: 128
    stride: 1
    weight_filler {
      type: "xavier"
    }
    bias_filler {
      type: "constant"
    }
    kernel_h: 8
    kernel_w: 6
  }
}
layer {
  name: "relu1_r"
  type: "ReLU"
  bottom: "conv1_r"
  top: "conv1_r"
}
layer {
  name: "conv2_r"
  type: "Convolution"
  bottom: "conv1_r"
  top: "conv2_r"
  param {
    lr_mult: 1
    decay_mult: 1
  }
  param {
    lr_mult: 2
    decay_mult: 0
  }
  convolution_param {
    num_output: 128
    stride: 1
    weight_filler {
      type: "xavier"
    }
    bias_filler {
      type: "constant"
    }
    kernel_h: 3
    kernel_w: 3
  }
}
layer {
  name: "pool2_r"
  type: "Pooling"
  bottom: "conv2_r"
  top: "pool2_r"
  pooling_param {
    pool: MAX
    kernel_size: 2
    stride: 2
  }
}
layer {
  name: "relu2_r"
  type: "ReLU"
  bottom: "pool2_r"
  top: "pool2_r"
}
layer {
  name: "ip2_r"
  type: "InnerProduct"
  bottom: "pool2_r"
  top: "ip2_r"
  param {
    lr_mult: 1
  }
  param {
    lr_mult: 2
  }
  inner_product_param {
    num_output: 256
    weight_filler {
      type: "xavier"
    }
    bias_filler {
      type: "constant"
    }
  }
}
layer {
  name: "concat_ar"
  type: "Concat"
  bottom: "ip2_a"
  bottom: "ip2_r"
  top: "ip2"
  concat_param {
    axis: 1
  }
}
layer {
  name: "relu2"
  type: "ReLU"
  bottom: "ip2"
  top: "ip2"
}
layer {
  name: "dropip2"
  type: "Dropout"
  bottom: "ip2"
  top: "ip2"
  dropout_param {
    dropout_ratio: 0.5
  }
}
layer {
  name: "ip3"
  type: "InnerProduct"
  bottom: "ip2"
  top: "ip3"
  param {
    lr_mult: 1
  }
  param {
    lr_mult: 2
  }
  inner_product_param {
    num_output: 11
    weight_filler {
      type: "xavier"
    }
    bias_filler {
      type: "constant"
    }
  }
}
layer {
  name: "loss"
  type: "SigmoidCrossEntropyLoss"
  bottom: "ip3"
  bottom: "label"
  top: "loss"
}
I0519 16:31:17.010509 28865 layer_factory.hpp:77] Creating layer data
I0519 16:31:17.010572 28865 net.cpp:91] Creating Layer data
I0519 16:31:17.010610 28865 net.cpp:399] data -> amsFeatures
I0519 16:31:17.010699 28865 net.cpp:399] data -> ratemap
I0519 16:31:17.010746 28865 net.cpp:399] data -> label
I0519 16:31:17.010789 28865 hdf5_data_layer.cpp:79] Loading list of HDF5 filenames from: /mnt/antares_raid/home/cindy/sabik/experiments/twoears_data_train.txt
I0519 16:31:17.011379 28865 hdf5_data_layer.cpp:93] Number of HDF5 files: 5
I0519 16:31:17.014256 28865 hdf5.cpp:32] Datatype class: H5T_FLOAT
I0519 16:31:23.340595 28865 net.cpp:141] Setting up data
I0519 16:31:23.340678 28865 net.cpp:148] Top shape: 128 9 16 63 (1161216)
I0519 16:31:23.340693 28865 net.cpp:148] Top shape: 128 1 16 63 (129024)
I0519 16:31:23.340705 28865 net.cpp:148] Top shape: 128 1 11 1 (1408)
I0519 16:31:23.340714 28865 net.cpp:156] Memory required for data: 5166592
I0519 16:31:23.340741 28865 layer_factory.hpp:77] Creating layer ratemap
I0519 16:31:24.631052 28865 net.cpp:91] Creating Layer ratemap
I0519 16:31:24.631113 28865 net.cpp:425] ratemap <- ratemap
I0519 16:31:24.631145 28865 net.cpp:386] ratemap -> ratemap (in-place)
I0519 16:31:24.632347 28865 net.cpp:141] Setting up ratemap
I0519 16:31:24.632382 28865 net.cpp:148] Top shape: 128 1 16 63 (129024)
I0519 16:31:24.632395 28865 net.cpp:156] Memory required for data: 5682688
I0519 16:31:24.632407 28865 layer_factory.hpp:77] Creating layer amsFeatures
I0519 16:31:24.632455 28865 net.cpp:91] Creating Layer amsFeatures
I0519 16:31:24.632472 28865 net.cpp:425] amsFeatures <- amsFeatures
I0519 16:31:24.632488 28865 net.cpp:386] amsFeatures -> amsFeatures (in-place)
I0519 16:31:24.635839 28865 net.cpp:141] Setting up amsFeatures
I0519 16:31:24.635867 28865 net.cpp:148] Top shape: 128 9 16 63 (1161216)
I0519 16:31:24.635879 28865 net.cpp:156] Memory required for data: 10327552
I0519 16:31:24.635891 28865 layer_factory.hpp:77] Creating layer conv1_a
I0519 16:31:24.635936 28865 net.cpp:91] Creating Layer conv1_a
I0519 16:31:24.635952 28865 net.cpp:425] conv1_a <- amsFeatures
I0519 16:31:24.635969 28865 net.cpp:399] conv1_a -> conv1_a
I0519 16:31:24.638833 28865 net.cpp:141] Setting up conv1_a
I0519 16:31:24.638862 28865 net.cpp:148] Top shape: 128 128 9 58 (8552448)
I0519 16:31:24.638875 28865 net.cpp:156] Memory required for data: 44537344
I0519 16:31:24.638908 28865 layer_factory.hpp:77] Creating layer relu1_a
I0519 16:31:24.638939 28865 net.cpp:91] Creating Layer relu1_a
I0519 16:31:24.638952 28865 net.cpp:425] relu1_a <- conv1_a
I0519 16:31:24.638967 28865 net.cpp:386] relu1_a -> conv1_a (in-place)
I0519 16:31:24.638985 28865 net.cpp:141] Setting up relu1_a
I0519 16:31:24.639003 28865 net.cpp:148] Top shape: 128 128 9 58 (8552448)
I0519 16:31:24.639015 28865 net.cpp:156] Memory required for data: 78747136
I0519 16:31:24.639030 28865 layer_factory.hpp:77] Creating layer conv2_a
I0519 16:31:24.639053 28865 net.cpp:91] Creating Layer conv2_a
I0519 16:31:24.639068 28865 net.cpp:425] conv2_a <- conv1_a
I0519 16:31:24.639083 28865 net.cpp:399] conv2_a -> conv2_a
I0519 16:31:24.641625 28865 net.cpp:141] Setting up conv2_a
I0519 16:31:24.641655 28865 net.cpp:148] Top shape: 128 128 7 56 (6422528)
I0519 16:31:24.641667 28865 net.cpp:156] Memory required for data: 104437248
I0519 16:31:24.641690 28865 layer_factory.hpp:77] Creating layer pool2_a
I0519 16:31:24.641710 28865 net.cpp:91] Creating Layer pool2_a
I0519 16:31:24.641723 28865 net.cpp:425] pool2_a <- conv2_a
I0519 16:31:24.641742 28865 net.cpp:399] pool2_a -> pool2_a
I0519 16:31:24.641822 28865 net.cpp:141] Setting up pool2_a
I0519 16:31:24.641844 28865 net.cpp:148] Top shape: 128 128 4 28 (1835008)
I0519 16:31:24.641856 28865 net.cpp:156] Memory required for data: 111777280
I0519 16:31:24.641870 28865 layer_factory.hpp:77] Creating layer relu2_a
I0519 16:31:24.641886 28865 net.cpp:91] Creating Layer relu2_a
I0519 16:31:24.641899 28865 net.cpp:425] relu2_a <- pool2_a
I0519 16:31:24.641914 28865 net.cpp:386] relu2_a -> pool2_a (in-place)
I0519 16:31:24.641932 28865 net.cpp:141] Setting up relu2_a
I0519 16:31:24.641948 28865 net.cpp:148] Top shape: 128 128 4 28 (1835008)
I0519 16:31:24.641959 28865 net.cpp:156] Memory required for data: 119117312
I0519 16:31:24.641971 28865 layer_factory.hpp:77] Creating layer ip2_a
I0519 16:31:24.642004 28865 net.cpp:91] Creating Layer ip2_a
I0519 16:31:24.642016 28865 net.cpp:425] ip2_a <- pool2_a
I0519 16:31:24.642035 28865 net.cpp:399] ip2_a -> ip2_a
I0519 16:31:24.684772 28865 net.cpp:141] Setting up ip2_a
I0519 16:31:24.684837 28865 net.cpp:148] Top shape: 128 256 (32768)
I0519 16:31:24.684851 28865 net.cpp:156] Memory required for data: 119248384
I0519 16:31:24.684880 28865 layer_factory.hpp:77] Creating layer conv1_r
I0519 16:31:24.684914 28865 net.cpp:91] Creating Layer conv1_r
I0519 16:31:24.684933 28865 net.cpp:425] conv1_r <- ratemap
I0519 16:31:24.684952 28865 net.cpp:399] conv1_r -> conv1_r
I0519 16:31:24.686188 28865 net.cpp:141] Setting up conv1_r
I0519 16:31:24.686213 28865 net.cpp:148] Top shape: 128 128 9 58 (8552448)
I0519 16:31:24.686225 28865 net.cpp:156] Memory required for data: 153458176
I0519 16:31:24.686242 28865 layer_factory.hpp:77] Creating layer relu1_r
I0519 16:31:24.686260 28865 net.cpp:91] Creating Layer relu1_r
I0519 16:31:24.686272 28865 net.cpp:425] relu1_r <- conv1_r
I0519 16:31:24.686290 28865 net.cpp:386] relu1_r -> conv1_r (in-place)
I0519 16:31:24.686307 28865 net.cpp:141] Setting up relu1_r
I0519 16:31:24.686321 28865 net.cpp:148] Top shape: 128 128 9 58 (8552448)
I0519 16:31:24.686331 28865 net.cpp:156] Memory required for data: 187667968
I0519 16:31:24.686342 28865 layer_factory.hpp:77] Creating layer conv2_r
I0519 16:31:24.686367 28865 net.cpp:91] Creating Layer conv2_r
I0519 16:31:24.686383 28865 net.cpp:425] conv2_r <- conv1_r
I0519 16:31:24.686399 28865 net.cpp:399] conv2_r -> conv2_r
I0519 16:31:24.688751 28865 net.cpp:141] Setting up conv2_r
I0519 16:31:24.688777 28865 net.cpp:148] Top shape: 128 128 7 56 (6422528)
I0519 16:31:24.688789 28865 net.cpp:156] Memory required for data: 213358080
I0519 16:31:24.688809 28865 layer_factory.hpp:77] Creating layer pool2_r
I0519 16:31:24.688829 28865 net.cpp:91] Creating Layer pool2_r
I0519 16:31:24.688845 28865 net.cpp:425] pool2_r <- conv2_r
I0519 16:31:24.688859 28865 net.cpp:399] pool2_r -> pool2_r
I0519 16:31:24.688917 28865 net.cpp:141] Setting up pool2_r
I0519 16:31:24.688936 28865 net.cpp:148] Top shape: 128 128 4 28 (1835008)
I0519 16:31:24.688947 28865 net.cpp:156] Memory required for data: 220698112
I0519 16:31:24.688958 28865 layer_factory.hpp:77] Creating layer relu2_r
I0519 16:31:24.688982 28865 net.cpp:91] Creating Layer relu2_r
I0519 16:31:24.688993 28865 net.cpp:425] relu2_r <- pool2_r
I0519 16:31:24.689007 28865 net.cpp:386] relu2_r -> pool2_r (in-place)
I0519 16:31:24.689020 28865 net.cpp:141] Setting up relu2_r
I0519 16:31:24.689036 28865 net.cpp:148] Top shape: 128 128 4 28 (1835008)
I0519 16:31:24.689046 28865 net.cpp:156] Memory required for data: 228038144
I0519 16:31:24.689057 28865 layer_factory.hpp:77] Creating layer ip2_r
I0519 16:31:24.689083 28865 net.cpp:91] Creating Layer ip2_r
I0519 16:31:24.689100 28865 net.cpp:425] ip2_r <- pool2_r
I0519 16:31:24.689115 28865 net.cpp:399] ip2_r -> ip2_r
I0519 16:31:24.731318 28865 net.cpp:141] Setting up ip2_r
I0519 16:31:24.731379 28865 net.cpp:148] Top shape: 128 256 (32768)
I0519 16:31:24.731390 28865 net.cpp:156] Memory required for data: 228169216
I0519 16:31:24.731411 28865 layer_factory.hpp:77] Creating layer concat_ar
I0519 16:31:24.731443 28865 net.cpp:91] Creating Layer concat_ar
I0519 16:31:24.731461 28865 net.cpp:425] concat_ar <- ip2_a
I0519 16:31:24.731477 28865 net.cpp:425] concat_ar <- ip2_r
I0519 16:31:24.731492 28865 net.cpp:399] concat_ar -> ip2
I0519 16:31:24.731545 28865 net.cpp:141] Setting up concat_ar
I0519 16:31:24.731564 28865 net.cpp:148] Top shape: 128 512 (65536)
I0519 16:31:24.731575 28865 net.cpp:156] Memory required for data: 228431360
I0519 16:31:24.731587 28865 layer_factory.hpp:77] Creating layer relu2
I0519 16:31:24.731616 28865 net.cpp:91] Creating Layer relu2
I0519 16:31:24.731629 28865 net.cpp:425] relu2 <- ip2
I0519 16:31:24.731647 28865 net.cpp:386] relu2 -> ip2 (in-place)
I0519 16:31:24.731664 28865 net.cpp:141] Setting up relu2
I0519 16:31:24.731678 28865 net.cpp:148] Top shape: 128 512 (65536)
I0519 16:31:24.731693 28865 net.cpp:156] Memory required for data: 228693504
I0519 16:31:24.731704 28865 layer_factory.hpp:77] Creating layer dropip2
I0519 16:31:24.731729 28865 net.cpp:91] Creating Layer dropip2
I0519 16:31:24.731741 28865 net.cpp:425] dropip2 <- ip2
I0519 16:31:24.731757 28865 net.cpp:386] dropip2 -> ip2 (in-place)
I0519 16:31:24.731802 28865 net.cpp:141] Setting up dropip2
I0519 16:31:24.731820 28865 net.cpp:148] Top shape: 128 512 (65536)
I0519 16:31:24.731830 28865 net.cpp:156] Memory required for data: 228955648
I0519 16:31:24.731842 28865 layer_factory.hpp:77] Creating layer ip3
I0519 16:31:24.731865 28865 net.cpp:91] Creating Layer ip3
I0519 16:31:24.731878 28865 net.cpp:425] ip3 <- ip2
I0519 16:31:24.731891 28865 net.cpp:399] ip3 -> ip3
I0519 16:31:24.732115 28865 net.cpp:141] Setting up ip3
I0519 16:31:24.732136 28865 net.cpp:148] Top shape: 128 11 (1408)
I0519 16:31:24.732146 28865 net.cpp:156] Memory required for data: 228961280
I0519 16:31:24.732161 28865 layer_factory.hpp:77] Creating layer loss
I0519 16:31:24.732185 28865 net.cpp:91] Creating Layer loss
I0519 16:31:24.732197 28865 net.cpp:425] loss <- ip3
I0519 16:31:24.732213 28865 net.cpp:425] loss <- label
I0519 16:31:24.732229 28865 net.cpp:399] loss -> loss
I0519 16:31:24.732290 28865 net.cpp:141] Setting up loss
…
