…
I0411 14:38:45.083641  3689 solver.cpp:91] Creating training net from net file: /mnt/raid/dnn/jm/dnn_clean/models_grouptalk_1/train_val_acc_1.prototxt
I0411 14:38:45.084733  3689 net.cpp:313] The NetState phase (0) differed from the phase (1) specified by a rule in layer data
I0411 14:38:45.085194  3689 net.cpp:49] Initializing net from parameters: 
name: "SoundNet"
state {
  phase: TRAIN
}
layer {
  name: "data"
  type: "HDF5Data"
  top: "amsFeatures"
  top: "ratemap"
  top: "label"
  include {
    phase: TRAIN
  }
  hdf5_data_param {
    source: "/home/jm/data/twoears/clean2/split/twoears_data_train.txt"
    batch_size: 128
  }
}
layer {
  name: "conv1_a"
  type: "Convolution"
  bottom: "amsFeatures"
  top: "conv1_a"
  param {
    lr_mult: 1
    decay_mult: 1
  }
  param {
    lr_mult: 2
    decay_mult: 0
  }
  convolution_param {
    num_output: 128
    stride: 1
    weight_filler {
      type: "xavier"
    }
    bias_filler {
      type: "constant"
    }
    kernel_h: 8
    kernel_w: 6
  }
}
layer {
  name: "relu1_a"
  type: "ReLU"
  bottom: "conv1_a"
  top: "conv1_a"
}
layer {
  name: "conv2_a"
  type: "Convolution"
  bottom: "conv1_a"
  top: "conv2_a"
  param {
    lr_mult: 1
    decay_mult: 1
  }
  param {
    lr_mult: 2
    decay_mult: 0
  }
  convolution_param {
    num_output: 128
    stride: 1
    weight_filler {
      type: "xavier"
    }
    bias_filler {
      type: "constant"
    }
    kernel_h: 3
    kernel_w: 3
  }
}
layer {
  name: "pool2_a"
  type: "Pooling"
  bottom: "conv2_a"
  top: "pool2_a"
  pooling_param {
    pool: MAX
    kernel_size: 2
    stride: 2
  }
}
layer {
  name: "relu2_a"
  type: "ReLU"
  bottom: "pool2_a"
  top: "pool2_a"
}
layer {
  name: "ip2_a"
  type: "InnerProduct"
  bottom: "pool2_a"
  top: "ip2_a"
  param {
    lr_mult: 1
  }
  param {
    lr_mult: 2
  }
  inner_product_param {
    num_output: 256
    weight_filler {
      type: "xavier"
    }
    bias_filler {
      type: "constant"
    }
  }
}
layer {
  name: "conv1_r"
  type: "Convolution"
  bottom: "ratemap"
  top: "conv1_r"
  param {
    lr_mult: 1
    decay_mult: 1
  }
  param {
    lr_mult: 2
    decay_mult: 0
  }
  convolution_param {
    num_output: 128
    stride: 1
    weight_filler {
      type: "xavier"
    }
    bias_filler {
      type: "constant"
    }
    kernel_h: 8
    kernel_w: 6
  }
}
layer {
  name: "relu1_r"
  type: "ReLU"
  bottom: "conv1_r"
  top: "conv1_r"
}
layer {
  name: "conv2_r"
  type: "Convolution"
  bottom: "conv1_r"
  top: "conv2_r"
  param {
    lr_mult: 1
    decay_mult: 1
  }
  param {
    lr_mult: 2
    decay_mult: 0
  }
  convolution_param {
    num_output: 128
    stride: 1
    weight_filler {
      type: "xavier"
    }
    bias_filler {
      type: "constant"
    }
    kernel_h: 3
    kernel_w: 3
  }
}
layer {
  name: "pool2_r"
  type: "Pooling"
  bottom: "conv2_r"
  top: "pool2_r"
  pooling_param {
    pool: MAX
    kernel_size: 2
    stride: 2
  }
}
layer {
  name: "relu2_r"
  type: "ReLU"
  bottom: "pool2_r"
  top: "pool2_r"
}
layer {
  name: "ip2_r"
  type: "InnerProduct"
  bottom: "pool2_r"
  top: "ip2_r"
  param {
    lr_mult: 1
  }
  param {
    lr_mult: 2
  }
  inner_product_param {
    num_output: 256
    weight_filler {
      type: "xavier"
    }
    bias_filler {
      type: "constant"
    }
  }
}
layer {
  name: "concat_ar"
  type: "Concat"
  bottom: "ip2_a"
  bottom: "ip2_r"
  top: "ip2"
  concat_param {
    axis: 1
  }
}
layer {
  name: "relu2"
  type: "ReLU"
  bottom: "ip2"
  top: "ip2"
}
layer {
  name: "dropip2"
  type: "Dropout"
  bottom: "ip2"
  top: "ip2"
  dropout_param {
    dropout_ratio: 0.5
  }
}
layer {
  name: "label_split"
  type: "Slice"
  bottom: "label"
  top: "label01"
  top: "label02"
  top: "label03"
  top: "label04"
  top: "label05"
  top: "label06"
  top: "label07"
  top: "label08"
  top: "label09"
  top: "label10"
  top: "label11"
  slice_param {
    slice_point: 1
    slice_point: 2
    slice_point: 3
    slice_point: 4
    slice_point: 5
    slice_point: 6
    slice_point: 7
    slice_point: 8
    slice_point: 9
    slice_point: 10
    axis: 2
  }
}
layer {
  name: "predict01"
  type: "InnerProduct"
  bottom: "ip2"
  top: "predict01"
  param {
    lr_mult: 1
  }
  param {
    lr_mult: 2
  }
  inner_product_param {
    num_output: 2
    weight_filler {
      type: "xavier"
    }
    bias_filler {
      type: "constant"
    }
  }
}
layer {
  name: "loss01"
  type: "SoftmaxWithLoss"
  bottom: "predict01"
  bottom: "label01"
  top: "loss01"
}
layer {
  name: "acc01"
  type: "Accuracy"
  bottom: "predict01"
  bottom: "label01"
  top: "acc01"
}
layer {
  name: "predict02"
  type: "InnerProduct"
  bottom: "ip2"
  top: "predict02"
  param {
    lr_mult: 1
  }
  param {
    lr_mult: 2
  }
  inner_product_param {
    num_output: 2
    weight_filler {
      type: "xavier"
    }
    bias_filler {
      type: "constant"
    }
  }
}
layer {
  name: "loss02"
  type: "SoftmaxWithLoss"
  bottom: "predict02"
  bottom: "label02"
  top: "loss02"
}
layer {
  name: "acc02"
  type: "Accuracy"
  bottom: "predict02"
  bottom: "label02"
  top: "acc02"
}
layer {
  name: "predict03"
  type: "InnerProduct"
  bottom: "ip2"
  top: "predict03"
  param {
    lr_mult: 1
  }
  param {
    lr_mult: 2
  }
  inner_product_param {
    num_output: 2
    weight_filler {
      type: "xavier"
    }
    bias_filler {
      type: "constant"
    }
  }
}
layer {
  name: "loss03"
  type: "SoftmaxWithLoss"
  bottom: "predict03"
  bottom: "label03"
  top: "loss03"
}
layer {
  name: "acc03"
  type: "Accuracy"
  bottom: "predict03"
  bottom: "label03"
  top: "acc03"
}
layer {
  name: "predict04"
  type: "InnerProduct"
  bottom: "ip2"
  top: "predict04"
  param {
    lr_mult: 1
  }
  param {
    lr_mult: 2
  }
  inner_product_param {
    num_output: 2
    weight_filler {
      type: "xavier"
    }
    bias_filler {
      type: "constant"
    }
  }
}
layer {
  name: "loss04"
  type: "SoftmaxWithLoss"
  bottom: "predict04"
  bottom: "label04"
  top: "loss04"
}
layer {
  name: "acc04"
  type: "Accuracy"
  bottom: "predict04"
  bottom: "label04"
  top: "acc04"
}
layer {
  name: "predict05"
  type: "InnerProduct"
  bottom: "ip2"
  top: "predict05"
  param {
    lr_mult: 1
  }
  param {
    lr_mult: 2
  }
  inner_product_param {
    num_output: 2
    weight_filler {
      type: "xavier"
    }
    bias_filler {
      type: "constant"
    }
  }
}
layer {
  name: "loss05"
  type: "SoftmaxWithLoss"
  bottom: "predict05"
  bottom: "label05"
  top: "loss05"
}
layer {
  name: "acc05"
  type: "Accuracy"
  bottom: "predict05"
  bottom: "label05"
  top: "acc05"
}
layer {
  name: "predict06"
  type: "InnerProduct"
  bottom: "ip2"
  top: "predict06"
  param {
    lr_mult: 1
  }
  param {
    lr_mult: 2
  }
  inner_product_param {
    num_output: 2
    weight_filler {
      type: "xavier"
    }
    bias_filler {
      type: "constant"
    }
  }
}
layer {
  name: "loss06"
  type: "SoftmaxWithLoss"
  bottom: "predict06"
  bottom: "label06"
  top: "loss06"
}
layer {
  name: "acc06"
  type: "Accuracy"
  bottom: "predict06"
  bottom: "label06"
  top: "acc06"
}
layer {
  name: "predict07"
  type: "InnerProduct"
  bottom: "ip2"
  top: "predict07"
  param {
    lr_mult: 1
  }
  param {
    lr_mult: 2
  }
  inner_product_param {
    num_output: 2
    weight_filler {
      type: "xavier"
    }
    bias_filler {
      type: "constant"
    }
  }
}
layer {
  name: "loss07"
  type: "SoftmaxWithLoss"
  bottom: "predict07"
  bottom: "label07"
  top: "loss07"
}
layer {
  name: "acc07"
  type: "Accuracy"
  bottom: "predict07"
  bottom: "label07"
  top: "acc07"
}
layer {
  name: "predict08"
  type: "InnerProduct"
  bottom: "ip2"
  top: "predict08"
  param {
    lr_mult: 1
  }
  param {
    lr_mult: 2
  }
  inner_product_param {
    num_output: 2
    weight_filler {
      type: "xavier"
    }
    bias_filler {
      type: "constant"
    }
  }
}
layer {
  name: "loss08"
  type: "SoftmaxWithLoss"
  bottom: "predict08"
  bottom: "label08"
  top: "loss08"
}
layer {
  name: "acc08"
  type: "Accuracy"
  bottom: "predict08"
  bottom: "label08"
  top: "acc08"
}
layer {
  name: "predict09"
  type: "InnerProduct"
  bottom: "ip2"
  top: "predict09"
  param {
    lr_mult: 1
  }
  param {
    lr_mult: 2
  }
  inner_product_param {
    num_output: 2
    weight_filler {
      type: "xavier"
    }
    bias_filler {
      type: "constant"
    }
  }
}
layer {
  name: "loss09"
  type: "SoftmaxWithLoss"
  bottom: "predict09"
  bottom: "label09"
  top: "loss09"
}
layer {
  name: "acc09"
  type: "Accuracy"
  bottom: "predict09"
  bottom: "label09"
  top: "acc09"
}
layer {
  name: "predict10"
  type: "InnerProduct"
  bottom: "ip2"
  top: "predict10"
  param {
    lr_mult: 1
  }
  param {
    lr_mult: 2
  }
  inner_product_param {
    num_output: 2
    weight_filler {
      type: "xavier"
    }
    bias_filler {
      type: "constant"
    }
  }
}
layer {
  name: "loss10"
  type: "SoftmaxWithLoss"
  bottom: "predict10"
  bottom: "label10"
  top: "loss10"
}
layer {
  name: "acc10"
  type: "Accuracy"
  bottom: "predict10"
  bottom: "label10"
  top: "acc10"
}
layer {
  name: "predict11"
  type: "InnerProduct"
  bottom: "ip2"
  top: "predict11"
  param {
    lr_mult: 1
  }
  param {
    lr_mult: 2
  }
  inner_product_param {
    num_output: 2
    weight_filler {
      type: "xavier"
    }
    bias_filler {
      type: "constant"
    }
  }
}
layer {
  name: "loss11"
  type: "SoftmaxWithLoss"
  bottom: "predict11"
  bottom: "label11"
  top: "loss11"
}
layer {
  name: "acc11"
  type: "Accuracy"
  bottom: "predict11"
  bottom: "label11"
  top: "acc11"
}
I0411 14:38:45.087488  3689 layer_factory.hpp:77] Creating layer data
I0411 14:38:45.087517  3689 net.cpp:91] Creating Layer data
I0411 14:38:45.087529  3689 net.cpp:399] data -> amsFeatures
I0411 14:38:45.087564  3689 net.cpp:399] data -> ratemap
I0411 14:38:45.087576  3689 net.cpp:399] data -> label
I0411 14:38:45.087594  3689 hdf5_data_layer.cpp:79] Loading list of HDF5 filenames from: /home/jm/data/twoears/clean2/split/twoears_data_train.txt
I0411 14:38:45.087906  3689 hdf5_data_layer.cpp:93] Number of HDF5 files: 7
I0411 14:38:45.090200  3689 hdf5.cpp:32] Datatype class: H5T_FLOAT
I0411 14:38:48.625164  3689 net.cpp:141] Setting up data
I0411 14:38:48.625213  3689 net.cpp:148] Top shape: 128 9 16 63 (1161216)
I0411 14:38:48.625223  3689 net.cpp:148] Top shape: 128 1 16 63 (129024)
I0411 14:38:48.625231  3689 net.cpp:148] Top shape: 128 1 11 1 (1408)
I0411 14:38:48.625236  3689 net.cpp:156] Memory required for data: 5166592
I0411 14:38:48.625249  3689 layer_factory.hpp:77] Creating layer conv1_a
I0411 14:38:48.625282  3689 net.cpp:91] Creating Layer conv1_a
I0411 14:38:48.625290  3689 net.cpp:425] conv1_a <- amsFeatures
I0411 14:38:48.625303  3689 net.cpp:399] conv1_a -> conv1_a
I0411 14:38:48.627403  3689 net.cpp:141] Setting up conv1_a
I0411 14:38:48.627420  3689 net.cpp:148] Top shape: 128 128 9 58 (8552448)
I0411 14:38:48.627426  3689 net.cpp:156] Memory required for data: 39376384
I0411 14:38:48.627444  3689 layer_factory.hpp:77] Creating layer relu1_a
I0411 14:38:48.627460  3689 net.cpp:91] Creating Layer relu1_a
I0411 14:38:48.627465  3689 net.cpp:425] relu1_a <- conv1_a
I0411 14:38:48.627472  3689 net.cpp:386] relu1_a -> conv1_a (in-place)
I0411 14:38:48.627485  3689 net.cpp:141] Setting up relu1_a
I0411 14:38:48.627492  3689 net.cpp:148] Top shape: 128 128 9 58 (8552448)
I0411 14:38:48.627498  3689 net.cpp:156] Memory required for data: 73586176
I0411 14:38:48.627503  3689 layer_factory.hpp:77] Creating layer conv2_a
I0411 14:38:48.627516  3689 net.cpp:91] Creating Layer conv2_a
I0411 14:38:48.627521  3689 net.cpp:425] conv2_a <- conv1_a
I0411 14:38:48.627528  3689 net.cpp:399] conv2_a -> conv2_a
I0411 14:38:48.629240  3689 net.cpp:141] Setting up conv2_a
I0411 14:38:48.629278  3689 net.cpp:148] Top shape: 128 128 7 56 (6422528)
I0411 14:38:48.629284  3689 net.cpp:156] Memory required for data: 99276288
I0411 14:38:48.629294  3689 layer_factory.hpp:77] Creating layer pool2_a
I0411 14:38:48.629304  3689 net.cpp:91] Creating Layer pool2_a
I0411 14:38:48.629310  3689 net.cpp:425] pool2_a <- conv2_a
I0411 14:38:48.629317  3689 net.cpp:399] pool2_a -> pool2_a
I0411 14:38:48.629361  3689 net.cpp:141] Setting up pool2_a
I0411 14:38:48.629374  3689 net.cpp:148] Top shape: 128 128 4 28 (1835008)
I0411 14:38:48.629379  3689 net.cpp:156] Memory required for data: 106616320
I0411 14:38:48.629385  3689 layer_factory.hpp:77] Creating layer relu2_a
I0411 14:38:48.629392  3689 net.cpp:91] Creating Layer relu2_a
I0411 14:38:48.629397  3689 net.cpp:425] relu2_a <- pool2_a
I0411 14:38:48.629405  3689 net.cpp:386] relu2_a -> pool2_a (in-place)
I0411 14:38:48.629411  3689 net.cpp:141] Setting up relu2_a
I0411 14:38:48.629418  3689 net.cpp:148] Top shape: 128 128 4 28 (1835008)
I0411 14:38:48.629423  3689 net.cpp:156] Memory required for data: 113956352
I0411 14:38:48.629428  3689 layer_factory.hpp:77] Creating layer ip2_a
I0411 14:38:48.629441  3689 net.cpp:91] Creating Layer ip2_a
I0411 14:38:48.629447  3689 net.cpp:425] ip2_a <- pool2_a
I0411 14:38:48.629454  3689 net.cpp:399] ip2_a -> ip2_a
I0411 14:38:48.673089  3689 net.cpp:141] Setting up ip2_a
I0411 14:38:48.673126  3689 net.cpp:148] Top shape: 128 256 (32768)
I0411 14:38:48.673135  3689 net.cpp:156] Memory required for data: 114087424
I0411 14:38:48.673161  3689 layer_factory.hpp:77] Creating layer conv1_r
I0411 14:38:48.673185  3689 net.cpp:91] Creating Layer conv1_r
I0411 14:38:48.673195  3689 net.cpp:425] conv1_r <- ratemap
I0411 14:38:48.673213  3689 net.cpp:399] conv1_r -> conv1_r
I0411 14:38:48.674160  3689 net.cpp:141] Setting up conv1_r
I0411 14:38:48.674180  3689 net.cpp:148] Top shape: 128 128 9 58 (8552448)
I0411 14:38:48.674187  3689 net.cpp:156] Memory required for data: 148297216
I0411 14:38:48.674197  3689 layer_factory.hpp:77] Creating layer relu1_r
I0411 14:38:48.674212  3689 net.cpp:91] Creating Layer relu1_r
I0411 14:38:48.674221  3689 net.cpp:425] relu1_r <- conv1_r
I0411 14:38:48.674232  3689 net.cpp:386] relu1_r -> conv1_r (in-place)
I0411 14:38:48.674243  3689 net.cpp:141] Setting up relu1_r
I0411 14:38:48.674252  3689 net.cpp:148] Top shape: 128 128 9 58 (8552448)
I0411 14:38:48.674260  3689 net.cpp:156] Memory required for data: 182507008
I0411 14:38:48.674268  3689 layer_factory.hpp:77] Creating layer conv2_r
I0411 14:38:48.674284  3689 net.cpp:91] Creating Layer conv2_r
I0411 14:38:48.674293  3689 net.cpp:425] conv2_r <- conv1_r
I0411 14:38:48.674307  3689 net.cpp:399] conv2_r -> conv2_r
I0411 14:38:48.676396  3689 net.cpp:141] Setting up conv2_r
I0411 14:38:48.676416  3689 net.cpp:148] Top shape: 128 128 7 56 (6422528)
I0411 14:38:48.676424  3689 net.cpp:156] Memory required for data: 208197120
I0411 14:38:48.676440  3689 layer_factory.hpp:77] Creating layer pool2_r
I0411 14:38:48.676453  3689 net.cpp:91] Creating Layer pool2_r
I0411 14:38:48.676463  3689 net.cpp:425] pool2_r <- conv2_r
I0411 14:38:48.676475  3689 net.cpp:399] pool2_r -> pool2_r
I0411 14:38:48.676518  3689 net.cpp:141] Setting up pool2_r
I0411 14:38:48.676532  3689 net.cpp:148] Top shape: 128 128 4 28 (1835008)
I0411 14:38:48.676539  3689 net.cpp:156] Memory required for data: 215537152
I0411 14:38:48.676551  3689 layer_factory.hpp:77] Creating layer relu2_r
I0411 14:38:48.676561  3689 net.cpp:91] Creating Layer relu2_r
I0411 14:38:48.676571  3689 net.cpp:425] relu2_r <- pool2_r
I0411 14:38:48.676584  3689 net.cpp:386] relu2_r -> pool2_r (in-place)
I0411 14:38:48.676595  3689 net.cpp:141] Setting up relu2_r
I0411 14:38:48.676604  3689 net.cpp:148] Top shape: 128 128 4 28 (1835008)
I0411 14:38:48.676612  3689 net.cpp:156] Memory required for data: 222877184
I0411 14:38:48.676620  3689 layer_factory.hpp:77] Creating layer ip2_r
I0411 14:38:48.676635  3689 net.cpp:91] Creating Layer ip2_r
I0411 14:38:48.676643  3689 net.cpp:425] ip2_r <- pool2_r
I0411 14:38:48.676692  3689 net.cpp:399] ip2_r -> ip2_r
I0411 14:38:48.716045  3689 net.cpp:141] Setting up ip2_r
I0411 14:38:48.716073  3689 net.cpp:148] Top shape: 128 256 (32768)
I0411 14:38:48.716081  3689 net.cpp:156] Memory required for data: 223008256
I0411 14:38:48.716095  3689 layer_factory.hpp:77] Creating layer concat_ar
I0411 14:38:48.716119  3689 net.cpp:91] Creating Layer concat_ar
I0411 14:38:48.716130  3689 net.cpp:425] concat_ar <- ip2_a
I0411 14:38:48.716140  3689 net.cpp:425] concat_ar <- ip2_r
I0411 14:38:48.716150  3689 net.cpp:399] concat_ar -> ip2
I0411 14:38:48.716187  3689 net.cpp:141] Setting up concat_ar
I0411 14:38:48.716200  3689 net.cpp:148] Top shape: 128 512 (65536)
I0411 14:38:48.716207  3689 net.cpp:156] Memory required for data: 223270400
I0411 14:38:48.716220  3689 layer_factory.hpp:77] Creating layer relu2
I0411 14:38:48.716238  3689 net.cpp:91] Creating Layer relu2
I0411 14:38:48.716245  3689 net.cpp:425] relu2 <- ip2
I0411 14:38:48.716255  3689 net.cpp:386] relu2 -> ip2 (in-place)
I0411 14:38:48.716266  3689 net.cpp:141] Setting up relu2
I0411 14:38:48.716275  3689 net.cpp:148] Top shape: 128 512 (65536)
I0411 14:38:48.716284  3689 net.cpp:156] Memory required for data: 223532544
I0411 14:38:48.716292  3689 layer_factory.hpp:77] Creating layer dropip2
I0411 14:38:48.716310  3689 net.cpp:91] Creating Layer dropip2
I0411 14:38:48.716317  3689 net.cpp:425] dropip2 <- ip2
I0411 14:38:48.716327  3689 net.cpp:386] dropip2 -> ip2 (in-place)
I0411 14:38:48.716363  3689 net.cpp:141] Setting up dropip2
I0411 14:38:48.716375  3689 net.cpp:148] Top shape: 128 512 (65536)
I0411 14:38:48.716382  3689 net.cpp:156] Memory required for data: 223794688
I0411 14:38:48.716389  3689 layer_factory.hpp:77] Creating layer ip2_dropip2_0_split
I0411 14:38:48.716408  3689 net.cpp:91] Creating Layer ip2_dropip2_0_split
I0411 14:38:48.716416  3689 net.cpp:425] ip2_dropip2_0_split <- ip2
I0411 14:38:48.716426  3689 net.cpp:399] ip2_dropip2_0_split -> ip2_dropip2_0_split_0
I0411 14:38:48.716439  3689 net.cpp:399] ip2_dropip2_0_split -> ip2_dropip2_0_split_1
I0411 14:38:48.716450  3689 net.cpp:399] ip2_dropip2_0_split -> ip2_dropip2_0_split_2
I0411 14:38:48.716462  3689 net.cpp:399] ip2_dropip2_0_split -> ip2_dropip2_0_split_3
I0411 14:38:48.716473  3689 net.cpp:399] ip2_dropip2_0_split -> ip2_dropip2_0_split_4
I0411 14:38:48.716486  3689 net.cpp:399] ip2_dropip2_0_split -> ip2_dropip2_0_split_5
I0411 14:38:48.716497  3689 net.cpp:399] ip2_dropip2_0_split -> ip2_dropip2_0_split_6
I0411 14:38:48.716507  3689 net.cpp:399] ip2_dropip2_0_split -> ip2_dropip2_0_split_7
I0411 14:38:48.716518  3689 net.cpp:399] ip2_dropip2_0_split -> ip2_dropip2_0_split_8
I0411 14:38:48.716531  3689 net.cpp:399] ip2_dropip2_0_split -> ip2_dropip2_0_split_9
I0411 14:38:48.716544  3689 net.cpp:399] ip2_dropip2_0_split -> ip2_dropip2_0_split_10
I0411 14:38:48.716687  3689 net.cpp:141] Setting up ip2_dropip2_0_split
I0411 14:38:48.716699  3689 net.cpp:148] Top shape: 128 512 (65536)
I0411 14:38:48.716707  3689 net.cpp:148] Top shape: 128 512 (65536)
I0411 14:38:48.716716  3689 net.cpp:148] Top shape: 128 512 (65536)
I0411 14:38:48.716722  3689 net.cpp:148] Top shape: 128 512 (65536)
I0411 14:38:48.716732  3689 net.cpp:148] Top shape: 128 512 (65536)
I0411 14:38:48.716739  3689 net.cpp:148] Top shape: 128 512 (65536)
I0411 14:38:48.716747  3689 net.cpp:148] Top shape: 128 512 (65536)
I0411 14:38:48.716755  3689 net.cpp:148] Top shape: 128 512 (65536)
I0411 14:38:48.716763  3689 net.cpp:148] Top shape: 128 512 (65536)
I0411 14:38:48.716773  3689 net.cpp:148] Top shape: 128 512 (65536)
I0411 14:38:48.716780  3689 net.cpp:148] Top shape: 128 512 (65536)
I0411 14:38:48.716787  3689 net.cpp:156] Memory required for data: 226678272
I0411 14:38:48.716795  3689 layer_factory.hpp:77] Creating layer label_split
I0411 14:38:48.716812  3689 net.cpp:91] Creating Layer label_split
I0411 14:38:48.716820  3689 net.cpp:425] label_split <- label
I0411 14:38:48.716830  3689 net.cpp:399] label_split -> label01
I0411 14:38:48.716845  3689 net.cpp:399] label_split -> label02
I0411 14:38:48.716881  3689 net.cpp:399] label_split -> label03
I0411 14:38:48.716893  3689 net.cpp:399] label_split -> label04
I0411 14:38:48.716902  3689 net.cpp:399] label_split -> label05
I0411 14:38:48.716913  3689 net.cpp:399] label_split -> label06
I0411 14:38:48.716925  3689 net.cpp:399] label_split -> label07
I0411 14:38:48.716935  3689 net.cpp:399] label_split -> label08
I0411 14:38:48.716944  3689 net.cpp:399] label_split -> label09
I0411 14:38:48.716954  3689 net.cpp:399] label_split -> label10
I0411 14:38:48.716967  3689 net.cpp:399] label_split -> label11
I0411 14:38:48.717108  3689 net.cpp:141] Setting up label_split
I0411 14:38:48.717118  3689 net.cpp:148] Top shape: 128 1 1 1 (128)
I0411 14:38:48.717126  3689 net.cpp:148] Top shape: 128 1 1 1 (128)
I0411 14:38:48.717133  3689 net.cpp:148] Top shape: 128 1 1 1 (128)
I0411 14:38:48.717139  3689 net.cpp:148] Top shape: 128 1 1 1 (128)
I0411 14:38:48.717146  3689 net.cpp:148] Top shape: 128 1 1 1 (128)
I0411 14:38:48.717154  3689 net.cpp:148] Top shape: 128 1 1 1 (128)
I0411 14:38:48.717160  3689 net.cpp:148] Top shape: 128 1 1 1 (128)
I0411 14:38:48.717167  3689 net.cpp:148] Top shape: 128 1 1 1 (128)
I0411 14:38:48.717175  3689 net.cpp:148] Top shape: 128 1 1 1 (128)
I0411 14:38:48.717182  3689 net.cpp:148] Top shape: 128 1 1 1 (128)
I0411 14:38:48.717190  3689 net.cpp:148] Top shape: 128 1 1 1 (128)
I0411 14:38:48.717195  3689 net.cpp:156] Memory required for data: 226683904
I0411 14:38:48.717201  3689 layer_factory.hpp:77] Creating layer label01_label_split_0_split
I0411 14:38:48.717216  3689 net.cpp:91] Creating Layer label01_label_split_0_split
I0411 14:38:48.717223  3689 net.cpp:425] label01_label_split_0_split <- label01
I0411 14:38:48.717232  3689 net.cpp:399] label01_label_split_0_split -> label01_label_split_0_split_0
I0411 14:38:48.717242  3689 net.cpp:399] label01_label_split_0_split -> label01_label_split_0_split_1
I0411 14:38:48.717280  3689 net.cpp:141] Setting up label01_label_split_0_split
I0411 14:38:48.717289  3689 net.cpp:148] Top shape: 128 1 1 1 (128)
I0411 14:38:48.717296  3689 net.cpp:148] Top shape: 128 1 1 1 (128)
I0411 14:38:48.717303  3689 net.cpp:156] Memory required for data: 226684928
I0411 14:38:48.717308  3689 layer_factory.hpp:77] Creating layer label02_label_split_1_split
I0411 14:38:48.717320  3689 net.cpp:91] Creating Layer label02_label_split_1_split
I0411 14:38:48.717327  3689 net.cpp:425] label02_label_split_1_split <- label02
I0411 14:38:48.717336  3689 net.cpp:399] label02_label_split_1_split -> label02_label_split_1_split_0
I0411 14:38:48.717346  3689 net.cpp:399] label02_label_split_1_split -> label02_label_split_1_split_1
I0411 14:38:48.717381  3689 net.cpp:141] Setting up label02_label_split_1_split
I0411 14:38:48.717391  3689 net.cpp:148] Top shape: 128 1 1 1 (128)
I0411 14:38:48.717398  3689 net.cpp:148] Top shape: 128 1 1 1 (128)
I0411 14:38:48.717404  3689 net.cpp:156] Memory required for data: 226685952
I0411 14:38:48.717411  3689 layer_factory.hpp:77] Creating layer label03_label_split_2_split
I0411 14:38:48.717419  3689 net.cpp:91] Creating Layer label03_label_split_2_split
I0411 14:38:48.717427  3689 net.cpp:425] label03_label_split_2_split <- label03
I0411 14:38:48.717434  3689 net.cpp:399] label03_label_split_2_split -> label03_label_split_2_split_0
I0411 14:38:48.717445  3689 net.cpp:399] label03_label_split_2_split -> label03_label_split_2_split_1
I0411 14:38:48.717479  3689 net.cpp:141] Setting up label03_label_split_2_split
I0411 14:38:48.717489  3689 net.cpp:148] Top shape: 128 1 1 1 (128)
I0411 14:38:48.717495  3689 net.cpp:148] Top shape: 128 1 1 1 (128)
I0411 14:38:48.717501  3689 net.cpp:156] Memory required for data: 226686976
I0411 14:38:48.717507  3689 layer_factory.hpp:77] Creating layer label04_label_split_3_split
I0411 14:38:48.717517  3689 net.cpp:91] Creating Layer label04_label_split_3_split
I0411 14:38:48.717525  3689 net.cpp:425] label04_label_split_3_split <- label04
I0411 14:38:48.717532  3689 net.cpp:399] label04_label_split_3_split -> label04_label_split_3_split_0
I0411 14:38:48.717552  3689 net.cpp:399] label04_label_split_3_split -> label04_label_split_3_split_1
I0411 14:38:48.717592  3689 net.cpp:141] Setting up label04_label_split_3_split
I0411 14:38:48.717600  3689 net.cpp:148] Top shape: 128 1 1 1 (128)
I0411 14:38:48.717607  3689 net.cpp:148] Top shape: 128 1 1 1 (128)
I0411 14:38:48.717613  3689 net.cpp:156] Memory required for data: 226688000
I0411 14:38:48.717619  3689 layer_factory.hpp:77] Creating layer label05_label_split_4_split
I0411 14:38:48.717628  3689 net.cpp:91] Creating Layer label05_label_split_4_split
I0411 14:38:48.717635  3689 net.cpp:425] label05_label_split_4_split <- label05
I0411 14:38:48.717643  3689 net.cpp:399] label05_label_split_4_split -> label05_label_split_4_split_0
I0411 14:38:48.717653  3689 net.cpp:399] label05_label_split_4_split -> label05_label_split_4_split_1
I0411 14:38:48.717686  3689 net.cpp:141] Setting up label05_label_split_4_split
I0411 14:38:48.717695  3689 net.cpp:148] Top shape: 128 1 1 1 (128)
I0411 14:38:48.717702  3689 net.cpp:148] Top shape: 128 1 1 1 (128)
I0411 14:38:48.717708  3689 net.cpp:156] Memory required for data: 226689024
I0411 14:38:48.717715  3689 layer_factory.hpp:77] Creating layer label06_label_split_5_split
I0411 14:38:48.717725  3689 net.cpp:91] Creating Layer label06_label_split_5_split
I0411 14:38:48.717730  3689 net.cpp:425] label06_label_split_5_split <- label06
I0411 14:38:48.717739  3689 net.cpp:399] label06_label_split_5_split -> label06_label_split_5_split_0
I0411 14:38:48.717748  3689 net.cpp:399] label06_label_split_5_split -> label06_label_split_5_split_1
I0411 14:38:48.717782  3689 net.cpp:141] Setting up label06_label_split_5_split
I0411 14:38:48.717790  3689 net.cpp:148] Top shape: 128 1 1 1 (128)
I0411 14:38:48.717797  3689 net.cpp:148] Top shape: 128 1 1 1 (128)
I0411 14:38:48.717803  3689 net.cpp:156] Memory required for data: 226690048
I0411 14:38:48.717809  3689 layer_factory.hpp:77] Creating layer label07_label_split_6_split
I0411 14:38:48.717818  3689 net.cpp:91] Creating Layer label07_label_split_6_split
I0411 14:38:48.717824  3689 net.cpp:425] label07_label_split_6_split <- label07
I0411 14:38:48.717841  3689 net.cpp:399] label07_label_split_6_split -> label07_label_split_6_split_0
I0411 14:38:48.717851  3689 net.cpp:399] label07_label_split_6_split -> label07_label_split_6_split_1
I0411 14:38:48.717883  3689 net.cpp:141] Setting up label07_label_split_6_split
I0411 14:38:48.717892  3689 net.cpp:148] Top shape: 128 1 1 1 (128)
I0411 14:38:48.717900  3689 net.cpp:148] Top shape: 128 1 1 1 (128)
I0411 14:38:48.717905  3689 net.cpp:156] Memory required for data: 226691072
I0411 14:38:48.717911  3689 layer_factory.hpp:77] Creating layer label08_label_split_7_split
I0411 14:38:48.717921  3689 net.cpp:91] Creating Layer label08_label_split_7_split
I0411 14:38:48.717928  3689 net.cpp:425] label08_label_split_7_split <- label08
I0411 14:38:48.717936  3689 net.cpp:399] label08_label_split_7_split -> label08_label_split_7_split_0
I0411 14:38:48.717946  3689 net.cpp:399] label08_label_split_7_split -> label08_label_split_7_split_1
I0411 14:38:48.717978  3689 net.cpp:141] Setting up label08_label_split_7_split
I0411 14:38:48.717986  3689 net.cpp:148] Top shape: 128 1 1 1 (128)
I0411 14:38:48.717993  3689 net.cpp:148] Top shape: 128 1 1 1 (128)
I0411 14:38:48.717999  3689 net.cpp:156] Memory required for data: 226692096
I0411 14:38:48.718005  3689 layer_factory.hpp:77] Creating layer label09_label_split_8_split
I0411 14:38:48.718014  3689 net.cpp:91] Creating Layer label09_label_split_8_split
I0411 14:38:48.718020  3689 net.cpp:425] label09_label_split_8_split <- label09
I0411 14:38:48.718029  3689 net.cpp:399] label09_label_split_8_split -> label09_label_split_8_split_0
I0411 14:38:48.718037  3689 net.cpp:399] label09_label_split_8_split -> label09_label_split_8_split_1
I0411 14:38:48.718073  3689 net.cpp:141] Setting up label09_label_split_8_split
I0411 14:38:48.718082  3689 net.cpp:148] Top shape: 128 1 1 1 (128)
I0411 14:38:48.718089  3689 net.cpp:148] Top shape: 128 1 1 1 (128)
I0411 14:38:48.718103  3689 net.cpp:156] Memory required for data: 226693120
I0411 14:38:48.718111  3689 layer_factory.hpp:77] Creating layer label10_label_split_9_split
I0411 14:38:48.718121  3689 net.cpp:91] Creating Layer label10_label_split_9_split
I0411 14:38:48.718127  3689 net.cpp:425] label10_label_split_9_split <- label10
I0411 14:38:48.718138  3689 net.cpp:399] label10_label_split_9_split -> label10_label_split_9_split_0
I0411 14:38:48.718148  3689 net.cpp:399] label10_label_split_9_split -> label10_label_split_9_split_1
I0411 14:38:48.718181  3689 net.cpp:141] Setting up label10_label_split_9_split
I0411 14:38:48.718190  3689 net.cpp:148] Top shape: 128 1 1 1 (128)
I0411 14:38:48.718197  3689 net.cpp:148] Top shape: 128 1 1 1 (128)
I0411 14:38:48.718204  3689 net.cpp:156] Memory required for data: 226694144
I0411 14:38:48.718209  3689 layer_factory.hpp:77] Creating layer label11_label_split_10_split
I0411 14:38:48.718219  3689 net.cpp:91] Creating Layer label11_label_split_10_split
I0411 14:38:48.718226  3689 net.cpp:425] label11_label_split_10_split <- label11
I0411 14:38:48.718235  3689 net.cpp:399] label11_label_split_10_split -> label11_label_split_10_split_0
I0411 14:38:48.718245  3689 net.cpp:399] label11_label_split_10_split -> label11_label_split_10_split_1
I0411 14:38:48.718277  3689 net.cpp:141] Setting up label11_label_split_10_split
I0411 14:38:48.718286  3689 net.cpp:148] Top shape: 128 1 1 1 (128)
I0411 14:38:48.718293  3689 net.cpp:148] Top shape: 128 1 1 1 (128)
I0411 14:38:48.718299  3689 net.cpp:156] Memory required for data: 226695168
I0411 14:38:48.718305  3689 layer_factory.hpp:77] Creating layer predict01
I0411 14:38:48.718317  3689 net.cpp:91] Creating Layer predict01
I0411 14:38:48.718324  3689 net.cpp:425] predict01 <- ip2_dropip2_0_split_0
I0411 14:38:48.718333  3689 net.cpp:399] predict01 -> predict01
I0411 14:38:48.718448  3689 net.cpp:141] Setting up predict01
I0411 14:38:48.718458  3689 net.cpp:148] Top shape: 128 2 (256)
I0411 14:38:48.718466  3689 net.cpp:156] Memory required for data: 226696192
I0411 14:38:48.718475  3689 layer_factory.hpp:77] Creating layer predict01_predict01_0_split
I0411 14:38:48.718484  3689 net.cpp:91] Creating Layer predict01_predict01_0_split
I0411 14:38:48.718492  3689 net.cpp:425] predict01_predict01_0_split <- predict01
I0411 14:38:48.718505  3689 net.cpp:399] predict01_predict01_0_split -> predict01_predict01_0_split_0
I0411 14:38:48.718515  3689 net.cpp:399] predict01_predict01_0_split -> predict01_predict01_0_split_1
I0411 14:38:48.718546  3689 net.cpp:141] Setting up predict01_predict01_0_split
I0411 14:38:48.718555  3689 net.cpp:148] Top shape: 128 2 (256)
I0411 14:38:48.718562  3689 net.cpp:148] Top shape: 128 2 (256)
I0411 14:38:48.718569  3689 net.cpp:156] Memory required for data: 226698240
I0411 14:38:48.718575  3689 layer_factory.hpp:77] Creating layer loss01
I0411 14:38:48.718591  3689 net.cpp:91] Creating Layer loss01
I0411 14:38:48.718598  3689 net.cpp:425] loss01 <- predict01_predict01_0_split_0
I0411 14:38:48.718621  3689 net.cpp:425] loss01 <- label01_label_split_0_split_0
I0411 14:38:48.718631  3689 net.cpp:399] loss01 -> loss01
…
