…
I0411 13:40:00.413027  2936 solver.cpp:91] Creating training net from net file: /mnt/raid/dnn/jm/dnn_clean/models_grouptalk_1/train_val_acc_1.prototxt
I0411 13:40:00.414114  2936 net.cpp:313] The NetState phase (0) differed from the phase (1) specified by a rule in layer data
I0411 13:40:00.414575  2936 net.cpp:49] Initializing net from parameters: 
name: "SoundNet"
state {
  phase: TRAIN
}
layer {
  name: "data"
  type: "HDF5Data"
  top: "amsFeatures"
  top: "ratemap"
  top: "label"
  include {
    phase: TRAIN
  }
  hdf5_data_param {
    source: "/home/jm/data/twoears/clean2/split/twoears_data_train.txt"
    batch_size: 128
  }
}
layer {
  name: "conv1_a"
  type: "Convolution"
  bottom: "amsFeatures"
  top: "conv1_a"
  param {
    lr_mult: 1
    decay_mult: 1
  }
  param {
    lr_mult: 2
    decay_mult: 0
  }
  convolution_param {
    num_output: 128
    stride: 1
    weight_filler {
      type: "xavier"
    }
    bias_filler {
      type: "constant"
    }
    kernel_h: 8
    kernel_w: 6
  }
}
layer {
  name: "relu1_a"
  type: "ReLU"
  bottom: "conv1_a"
  top: "conv1_a"
}
layer {
  name: "conv2_a"
  type: "Convolution"
  bottom: "conv1_a"
  top: "conv2_a"
  param {
    lr_mult: 1
    decay_mult: 1
  }
  param {
    lr_mult: 2
    decay_mult: 0
  }
  convolution_param {
    num_output: 128
    stride: 1
    weight_filler {
      type: "xavier"
    }
    bias_filler {
      type: "constant"
    }
    kernel_h: 3
    kernel_w: 3
  }
}
layer {
  name: "pool2_a"
  type: "Pooling"
  bottom: "conv2_a"
  top: "pool2_a"
  pooling_param {
    pool: MAX
    kernel_size: 2
    stride: 2
  }
}
layer {
  name: "relu2_a"
  type: "ReLU"
  bottom: "pool2_a"
  top: "pool2_a"
}
layer {
  name: "ip2_a"
  type: "InnerProduct"
  bottom: "pool2_a"
  top: "ip2_a"
  param {
    lr_mult: 1
  }
  param {
    lr_mult: 2
  }
  inner_product_param {
    num_output: 256
    weight_filler {
      type: "xavier"
    }
    bias_filler {
      type: "constant"
    }
  }
}
layer {
  name: "conv1_r"
  type: "Convolution"
  bottom: "ratemap"
  top: "conv1_r"
  param {
    lr_mult: 1
    decay_mult: 1
  }
  param {
    lr_mult: 2
    decay_mult: 0
  }
  convolution_param {
    num_output: 128
    stride: 1
    weight_filler {
      type: "xavier"
    }
    bias_filler {
      type: "constant"
    }
    kernel_h: 8
    kernel_w: 6
  }
}
layer {
  name: "relu1_r"
  type: "ReLU"
  bottom: "conv1_r"
  top: "conv1_r"
}
layer {
  name: "conv2_r"
  type: "Convolution"
  bottom: "conv1_r"
  top: "conv2_r"
  param {
    lr_mult: 1
    decay_mult: 1
  }
  param {
    lr_mult: 2
    decay_mult: 0
  }
  convolution_param {
    num_output: 128
    stride: 1
    weight_filler {
      type: "xavier"
    }
    bias_filler {
      type: "constant"
    }
    kernel_h: 3
    kernel_w: 3
  }
}
layer {
  name: "pool2_r"
  type: "Pooling"
  bottom: "conv2_r"
  top: "pool2_r"
  pooling_param {
    pool: MAX
    kernel_size: 2
    stride: 2
  }
}
layer {
  name: "relu2_r"
  type: "ReLU"
  bottom: "pool2_r"
  top: "pool2_r"
}
layer {
  name: "ip2_r"
  type: "InnerProduct"
  bottom: "pool2_r"
  top: "ip2_r"
  param {
    lr_mult: 1
  }
  param {
    lr_mult: 2
  }
  inner_product_param {
    num_output: 256
    weight_filler {
      type: "xavier"
    }
    bias_filler {
      type: "constant"
    }
  }
}
layer {
  name: "concat_ar"
  type: "Concat"
  bottom: "ip2_a"
  bottom: "ip2_r"
  top: "ip2"
  concat_param {
    axis: 1
  }
}
layer {
  name: "relu2"
  type: "ReLU"
  bottom: "ip2"
  top: "ip2"
}
layer {
  name: "dropip2"
  type: "Dropout"
  bottom: "ip2"
  top: "ip2"
  dropout_param {
    dropout_ratio: 0.5
  }
}
layer {
  name: "label_split"
  type: "Slice"
  bottom: "label"
  top: "label01"
  top: "label02"
  top: "label03"
  top: "label04"
  top: "label05"
  top: "label06"
  top: "label07"
  top: "label08"
  top: "label09"
  top: "label10"
  top: "label11"
  slice_param {
    slice_point: 1
    slice_point: 2
    slice_point: 3
    slice_point: 4
    slice_point: 5
    slice_point: 6
    slice_point: 7
    slice_point: 8
    slice_point: 9
    slice_point: 10
    axis: 2
  }
}
layer {
  name: "predict01"
  type: "InnerProduct"
  bottom: "ip2"
  top: "predict01"
  param {
    lr_mult: 1
  }
  param {
    lr_mult: 2
  }
  inner_product_param {
    num_output: 2
    weight_filler {
      type: "xavier"
    }
    bias_filler {
      type: "constant"
    }
  }
}
layer {
  name: "loss01"
  type: "SoftmaxWithLoss"
  bottom: "predict01"
  bottom: "label01"
  top: "loss01"
}
layer {
  name: "acc01"
  type: "Accuracy"
  bottom: "predict01"
  bottom: "label01"
  top: "acc01"
}
layer {
  name: "predict02"
  type: "InnerProduct"
  bottom: "ip2"
  top: "predict02"
  param {
    lr_mult: 1
  }
  param {
    lr_mult: 2
  }
  inner_product_param {
    num_output: 2
    weight_filler {
      type: "xavier"
    }
    bias_filler {
      type: "constant"
    }
  }
}
layer {
  name: "loss02"
  type: "SoftmaxWithLoss"
  bottom: "predict02"
  bottom: "label02"
  top: "loss02"
}
layer {
  name: "acc02"
  type: "Accuracy"
  bottom: "predict02"
  bottom: "label02"
  top: "acc02"
}
layer {
  name: "predict03"
  type: "InnerProduct"
  bottom: "ip2"
  top: "predict03"
  param {
    lr_mult: 1
  }
  param {
    lr_mult: 2
  }
  inner_product_param {
    num_output: 2
    weight_filler {
      type: "xavier"
    }
    bias_filler {
      type: "constant"
    }
  }
}
layer {
  name: "loss03"
  type: "SoftmaxWithLoss"
  bottom: "predict03"
  bottom: "label03"
  top: "loss03"
}
layer {
  name: "acc03"
  type: "Accuracy"
  bottom: "predict03"
  bottom: "label03"
  top: "acc03"
}
layer {
  name: "predict04"
  type: "InnerProduct"
  bottom: "ip2"
  top: "predict04"
  param {
    lr_mult: 1
  }
  param {
    lr_mult: 2
  }
  inner_product_param {
    num_output: 2
    weight_filler {
      type: "xavier"
    }
    bias_filler {
      type: "constant"
    }
  }
}
layer {
  name: "loss04"
  type: "SoftmaxWithLoss"
  bottom: "predict04"
  bottom: "label04"
  top: "loss04"
}
layer {
  name: "acc04"
  type: "Accuracy"
  bottom: "predict04"
  bottom: "label04"
  top: "acc04"
}
layer {
  name: "predict05"
  type: "InnerProduct"
  bottom: "ip2"
  top: "predict05"
  param {
    lr_mult: 1
  }
  param {
    lr_mult: 2
  }
  inner_product_param {
    num_output: 2
    weight_filler {
      type: "xavier"
    }
    bias_filler {
      type: "constant"
    }
  }
}
layer {
  name: "loss05"
  type: "SoftmaxWithLoss"
  bottom: "predict05"
  bottom: "label05"
  top: "loss05"
}
layer {
  name: "acc05"
  type: "Accuracy"
  bottom: "predict05"
  bottom: "label05"
  top: "acc05"
}
layer {
  name: "predict06"
  type: "InnerProduct"
  bottom: "ip2"
  top: "predict06"
  param {
    lr_mult: 1
  }
  param {
    lr_mult: 2
  }
  inner_product_param {
    num_output: 2
    weight_filler {
      type: "xavier"
    }
    bias_filler {
      type: "constant"
    }
  }
}
layer {
  name: "loss06"
  type: "SoftmaxWithLoss"
  bottom: "predict06"
  bottom: "label06"
  top: "loss06"
}
layer {
  name: "acc06"
  type: "Accuracy"
  bottom: "predict06"
  bottom: "label06"
  top: "acc06"
}
layer {
  name: "predict07"
  type: "InnerProduct"
  bottom: "ip2"
  top: "predict07"
  param {
    lr_mult: 1
  }
  param {
    lr_mult: 2
  }
  inner_product_param {
    num_output: 2
    weight_filler {
      type: "xavier"
    }
    bias_filler {
      type: "constant"
    }
  }
}
layer {
  name: "loss07"
  type: "SoftmaxWithLoss"
  bottom: "predict07"
  bottom: "label07"
  top: "loss07"
}
layer {
  name: "acc07"
  type: "Accuracy"
  bottom: "predict07"
  bottom: "label07"
  top: "acc07"
}
layer {
  name: "predict08"
  type: "InnerProduct"
  bottom: "ip2"
  top: "predict08"
  param {
    lr_mult: 1
  }
  param {
    lr_mult: 2
  }
  inner_product_param {
    num_output: 2
    weight_filler {
      type: "xavier"
    }
    bias_filler {
      type: "constant"
    }
  }
}
layer {
  name: "loss08"
  type: "SoftmaxWithLoss"
  bottom: "predict08"
  bottom: "label08"
  top: "loss08"
}
layer {
  name: "acc08"
  type: "Accuracy"
  bottom: "predict08"
  bottom: "label08"
  top: "acc08"
}
layer {
  name: "predict09"
  type: "InnerProduct"
  bottom: "ip2"
  top: "predict09"
  param {
    lr_mult: 1
  }
  param {
    lr_mult: 2
  }
  inner_product_param {
    num_output: 2
    weight_filler {
      type: "xavier"
    }
    bias_filler {
      type: "constant"
    }
  }
}
layer {
  name: "loss09"
  type: "SoftmaxWithLoss"
  bottom: "predict09"
  bottom: "label09"
  top: "loss09"
}
layer {
  name: "acc09"
  type: "Accuracy"
  bottom: "predict09"
  bottom: "label09"
  top: "acc09"
}
layer {
  name: "predict10"
  type: "InnerProduct"
  bottom: "ip2"
  top: "predict10"
  param {
    lr_mult: 1
  }
  param {
    lr_mult: 2
  }
  inner_product_param {
    num_output: 2
    weight_filler {
      type: "xavier"
    }
    bias_filler {
      type: "constant"
    }
  }
}
layer {
  name: "loss10"
  type: "SoftmaxWithLoss"
  bottom: "predict10"
  bottom: "label10"
  top: "loss10"
}
layer {
  name: "acc10"
  type: "Accuracy"
  bottom: "predict10"
  bottom: "label10"
  top: "acc10"
}
layer {
  name: "predict11"
  type: "InnerProduct"
  bottom: "ip2"
  top: "predict11"
  param {
    lr_mult: 1
  }
  param {
    lr_mult: 2
  }
  inner_product_param {
    num_output: 2
    weight_filler {
      type: "xavier"
    }
    bias_filler {
      type: "constant"
    }
  }
}
layer {
  name: "loss11"
  type: "SoftmaxWithLoss"
  bottom: "predict11"
  bottom: "label11"
  top: "loss11"
}
layer {
  name: "acc11"
  type: "Accuracy"
  bottom: "predict11"
  bottom: "label11"
  top: "acc11"
}
I0411 13:40:00.416843  2936 layer_factory.hpp:77] Creating layer data
I0411 13:40:00.416872  2936 net.cpp:91] Creating Layer data
I0411 13:40:00.416884  2936 net.cpp:399] data -> amsFeatures
I0411 13:40:00.416918  2936 net.cpp:399] data -> ratemap
I0411 13:40:00.416931  2936 net.cpp:399] data -> label
I0411 13:40:00.416949  2936 hdf5_data_layer.cpp:79] Loading list of HDF5 filenames from: /home/jm/data/twoears/clean2/split/twoears_data_train.txt
I0411 13:40:00.433897  2936 hdf5_data_layer.cpp:93] Number of HDF5 files: 7
I0411 13:40:00.435665  2936 hdf5.cpp:32] Datatype class: H5T_FLOAT
I0411 13:40:55.423281  2936 net.cpp:141] Setting up data
I0411 13:40:55.423368  2936 net.cpp:148] Top shape: 128 9 16 63 (1161216)
I0411 13:40:55.423377  2936 net.cpp:148] Top shape: 128 1 16 63 (129024)
I0411 13:40:55.423383  2936 net.cpp:148] Top shape: 128 1 11 1 (1408)
I0411 13:40:55.423388  2936 net.cpp:156] Memory required for data: 5166592
I0411 13:40:55.423400  2936 layer_factory.hpp:77] Creating layer conv1_a
I0411 13:40:55.423431  2936 net.cpp:91] Creating Layer conv1_a
I0411 13:40:55.423440  2936 net.cpp:425] conv1_a <- amsFeatures
I0411 13:40:55.423454  2936 net.cpp:399] conv1_a -> conv1_a
I0411 13:40:55.425420  2936 net.cpp:141] Setting up conv1_a
I0411 13:40:55.425447  2936 net.cpp:148] Top shape: 128 128 9 58 (8552448)
I0411 13:40:55.425453  2936 net.cpp:156] Memory required for data: 39376384
I0411 13:40:55.425482  2936 layer_factory.hpp:77] Creating layer relu1_a
I0411 13:40:55.425494  2936 net.cpp:91] Creating Layer relu1_a
I0411 13:40:55.425500  2936 net.cpp:425] relu1_a <- conv1_a
I0411 13:40:55.425508  2936 net.cpp:386] relu1_a -> conv1_a (in-place)
I0411 13:40:55.425520  2936 net.cpp:141] Setting up relu1_a
I0411 13:40:55.425526  2936 net.cpp:148] Top shape: 128 128 9 58 (8552448)
I0411 13:40:55.425531  2936 net.cpp:156] Memory required for data: 73586176
I0411 13:40:55.425537  2936 layer_factory.hpp:77] Creating layer conv2_a
I0411 13:40:55.425547  2936 net.cpp:91] Creating Layer conv2_a
I0411 13:40:55.425554  2936 net.cpp:425] conv2_a <- conv1_a
I0411 13:40:55.425560  2936 net.cpp:399] conv2_a -> conv2_a
I0411 13:40:55.427186  2936 net.cpp:141] Setting up conv2_a
I0411 13:40:55.427201  2936 net.cpp:148] Top shape: 128 128 7 56 (6422528)
I0411 13:40:55.427206  2936 net.cpp:156] Memory required for data: 99276288
I0411 13:40:55.427217  2936 layer_factory.hpp:77] Creating layer pool2_a
I0411 13:40:55.427227  2936 net.cpp:91] Creating Layer pool2_a
I0411 13:40:55.427232  2936 net.cpp:425] pool2_a <- conv2_a
I0411 13:40:55.427238  2936 net.cpp:399] pool2_a -> pool2_a
I0411 13:40:55.427281  2936 net.cpp:141] Setting up pool2_a
I0411 13:40:55.427297  2936 net.cpp:148] Top shape: 128 128 4 28 (1835008)
I0411 13:40:55.427302  2936 net.cpp:156] Memory required for data: 106616320
I0411 13:40:55.427309  2936 layer_factory.hpp:77] Creating layer relu2_a
I0411 13:40:55.427315  2936 net.cpp:91] Creating Layer relu2_a
I0411 13:40:55.427321  2936 net.cpp:425] relu2_a <- pool2_a
I0411 13:40:55.427327  2936 net.cpp:386] relu2_a -> pool2_a (in-place)
I0411 13:40:55.427335  2936 net.cpp:141] Setting up relu2_a
I0411 13:40:55.427342  2936 net.cpp:148] Top shape: 128 128 4 28 (1835008)
I0411 13:40:55.427346  2936 net.cpp:156] Memory required for data: 113956352
I0411 13:40:55.427352  2936 layer_factory.hpp:77] Creating layer ip2_a
I0411 13:40:55.427366  2936 net.cpp:91] Creating Layer ip2_a
I0411 13:40:55.427371  2936 net.cpp:425] ip2_a <- pool2_a
I0411 13:40:55.427377  2936 net.cpp:399] ip2_a -> ip2_a
I0411 13:40:55.459594  2936 net.cpp:141] Setting up ip2_a
I0411 13:40:55.459635  2936 net.cpp:148] Top shape: 128 256 (32768)
I0411 13:40:55.459642  2936 net.cpp:156] Memory required for data: 114087424
I0411 13:40:55.459661  2936 layer_factory.hpp:77] Creating layer conv1_r
I0411 13:40:55.459678  2936 net.cpp:91] Creating Layer conv1_r
I0411 13:40:55.459686  2936 net.cpp:425] conv1_r <- ratemap
I0411 13:40:55.459699  2936 net.cpp:399] conv1_r -> conv1_r
I0411 13:40:55.460525  2936 net.cpp:141] Setting up conv1_r
I0411 13:40:55.460552  2936 net.cpp:148] Top shape: 128 128 9 58 (8552448)
I0411 13:40:55.460569  2936 net.cpp:156] Memory required for data: 148297216
I0411 13:40:55.460578  2936 layer_factory.hpp:77] Creating layer relu1_r
I0411 13:40:55.460589  2936 net.cpp:91] Creating Layer relu1_r
I0411 13:40:55.460595  2936 net.cpp:425] relu1_r <- conv1_r
I0411 13:40:55.460603  2936 net.cpp:386] relu1_r -> conv1_r (in-place)
I0411 13:40:55.460613  2936 net.cpp:141] Setting up relu1_r
I0411 13:40:55.460620  2936 net.cpp:148] Top shape: 128 128 9 58 (8552448)
I0411 13:40:55.460625  2936 net.cpp:156] Memory required for data: 182507008
I0411 13:40:55.460630  2936 layer_factory.hpp:77] Creating layer conv2_r
I0411 13:40:55.460680  2936 net.cpp:91] Creating Layer conv2_r
I0411 13:40:55.460687  2936 net.cpp:425] conv2_r <- conv1_r
I0411 13:40:55.460695  2936 net.cpp:399] conv2_r -> conv2_r
I0411 13:40:55.462385  2936 net.cpp:141] Setting up conv2_r
I0411 13:40:55.462412  2936 net.cpp:148] Top shape: 128 128 7 56 (6422528)
I0411 13:40:55.462419  2936 net.cpp:156] Memory required for data: 208197120
I0411 13:40:55.462430  2936 layer_factory.hpp:77] Creating layer pool2_r
I0411 13:40:55.462440  2936 net.cpp:91] Creating Layer pool2_r
I0411 13:40:55.462446  2936 net.cpp:425] pool2_r <- conv2_r
I0411 13:40:55.462455  2936 net.cpp:399] pool2_r -> pool2_r
I0411 13:40:55.462489  2936 net.cpp:141] Setting up pool2_r
I0411 13:40:55.462507  2936 net.cpp:148] Top shape: 128 128 4 28 (1835008)
I0411 13:40:55.462513  2936 net.cpp:156] Memory required for data: 215537152
I0411 13:40:55.462518  2936 layer_factory.hpp:77] Creating layer relu2_r
I0411 13:40:55.462525  2936 net.cpp:91] Creating Layer relu2_r
I0411 13:40:55.462532  2936 net.cpp:425] relu2_r <- pool2_r
I0411 13:40:55.462538  2936 net.cpp:386] relu2_r -> pool2_r (in-place)
I0411 13:40:55.462546  2936 net.cpp:141] Setting up relu2_r
I0411 13:40:55.462553  2936 net.cpp:148] Top shape: 128 128 4 28 (1835008)
I0411 13:40:55.462558  2936 net.cpp:156] Memory required for data: 222877184
I0411 13:40:55.462563  2936 layer_factory.hpp:77] Creating layer ip2_r
I0411 13:40:55.462574  2936 net.cpp:91] Creating Layer ip2_r
I0411 13:40:55.462580  2936 net.cpp:425] ip2_r <- pool2_r
I0411 13:40:55.462589  2936 net.cpp:399] ip2_r -> ip2_r
I0411 13:40:55.495136  2936 net.cpp:141] Setting up ip2_r
I0411 13:40:55.495175  2936 net.cpp:148] Top shape: 128 256 (32768)
I0411 13:40:55.495182  2936 net.cpp:156] Memory required for data: 223008256
I0411 13:40:55.495198  2936 layer_factory.hpp:77] Creating layer concat_ar
I0411 13:40:55.495215  2936 net.cpp:91] Creating Layer concat_ar
I0411 13:40:55.495223  2936 net.cpp:425] concat_ar <- ip2_a
I0411 13:40:55.495232  2936 net.cpp:425] concat_ar <- ip2_r
I0411 13:40:55.495240  2936 net.cpp:399] concat_ar -> ip2
I0411 13:40:55.495270  2936 net.cpp:141] Setting up concat_ar
I0411 13:40:55.495290  2936 net.cpp:148] Top shape: 128 512 (65536)
I0411 13:40:55.495296  2936 net.cpp:156] Memory required for data: 223270400
I0411 13:40:55.495301  2936 layer_factory.hpp:77] Creating layer relu2
I0411 13:40:55.495309  2936 net.cpp:91] Creating Layer relu2
I0411 13:40:55.495314  2936 net.cpp:425] relu2 <- ip2
I0411 13:40:55.495322  2936 net.cpp:386] relu2 -> ip2 (in-place)
I0411 13:40:55.495332  2936 net.cpp:141] Setting up relu2
I0411 13:40:55.495337  2936 net.cpp:148] Top shape: 128 512 (65536)
I0411 13:40:55.495342  2936 net.cpp:156] Memory required for data: 223532544
I0411 13:40:55.495347  2936 layer_factory.hpp:77] Creating layer dropip2
I0411 13:40:55.495360  2936 net.cpp:91] Creating Layer dropip2
I0411 13:40:55.495367  2936 net.cpp:425] dropip2 <- ip2
I0411 13:40:55.495373  2936 net.cpp:386] dropip2 -> ip2 (in-place)
I0411 13:40:55.495399  2936 net.cpp:141] Setting up dropip2
I0411 13:40:55.495415  2936 net.cpp:148] Top shape: 128 512 (65536)
I0411 13:40:55.495421  2936 net.cpp:156] Memory required for data: 223794688
I0411 13:40:55.495426  2936 layer_factory.hpp:77] Creating layer ip2_dropip2_0_split
I0411 13:40:55.495440  2936 net.cpp:91] Creating Layer ip2_dropip2_0_split
I0411 13:40:55.495445  2936 net.cpp:425] ip2_dropip2_0_split <- ip2
I0411 13:40:55.495453  2936 net.cpp:399] ip2_dropip2_0_split -> ip2_dropip2_0_split_0
I0411 13:40:55.495462  2936 net.cpp:399] ip2_dropip2_0_split -> ip2_dropip2_0_split_1
I0411 13:40:55.495472  2936 net.cpp:399] ip2_dropip2_0_split -> ip2_dropip2_0_split_2
I0411 13:40:55.495481  2936 net.cpp:399] ip2_dropip2_0_split -> ip2_dropip2_0_split_3
I0411 13:40:55.495489  2936 net.cpp:399] ip2_dropip2_0_split -> ip2_dropip2_0_split_4
I0411 13:40:55.495499  2936 net.cpp:399] ip2_dropip2_0_split -> ip2_dropip2_0_split_5
I0411 13:40:55.495507  2936 net.cpp:399] ip2_dropip2_0_split -> ip2_dropip2_0_split_6
I0411 13:40:55.495515  2936 net.cpp:399] ip2_dropip2_0_split -> ip2_dropip2_0_split_7
I0411 13:40:55.495548  2936 net.cpp:399] ip2_dropip2_0_split -> ip2_dropip2_0_split_8
I0411 13:40:55.495558  2936 net.cpp:399] ip2_dropip2_0_split -> ip2_dropip2_0_split_9
I0411 13:40:55.495565  2936 net.cpp:399] ip2_dropip2_0_split -> ip2_dropip2_0_split_10
I0411 13:40:55.495678  2936 net.cpp:141] Setting up ip2_dropip2_0_split
I0411 13:40:55.495689  2936 net.cpp:148] Top shape: 128 512 (65536)
I0411 13:40:55.495695  2936 net.cpp:148] Top shape: 128 512 (65536)
I0411 13:40:55.495700  2936 net.cpp:148] Top shape: 128 512 (65536)
I0411 13:40:55.495707  2936 net.cpp:148] Top shape: 128 512 (65536)
I0411 13:40:55.495712  2936 net.cpp:148] Top shape: 128 512 (65536)
I0411 13:40:55.495718  2936 net.cpp:148] Top shape: 128 512 (65536)
I0411 13:40:55.495723  2936 net.cpp:148] Top shape: 128 512 (65536)
I0411 13:40:55.495729  2936 net.cpp:148] Top shape: 128 512 (65536)
I0411 13:40:55.495734  2936 net.cpp:148] Top shape: 128 512 (65536)
I0411 13:40:55.495740  2936 net.cpp:148] Top shape: 128 512 (65536)
I0411 13:40:55.495745  2936 net.cpp:148] Top shape: 128 512 (65536)
I0411 13:40:55.495753  2936 net.cpp:156] Memory required for data: 226678272
I0411 13:40:55.495757  2936 layer_factory.hpp:77] Creating layer label_split
I0411 13:40:55.495770  2936 net.cpp:91] Creating Layer label_split
I0411 13:40:55.495777  2936 net.cpp:425] label_split <- label
I0411 13:40:55.495785  2936 net.cpp:399] label_split -> label01
I0411 13:40:55.495796  2936 net.cpp:399] label_split -> label02
I0411 13:40:55.495805  2936 net.cpp:399] label_split -> label03
I0411 13:40:55.495813  2936 net.cpp:399] label_split -> label04
I0411 13:40:55.495820  2936 net.cpp:399] label_split -> label05
I0411 13:40:55.495828  2936 net.cpp:399] label_split -> label06
I0411 13:40:55.495836  2936 net.cpp:399] label_split -> label07
I0411 13:40:55.495843  2936 net.cpp:399] label_split -> label08
I0411 13:40:55.495851  2936 net.cpp:399] label_split -> label09
I0411 13:40:55.495858  2936 net.cpp:399] label_split -> label10
I0411 13:40:55.495868  2936 net.cpp:399] label_split -> label11
I0411 13:40:55.495980  2936 net.cpp:141] Setting up label_split
I0411 13:40:55.495990  2936 net.cpp:148] Top shape: 128 1 1 1 (128)
I0411 13:40:55.495995  2936 net.cpp:148] Top shape: 128 1 1 1 (128)
I0411 13:40:55.496001  2936 net.cpp:148] Top shape: 128 1 1 1 (128)
I0411 13:40:55.496006  2936 net.cpp:148] Top shape: 128 1 1 1 (128)
I0411 13:40:55.496011  2936 net.cpp:148] Top shape: 128 1 1 1 (128)
I0411 13:40:55.496016  2936 net.cpp:148] Top shape: 128 1 1 1 (128)
I0411 13:40:55.496021  2936 net.cpp:148] Top shape: 128 1 1 1 (128)
I0411 13:40:55.496026  2936 net.cpp:148] Top shape: 128 1 1 1 (128)
I0411 13:40:55.496032  2936 net.cpp:148] Top shape: 128 1 1 1 (128)
I0411 13:40:55.496049  2936 net.cpp:148] Top shape: 128 1 1 1 (128)
I0411 13:40:55.496055  2936 net.cpp:148] Top shape: 128 1 1 1 (128)
I0411 13:40:55.496060  2936 net.cpp:156] Memory required for data: 226683904
I0411 13:40:55.496065  2936 layer_factory.hpp:77] Creating layer label01_label_split_0_split
I0411 13:40:55.496073  2936 net.cpp:91] Creating Layer label01_label_split_0_split
I0411 13:40:55.496078  2936 net.cpp:425] label01_label_split_0_split <- label01
I0411 13:40:55.496085  2936 net.cpp:399] label01_label_split_0_split -> label01_label_split_0_split_0
I0411 13:40:55.496095  2936 net.cpp:399] label01_label_split_0_split -> label01_label_split_0_split_1
I0411 13:40:55.496134  2936 net.cpp:141] Setting up label01_label_split_0_split
I0411 13:40:55.496142  2936 net.cpp:148] Top shape: 128 1 1 1 (128)
I0411 13:40:55.496147  2936 net.cpp:148] Top shape: 128 1 1 1 (128)
I0411 13:40:55.496152  2936 net.cpp:156] Memory required for data: 226684928
I0411 13:40:55.496158  2936 layer_factory.hpp:77] Creating layer label02_label_split_1_split
I0411 13:40:55.496168  2936 net.cpp:91] Creating Layer label02_label_split_1_split
I0411 13:40:55.496175  2936 net.cpp:425] label02_label_split_1_split <- label02
I0411 13:40:55.496181  2936 net.cpp:399] label02_label_split_1_split -> label02_label_split_1_split_0
I0411 13:40:55.496197  2936 net.cpp:399] label02_label_split_1_split -> label02_label_split_1_split_1
I0411 13:40:55.496228  2936 net.cpp:141] Setting up label02_label_split_1_split
I0411 13:40:55.496237  2936 net.cpp:148] Top shape: 128 1 1 1 (128)
I0411 13:40:55.496242  2936 net.cpp:148] Top shape: 128 1 1 1 (128)
I0411 13:40:55.496246  2936 net.cpp:156] Memory required for data: 226685952
I0411 13:40:55.496251  2936 layer_factory.hpp:77] Creating layer label03_label_split_2_split
I0411 13:40:55.496258  2936 net.cpp:91] Creating Layer label03_label_split_2_split
I0411 13:40:55.496263  2936 net.cpp:425] label03_label_split_2_split <- label03
I0411 13:40:55.496271  2936 net.cpp:399] label03_label_split_2_split -> label03_label_split_2_split_0
I0411 13:40:55.496279  2936 net.cpp:399] label03_label_split_2_split -> label03_label_split_2_split_1
I0411 13:40:55.496306  2936 net.cpp:141] Setting up label03_label_split_2_split
I0411 13:40:55.496314  2936 net.cpp:148] Top shape: 128 1 1 1 (128)
I0411 13:40:55.496318  2936 net.cpp:148] Top shape: 128 1 1 1 (128)
I0411 13:40:55.496323  2936 net.cpp:156] Memory required for data: 226686976
I0411 13:40:55.496328  2936 layer_factory.hpp:77] Creating layer label04_label_split_3_split
I0411 13:40:55.496336  2936 net.cpp:91] Creating Layer label04_label_split_3_split
I0411 13:40:55.496341  2936 net.cpp:425] label04_label_split_3_split <- label04
I0411 13:40:55.496347  2936 net.cpp:399] label04_label_split_3_split -> label04_label_split_3_split_0
I0411 13:40:55.496356  2936 net.cpp:399] label04_label_split_3_split -> label04_label_split_3_split_1
I0411 13:40:55.496386  2936 net.cpp:141] Setting up label04_label_split_3_split
I0411 13:40:55.496392  2936 net.cpp:148] Top shape: 128 1 1 1 (128)
I0411 13:40:55.496398  2936 net.cpp:148] Top shape: 128 1 1 1 (128)
I0411 13:40:55.496412  2936 net.cpp:156] Memory required for data: 226688000
I0411 13:40:55.496417  2936 layer_factory.hpp:77] Creating layer label05_label_split_4_split
I0411 13:40:55.496423  2936 net.cpp:91] Creating Layer label05_label_split_4_split
I0411 13:40:55.496428  2936 net.cpp:425] label05_label_split_4_split <- label05
I0411 13:40:55.496433  2936 net.cpp:399] label05_label_split_4_split -> label05_label_split_4_split_0
I0411 13:40:55.496440  2936 net.cpp:399] label05_label_split_4_split -> label05_label_split_4_split_1
I0411 13:40:55.496466  2936 net.cpp:141] Setting up label05_label_split_4_split
I0411 13:40:55.496474  2936 net.cpp:148] Top shape: 128 1 1 1 (128)
I0411 13:40:55.496479  2936 net.cpp:148] Top shape: 128 1 1 1 (128)
I0411 13:40:55.496484  2936 net.cpp:156] Memory required for data: 226689024
I0411 13:40:55.496489  2936 layer_factory.hpp:77] Creating layer label06_label_split_5_split
I0411 13:40:55.496495  2936 net.cpp:91] Creating Layer label06_label_split_5_split
I0411 13:40:55.496500  2936 net.cpp:425] label06_label_split_5_split <- label06
I0411 13:40:55.496505  2936 net.cpp:399] label06_label_split_5_split -> label06_label_split_5_split_0
I0411 13:40:55.496512  2936 net.cpp:399] label06_label_split_5_split -> label06_label_split_5_split_1
I0411 13:40:55.496538  2936 net.cpp:141] Setting up label06_label_split_5_split
I0411 13:40:55.496549  2936 net.cpp:148] Top shape: 128 1 1 1 (128)
I0411 13:40:55.496554  2936 net.cpp:148] Top shape: 128 1 1 1 (128)
I0411 13:40:55.496559  2936 net.cpp:156] Memory required for data: 226690048
I0411 13:40:55.496563  2936 layer_factory.hpp:77] Creating layer label07_label_split_6_split
I0411 13:40:55.496569  2936 net.cpp:91] Creating Layer label07_label_split_6_split
I0411 13:40:55.496574  2936 net.cpp:425] label07_label_split_6_split <- label07
I0411 13:40:55.496582  2936 net.cpp:399] label07_label_split_6_split -> label07_label_split_6_split_0
I0411 13:40:55.496589  2936 net.cpp:399] label07_label_split_6_split -> label07_label_split_6_split_1
I0411 13:40:55.496615  2936 net.cpp:141] Setting up label07_label_split_6_split
I0411 13:40:55.496623  2936 net.cpp:148] Top shape: 128 1 1 1 (128)
I0411 13:40:55.496628  2936 net.cpp:148] Top shape: 128 1 1 1 (128)
I0411 13:40:55.496640  2936 net.cpp:156] Memory required for data: 226691072
I0411 13:40:55.496645  2936 layer_factory.hpp:77] Creating layer label08_label_split_7_split
I0411 13:40:55.496651  2936 net.cpp:91] Creating Layer label08_label_split_7_split
I0411 13:40:55.496656  2936 net.cpp:425] label08_label_split_7_split <- label08
I0411 13:40:55.496662  2936 net.cpp:399] label08_label_split_7_split -> label08_label_split_7_split_0
I0411 13:40:55.496670  2936 net.cpp:399] label08_label_split_7_split -> label08_label_split_7_split_1
I0411 13:40:55.496696  2936 net.cpp:141] Setting up label08_label_split_7_split
I0411 13:40:55.496703  2936 net.cpp:148] Top shape: 128 1 1 1 (128)
I0411 13:40:55.496708  2936 net.cpp:148] Top shape: 128 1 1 1 (128)
I0411 13:40:55.496712  2936 net.cpp:156] Memory required for data: 226692096
I0411 13:40:55.496716  2936 layer_factory.hpp:77] Creating layer label09_label_split_8_split
I0411 13:40:55.496722  2936 net.cpp:91] Creating Layer label09_label_split_8_split
I0411 13:40:55.496727  2936 net.cpp:425] label09_label_split_8_split <- label09
I0411 13:40:55.496733  2936 net.cpp:399] label09_label_split_8_split -> label09_label_split_8_split_0
I0411 13:40:55.496740  2936 net.cpp:399] label09_label_split_8_split -> label09_label_split_8_split_1
I0411 13:40:55.496767  2936 net.cpp:141] Setting up label09_label_split_8_split
I0411 13:40:55.496774  2936 net.cpp:148] Top shape: 128 1 1 1 (128)
I0411 13:40:55.496780  2936 net.cpp:148] Top shape: 128 1 1 1 (128)
I0411 13:40:55.496784  2936 net.cpp:156] Memory required for data: 226693120
I0411 13:40:55.496789  2936 layer_factory.hpp:77] Creating layer label10_label_split_9_split
I0411 13:40:55.496795  2936 net.cpp:91] Creating Layer label10_label_split_9_split
I0411 13:40:55.496800  2936 net.cpp:425] label10_label_split_9_split <- label10
I0411 13:40:55.496809  2936 net.cpp:399] label10_label_split_9_split -> label10_label_split_9_split_0
I0411 13:40:55.496816  2936 net.cpp:399] label10_label_split_9_split -> label10_label_split_9_split_1
I0411 13:40:55.496841  2936 net.cpp:141] Setting up label10_label_split_9_split
I0411 13:40:55.496848  2936 net.cpp:148] Top shape: 128 1 1 1 (128)
I0411 13:40:55.496853  2936 net.cpp:148] Top shape: 128 1 1 1 (128)
I0411 13:40:55.496857  2936 net.cpp:156] Memory required for data: 226694144
I0411 13:40:55.496862  2936 layer_factory.hpp:77] Creating layer label11_label_split_10_split
I0411 13:40:55.496870  2936 net.cpp:91] Creating Layer label11_label_split_10_split
I0411 13:40:55.496875  2936 net.cpp:425] label11_label_split_10_split <- label11
I0411 13:40:55.496881  2936 net.cpp:399] label11_label_split_10_split -> label11_label_split_10_split_0
I0411 13:40:55.496888  2936 net.cpp:399] label11_label_split_10_split -> label11_label_split_10_split_1
I0411 13:40:55.496913  2936 net.cpp:141] Setting up label11_label_split_10_split
I0411 13:40:55.496920  2936 net.cpp:148] Top shape: 128 1 1 1 (128)
I0411 13:40:55.496925  2936 net.cpp:148] Top shape: 128 1 1 1 (128)
I0411 13:40:55.496930  2936 net.cpp:156] Memory required for data: 226695168
I0411 13:40:55.496934  2936 layer_factory.hpp:77] Creating layer predict01
I0411 13:40:55.496943  2936 net.cpp:91] Creating Layer predict01
I0411 13:40:55.496949  2936 net.cpp:425] predict01 <- ip2_dropip2_0_split_0
I0411 13:40:55.496956  2936 net.cpp:399] predict01 -> predict01
I0411 13:40:55.497048  2936 net.cpp:141] Setting up predict01
I0411 13:40:55.497056  2936 net.cpp:148] Top shape: 128 2 (256)
I0411 13:40:55.497061  2936 net.cpp:156] Memory required for data: 226696192
I0411 13:40:55.497067  2936 layer_factory.hpp:77] Creating layer predict01_predict01_0_split
I0411 13:40:55.497076  2936 net.cpp:91] Creating Layer predict01_predict01_0_split
I0411 13:40:55.497081  2936 net.cpp:425] predict01_predict01_0_split <- predict01
I0411 13:40:55.497087  2936 net.cpp:399] predict01_predict01_0_split -> predict01_predict01_0_split_0
I0411 13:40:55.497095  2936 net.cpp:399] predict01_predict01_0_split -> predict01_predict01_0_split_1
I0411 13:40:55.497118  2936 net.cpp:141] Setting up predict01_predict01_0_split
I0411 13:40:55.497134  2936 net.cpp:148] Top shape: 128 2 (256)
I0411 13:40:55.497139  2936 net.cpp:148] Top shape: 128 2 (256)
I0411 13:40:55.497143  2936 net.cpp:156] Memory required for data: 226698240
I0411 13:40:55.497148  2936 layer_factory.hpp:77] Creating layer loss01
I0411 13:40:55.497159  2936 net.cpp:91] Creating Layer loss01
I0411 13:40:55.497164  2936 net.cpp:425] loss01 <- predict01_predict01_0_split_0
I0411 13:40:55.497170  2936 net.cpp:425] loss01 <- label01_label_split_0_split_0
I0411 13:40:55.497177  2936 net.cpp:399] loss01 -> loss01
…
