…
I0525 11:24:14.489449 15746 solver.cpp:91] Creating training net from net file: /mnt/antares_raid/home/cindy/adhara/experiments/s2/train_val.prototxt
I0525 11:24:14.490931 15746 net.cpp:313] The NetState phase (0) differed from the phase (1) specified by a rule in layer data
I0525 11:24:14.491201 15746 net.cpp:49] Initializing net from parameters: 
name: "SoundNet"
state {
  phase: TRAIN
}
layer {
  name: "data"
  type: "HDF5Data"
  top: "amsFeatures"
  top: "ratemap"
  top: "label"
  include {
    phase: TRAIN
  }
  hdf5_data_param {
    source: "/mnt/antares_raid/home/cindy/adhara/experiments/twoears_data_train.txt"
    batch_size: 128
  }
}
layer {
  name: "ratemap"
  type: "Python"
  bottom: "ratemap"
  top: "ratemap"
  include {
    phase: TRAIN
  }
  python_param {
    module: "nideep.layers.jitterlayer"
    layer: "JitterLayer"
    param_str: "{\'min_shift_f\':-8,\'max_shift_f\':8,\'min_shift_t\':-40,\'max_shift_t\':40}"
  }
}
layer {
  name: "amsFeatures"
  type: "Python"
  bottom: "amsFeatures"
  top: "amsFeatures"
  include {
    phase: TRAIN
  }
  python_param {
    module: "nideep.layers.jitterlayer"
    layer: "JitterLayer"
    param_str: "{\'min_shift_f\':-8,\'max_shift_f\':8,\'min_shift_t\':-40,\'max_shift_t\':40}"
  }
}
layer {
  name: "conv1_a"
  type: "Convolution"
  bottom: "amsFeatures"
  top: "conv1_a"
  param {
    lr_mult: 1
    decay_mult: 1
  }
  param {
    lr_mult: 2
    decay_mult: 0
  }
  convolution_param {
    num_output: 128
    stride: 1
    weight_filler {
      type: "xavier"
    }
    bias_filler {
      type: "constant"
    }
    kernel_h: 8
    kernel_w: 6
  }
}
layer {
  name: "relu1_a"
  type: "ReLU"
  bottom: "conv1_a"
  top: "conv1_a"
}
layer {
  name: "conv2_a"
  type: "Convolution"
  bottom: "conv1_a"
  top: "conv2_a"
  param {
    lr_mult: 1
    decay_mult: 1
  }
  param {
    lr_mult: 2
    decay_mult: 0
  }
  convolution_param {
    num_output: 128
    stride: 1
    weight_filler {
      type: "xavier"
    }
    bias_filler {
      type: "constant"
    }
    kernel_h: 3
    kernel_w: 3
  }
}
layer {
  name: "pool2_a"
  type: "Pooling"
  bottom: "conv2_a"
  top: "pool2_a"
  pooling_param {
    pool: MAX
    kernel_size: 2
    stride: 2
  }
}
layer {
  name: "relu2_a"
  type: "ReLU"
  bottom: "pool2_a"
  top: "pool2_a"
}
layer {
  name: "ip2_a"
  type: "InnerProduct"
  bottom: "pool2_a"
  top: "ip2_a"
  param {
    lr_mult: 1
  }
  param {
    lr_mult: 2
  }
  inner_product_param {
    num_output: 256
    weight_filler {
      type: "xavier"
    }
    bias_filler {
      type: "constant"
    }
  }
}
layer {
  name: "conv1_r"
  type: "Convolution"
  bottom: "ratemap"
  top: "conv1_r"
  param {
    lr_mult: 1
    decay_mult: 1
  }
  param {
    lr_mult: 2
    decay_mult: 0
  }
  convolution_param {
    num_output: 128
    stride: 1
    weight_filler {
      type: "xavier"
    }
    bias_filler {
      type: "constant"
    }
    kernel_h: 8
    kernel_w: 6
  }
}
layer {
  name: "relu1_r"
  type: "ReLU"
  bottom: "conv1_r"
  top: "conv1_r"
}
layer {
  name: "conv2_r"
  type: "Convolution"
  bottom: "conv1_r"
  top: "conv2_r"
  param {
    lr_mult: 1
    decay_mult: 1
  }
  param {
    lr_mult: 2
    decay_mult: 0
  }
  convolution_param {
    num_output: 128
    stride: 1
    weight_filler {
      type: "xavier"
    }
    bias_filler {
      type: "constant"
    }
    kernel_h: 3
    kernel_w: 3
  }
}
layer {
  name: "pool2_r"
  type: "Pooling"
  bottom: "conv2_r"
  top: "pool2_r"
  pooling_param {
    pool: MAX
    kernel_size: 2
    stride: 2
  }
}
layer {
  name: "relu2_r"
  type: "ReLU"
  bottom: "pool2_r"
  top: "pool2_r"
}
layer {
  name: "ip2_r"
  type: "InnerProduct"
  bottom: "pool2_r"
  top: "ip2_r"
  param {
    lr_mult: 1
  }
  param {
    lr_mult: 2
  }
  inner_product_param {
    num_output: 256
    weight_filler {
      type: "xavier"
    }
    bias_filler {
      type: "constant"
    }
  }
}
layer {
  name: "concat_ar"
  type: "Concat"
  bottom: "ip2_a"
  bottom: "ip2_r"
  top: "ip2"
  concat_param {
    axis: 1
  }
}
layer {
  name: "relu2"
  type: "ReLU"
  bottom: "ip2"
  top: "ip2"
}
layer {
  name: "dropip2"
  type: "Dropout"
  bottom: "ip2"
  top: "ip2"
  dropout_param {
    dropout_ratio: 0.5
  }
}
layer {
  name: "ip3"
  type: "InnerProduct"
  bottom: "ip2"
  top: "ip3"
  param {
    lr_mult: 1
  }
  param {
    lr_mult: 2
  }
  inner_product_param {
    num_output: 11
    weight_filler {
      type: "xavier"
    }
    bias_filler {
      type: "constant"
    }
  }
}
layer {
  name: "loss"
  type: "SigmoidCrossEntropyLoss"
  bottom: "ip3"
  bottom: "label"
  top: "loss"
}
I0525 11:24:14.492539 15746 layer_factory.hpp:77] Creating layer data
I0525 11:24:14.492586 15746 net.cpp:91] Creating Layer data
I0525 11:24:14.492619 15746 net.cpp:399] data -> amsFeatures
I0525 11:24:14.492691 15746 net.cpp:399] data -> ratemap
I0525 11:24:14.492720 15746 net.cpp:399] data -> label
I0525 11:24:14.492753 15746 hdf5_data_layer.cpp:79] Loading list of HDF5 filenames from: /mnt/antares_raid/home/cindy/adhara/experiments/twoears_data_train.txt
I0525 11:24:14.493324 15746 hdf5_data_layer.cpp:93] Number of HDF5 files: 5
I0525 11:24:14.495903 15746 hdf5.cpp:32] Datatype class: H5T_FLOAT
I0525 11:24:19.530319 15746 net.cpp:141] Setting up data
I0525 11:24:19.530369 15746 net.cpp:148] Top shape: 128 9 16 63 (1161216)
I0525 11:24:19.530377 15746 net.cpp:148] Top shape: 128 1 16 63 (129024)
I0525 11:24:19.530385 15746 net.cpp:148] Top shape: 128 1 11 1 (1408)
I0525 11:24:19.530390 15746 net.cpp:156] Memory required for data: 5166592
I0525 11:24:19.530405 15746 layer_factory.hpp:77] Creating layer ratemap
I0525 11:24:20.079596 15746 net.cpp:91] Creating Layer ratemap
I0525 11:24:20.079638 15746 net.cpp:425] ratemap <- ratemap
I0525 11:24:20.079660 15746 net.cpp:386] ratemap -> ratemap (in-place)
I0525 11:24:20.080786 15746 net.cpp:141] Setting up ratemap
I0525 11:24:20.080811 15746 net.cpp:148] Top shape: 128 1 16 63 (129024)
I0525 11:24:20.080821 15746 net.cpp:156] Memory required for data: 5682688
I0525 11:24:20.080832 15746 layer_factory.hpp:77] Creating layer amsFeatures
I0525 11:24:20.080873 15746 net.cpp:91] Creating Layer amsFeatures
I0525 11:24:20.080884 15746 net.cpp:425] amsFeatures <- amsFeatures
I0525 11:24:20.080895 15746 net.cpp:386] amsFeatures -> amsFeatures (in-place)
I0525 11:24:20.084100 15746 net.cpp:141] Setting up amsFeatures
I0525 11:24:20.084122 15746 net.cpp:148] Top shape: 128 9 16 63 (1161216)
I0525 11:24:20.084131 15746 net.cpp:156] Memory required for data: 10327552
I0525 11:24:20.084138 15746 layer_factory.hpp:77] Creating layer conv1_a
I0525 11:24:20.084169 15746 net.cpp:91] Creating Layer conv1_a
I0525 11:24:20.084178 15746 net.cpp:425] conv1_a <- amsFeatures
I0525 11:24:20.084190 15746 net.cpp:399] conv1_a -> conv1_a
I0525 11:24:20.087026 15746 net.cpp:141] Setting up conv1_a
I0525 11:24:20.087049 15746 net.cpp:148] Top shape: 128 128 9 58 (8552448)
I0525 11:24:20.087057 15746 net.cpp:156] Memory required for data: 44537344
I0525 11:24:20.087082 15746 layer_factory.hpp:77] Creating layer relu1_a
I0525 11:24:20.087096 15746 net.cpp:91] Creating Layer relu1_a
I0525 11:24:20.087105 15746 net.cpp:425] relu1_a <- conv1_a
I0525 11:24:20.087116 15746 net.cpp:386] relu1_a -> conv1_a (in-place)
I0525 11:24:20.087131 15746 net.cpp:141] Setting up relu1_a
I0525 11:24:20.087141 15746 net.cpp:148] Top shape: 128 128 9 58 (8552448)
I0525 11:24:20.087147 15746 net.cpp:156] Memory required for data: 78747136
I0525 11:24:20.087154 15746 layer_factory.hpp:77] Creating layer conv2_a
I0525 11:24:20.087180 15746 net.cpp:91] Creating Layer conv2_a
I0525 11:24:20.087189 15746 net.cpp:425] conv2_a <- conv1_a
I0525 11:24:20.087204 15746 net.cpp:399] conv2_a -> conv2_a
I0525 11:24:20.089592 15746 net.cpp:141] Setting up conv2_a
I0525 11:24:20.089614 15746 net.cpp:148] Top shape: 128 128 7 56 (6422528)
I0525 11:24:20.089623 15746 net.cpp:156] Memory required for data: 104437248
I0525 11:24:20.089637 15746 layer_factory.hpp:77] Creating layer pool2_a
I0525 11:24:20.089653 15746 net.cpp:91] Creating Layer pool2_a
I0525 11:24:20.089660 15746 net.cpp:425] pool2_a <- conv2_a
I0525 11:24:20.089671 15746 net.cpp:399] pool2_a -> pool2_a
I0525 11:24:20.089733 15746 net.cpp:141] Setting up pool2_a
I0525 11:24:20.089746 15746 net.cpp:148] Top shape: 128 128 4 28 (1835008)
I0525 11:24:20.089753 15746 net.cpp:156] Memory required for data: 111777280
I0525 11:24:20.089761 15746 layer_factory.hpp:77] Creating layer relu2_a
I0525 11:24:20.089771 15746 net.cpp:91] Creating Layer relu2_a
I0525 11:24:20.089778 15746 net.cpp:425] relu2_a <- pool2_a
I0525 11:24:20.089787 15746 net.cpp:386] relu2_a -> pool2_a (in-place)
I0525 11:24:20.089798 15746 net.cpp:141] Setting up relu2_a
I0525 11:24:20.089807 15746 net.cpp:148] Top shape: 128 128 4 28 (1835008)
I0525 11:24:20.089814 15746 net.cpp:156] Memory required for data: 119117312
I0525 11:24:20.089820 15746 layer_factory.hpp:77] Creating layer ip2_a
I0525 11:24:20.089841 15746 net.cpp:91] Creating Layer ip2_a
I0525 11:24:20.089849 15746 net.cpp:425] ip2_a <- pool2_a
I0525 11:24:20.089860 15746 net.cpp:399] ip2_a -> ip2_a
I0525 11:24:20.132553 15746 net.cpp:141] Setting up ip2_a
I0525 11:24:20.132581 15746 net.cpp:148] Top shape: 128 256 (32768)
I0525 11:24:20.132589 15746 net.cpp:156] Memory required for data: 119248384
I0525 11:24:20.132606 15746 layer_factory.hpp:77] Creating layer conv1_r
I0525 11:24:20.132627 15746 net.cpp:91] Creating Layer conv1_r
I0525 11:24:20.132635 15746 net.cpp:425] conv1_r <- ratemap
I0525 11:24:20.132648 15746 net.cpp:399] conv1_r -> conv1_r
I0525 11:24:20.133687 15746 net.cpp:141] Setting up conv1_r
I0525 11:24:20.133708 15746 net.cpp:148] Top shape: 128 128 9 58 (8552448)
I0525 11:24:20.133715 15746 net.cpp:156] Memory required for data: 153458176
I0525 11:24:20.133726 15746 layer_factory.hpp:77] Creating layer relu1_r
I0525 11:24:20.133738 15746 net.cpp:91] Creating Layer relu1_r
I0525 11:24:20.133746 15746 net.cpp:425] relu1_r <- conv1_r
I0525 11:24:20.133755 15746 net.cpp:386] relu1_r -> conv1_r (in-place)
I0525 11:24:20.133769 15746 net.cpp:141] Setting up relu1_r
I0525 11:24:20.133776 15746 net.cpp:148] Top shape: 128 128 9 58 (8552448)
I0525 11:24:20.133782 15746 net.cpp:156] Memory required for data: 187667968
I0525 11:24:20.133790 15746 layer_factory.hpp:77] Creating layer conv2_r
I0525 11:24:20.133806 15746 net.cpp:91] Creating Layer conv2_r
I0525 11:24:20.133813 15746 net.cpp:425] conv2_r <- conv1_r
I0525 11:24:20.133826 15746 net.cpp:399] conv2_r -> conv2_r
I0525 11:24:20.136103 15746 net.cpp:141] Setting up conv2_r
I0525 11:24:20.136124 15746 net.cpp:148] Top shape: 128 128 7 56 (6422528)
I0525 11:24:20.136132 15746 net.cpp:156] Memory required for data: 213358080
I0525 11:24:20.136148 15746 layer_factory.hpp:77] Creating layer pool2_r
I0525 11:24:20.136162 15746 net.cpp:91] Creating Layer pool2_r
I0525 11:24:20.136169 15746 net.cpp:425] pool2_r <- conv2_r
I0525 11:24:20.136179 15746 net.cpp:399] pool2_r -> pool2_r
I0525 11:24:20.136229 15746 net.cpp:141] Setting up pool2_r
I0525 11:24:20.136240 15746 net.cpp:148] Top shape: 128 128 4 28 (1835008)
I0525 11:24:20.136247 15746 net.cpp:156] Memory required for data: 220698112
I0525 11:24:20.136255 15746 layer_factory.hpp:77] Creating layer relu2_r
I0525 11:24:20.136265 15746 net.cpp:91] Creating Layer relu2_r
I0525 11:24:20.136274 15746 net.cpp:425] relu2_r <- pool2_r
I0525 11:24:20.136282 15746 net.cpp:386] relu2_r -> pool2_r (in-place)
I0525 11:24:20.136294 15746 net.cpp:141] Setting up relu2_r
I0525 11:24:20.136302 15746 net.cpp:148] Top shape: 128 128 4 28 (1835008)
I0525 11:24:20.136308 15746 net.cpp:156] Memory required for data: 228038144
I0525 11:24:20.136315 15746 layer_factory.hpp:77] Creating layer ip2_r
I0525 11:24:20.136332 15746 net.cpp:91] Creating Layer ip2_r
I0525 11:24:20.136339 15746 net.cpp:425] ip2_r <- pool2_r
I0525 11:24:20.136350 15746 net.cpp:399] ip2_r -> ip2_r
I0525 11:24:20.178968 15746 net.cpp:141] Setting up ip2_r
I0525 11:24:20.178997 15746 net.cpp:148] Top shape: 128 256 (32768)
I0525 11:24:20.179003 15746 net.cpp:156] Memory required for data: 228169216
I0525 11:24:20.179016 15746 layer_factory.hpp:77] Creating layer concat_ar
I0525 11:24:20.179039 15746 net.cpp:91] Creating Layer concat_ar
I0525 11:24:20.179047 15746 net.cpp:425] concat_ar <- ip2_a
I0525 11:24:20.179056 15746 net.cpp:425] concat_ar <- ip2_r
I0525 11:24:20.179065 15746 net.cpp:399] concat_ar -> ip2
I0525 11:24:20.179097 15746 net.cpp:141] Setting up concat_ar
I0525 11:24:20.179107 15746 net.cpp:148] Top shape: 128 512 (65536)
I0525 11:24:20.179114 15746 net.cpp:156] Memory required for data: 228431360
I0525 11:24:20.179123 15746 layer_factory.hpp:77] Creating layer relu2
I0525 11:24:20.179138 15746 net.cpp:91] Creating Layer relu2
I0525 11:24:20.179146 15746 net.cpp:425] relu2 <- ip2
I0525 11:24:20.179157 15746 net.cpp:386] relu2 -> ip2 (in-place)
I0525 11:24:20.179175 15746 net.cpp:141] Setting up relu2
I0525 11:24:20.179184 15746 net.cpp:148] Top shape: 128 512 (65536)
I0525 11:24:20.179191 15746 net.cpp:156] Memory required for data: 228693504
I0525 11:24:20.179198 15746 layer_factory.hpp:77] Creating layer dropip2
I0525 11:24:20.179215 15746 net.cpp:91] Creating Layer dropip2
I0525 11:24:20.179222 15746 net.cpp:425] dropip2 <- ip2
I0525 11:24:20.179234 15746 net.cpp:386] dropip2 -> ip2 (in-place)
I0525 11:24:20.179270 15746 net.cpp:141] Setting up dropip2
I0525 11:24:20.179280 15746 net.cpp:148] Top shape: 128 512 (65536)
I0525 11:24:20.179286 15746 net.cpp:156] Memory required for data: 228955648
I0525 11:24:20.179292 15746 layer_factory.hpp:77] Creating layer ip3
I0525 11:24:20.179304 15746 net.cpp:91] Creating Layer ip3
I0525 11:24:20.179311 15746 net.cpp:425] ip3 <- ip2
I0525 11:24:20.179322 15746 net.cpp:399] ip3 -> ip3
I0525 11:24:20.179512 15746 net.cpp:141] Setting up ip3
I0525 11:24:20.179529 15746 net.cpp:148] Top shape: 128 11 (1408)
I0525 11:24:20.179536 15746 net.cpp:156] Memory required for data: 228961280
I0525 11:24:20.179546 15746 layer_factory.hpp:77] Creating layer loss
I0525 11:24:20.179565 15746 net.cpp:91] Creating Layer loss
I0525 11:24:20.179572 15746 net.cpp:425] loss <- ip3
I0525 11:24:20.179584 15746 net.cpp:425] loss <- label
I0525 11:24:20.179595 15746 net.cpp:399] loss -> loss
I0525 11:24:20.179644 15746 net.cpp:141] Setting up loss
…
I0525 11:24:20.180944 15746 net.cpp:313] The NetState phase (1) differed from the phase (0) specified by a rule in layer ratemap
I0525 11:24:20.180953 15746 net.cpp:313] The NetState phase (1) differed from the phase (0) specified by a rule in layer amsFeatures
I0525 11:24:20.181171 15746 net.cpp:49] Initializing net from parameters: 
name: "SoundNet"
state {
  phase: TEST
}
layer {
  name: "data"
  type: "HDF5Data"
  top: "amsFeatures"
  top: "ratemap"
  top: "label"
  include {
    phase: TEST
  }
  hdf5_data_param {
    source: "/mnt/antares_raid/home/cindy/adhara/experiments/twoears_data_test.txt"
    batch_size: 128
  }
}
layer {
  name: "conv1_a"
  type: "Convolution"
  bottom: "amsFeatures"
  top: "conv1_a"
  param {
    lr_mult: 1
    decay_mult: 1
  }
  param {
    lr_mult: 2
    decay_mult: 0
  }
  convolution_param {
    num_output: 128
    stride: 1
    weight_filler {
      type: "xavier"
    }
    bias_filler {
      type: "constant"
    }
    kernel_h: 8
    kernel_w: 6
  }
}
layer {
  name: "relu1_a"
  type: "ReLU"
  bottom: "conv1_a"
  top: "conv1_a"
}
layer {
  name: "conv2_a"
  type: "Convolution"
  bottom: "conv1_a"
  top: "conv2_a"
  param {
    lr_mult: 1
    decay_mult: 1
  }
  param {
    lr_mult: 2
    decay_mult: 0
  }
  convolution_param {
    num_output: 128
    stride: 1
    weight_filler {
      type: "xavier"
    }
    bias_filler {
      type: "constant"
    }
    kernel_h: 3
    kernel_w: 3
  }
}
layer {
  name: "pool2_a"
  type: "Pooling"
  bottom: "conv2_a"
  top: "pool2_a"
  pooling_param {
    pool: MAX
    kernel_size: 2
    stride: 2
  }
}
layer {
  name: "relu2_a"
  type: "ReLU"
  bottom: "pool2_a"
  top: "pool2_a"
}
layer {
  name: "ip2_a"
  type: "InnerProduct"
  bottom: "pool2_a"
  top: "ip2_a"
  param {
    lr_mult: 1
  }
  param {
    lr_mult: 2
  }
  inner_product_param {
    num_output: 256
    weight_filler {
      type: "xavier"
    }
    bias_filler {
      type: "constant"
    }
  }
}
layer {
  name: "conv1_r"
  type: "Convolution"
  bottom: "ratemap"
  top: "conv1_r"
  param {
    lr_mult: 1
    decay_mult: 1
  }
  param {
    lr_mult: 2
    decay_mult: 0
  }
  convolution_param {
    num_output: 128
    stride: 1
    weight_filler {
      type: "xavier"
    }
    bias_filler {
      type: "constant"
    }
    kernel_h: 8
    kernel_w: 6
  }
}
layer {
  name: "relu1_r"
  type: "ReLU"
  bottom: "conv1_r"
  top: "conv1_r"
}
layer {
  name: "conv2_r"
  type: "Convolution"
  bottom: "conv1_r"
  top: "conv2_r"
  param {
    lr_mult: 1
    decay_mult: 1
  }
  param {
    lr_mult: 2
    decay_mult: 0
  }
  convolution_param {
    num_output: 128
    stride: 1
    weight_filler {
      type: "xavier"
    }
    bias_filler {
      type: "constant"
    }
    kernel_h: 3
    kernel_w: 3
  }
}
layer {
  name: "pool2_r"
  type: "Pooling"
  bottom: "conv2_r"
  top: "pool2_r"
  pooling_param {
    pool: MAX
    kernel_size: 2
    stride: 2
  }
}
layer {
  name: "relu2_r"
  type: "ReLU"
  bottom: "pool2_r"
  top: "pool2_r"
}
layer {
  name: "ip2_r"
  type: "InnerProduct"
  bottom: "pool2_r"
  top: "ip2_r"
  param {
    lr_mult: 1
  }
  param {
    lr_mult: 2
  }
  inner_product_param {
    num_output: 256
    weight_filler {
      type: "xavier"
    }
    bias_filler {
      type: "constant"
    }
  }
}
layer {
  name: "concat_ar"
  type: "Concat"
  bottom: "ip2_a"
  bottom: "ip2_r"
  top: "ip2"
  concat_param {
    axis: 1
  }
}
layer {
  name: "relu2"
  type: "ReLU"
  bottom: "ip2"
  top: "ip2"
}
layer {
  name: "dropip2"
  type: "Dropout"
  bottom: "ip2"
  top: "ip2"
  dropout_param {
    dropout_ratio: 0.5
  }
}
layer {
  name: "ip3"
  type: "InnerProduct"
  bottom: "ip2"
  top: "ip3"
  param {
    lr_mult: 1
  }
  param {
    lr_mult: 2
  }
  inner_product_param {
    num_output: 11
    weight_filler {
      type: "xavier"
    }
    bias_filler {
      type: "constant"
    }
  }
}
layer {
  name: "loss"
  type: "SigmoidCrossEntropyLoss"
  bottom: "ip3"
  bottom: "label"
  top: "loss"
}
I0525 11:24:20.181972 15746 layer_factory.hpp:77] Creating layer data
I0525 11:24:20.181988 15746 net.cpp:91] Creating Layer data
I0525 11:24:20.181996 15746 net.cpp:399] data -> amsFeatures
I0525 11:24:20.182009 15746 net.cpp:399] data -> ratemap
I0525 11:24:20.182020 15746 net.cpp:399] data -> label
I0525 11:24:20.182030 15746 hdf5_data_layer.cpp:79] Loading list of HDF5 filenames from: /mnt/antares_raid/home/cindy/adhara/experiments/twoears_data_test.txt
I0525 11:24:20.182418 15746 hdf5_data_layer.cpp:93] Number of HDF5 files: 2
I0525 11:24:26.537595 15746 net.cpp:141] Setting up data
I0525 11:24:26.537636 15746 net.cpp:148] Top shape: 128 9 16 63 (1161216)
I0525 11:24:26.537644 15746 net.cpp:148] Top shape: 128 1 16 63 (129024)
I0525 11:24:26.537652 15746 net.cpp:148] Top shape: 128 1 11 1 (1408)
I0525 11:24:26.537657 15746 net.cpp:156] Memory required for data: 5166592
I0525 11:24:26.537669 15746 layer_factory.hpp:77] Creating layer conv1_a
I0525 11:24:26.537704 15746 net.cpp:91] Creating Layer conv1_a
I0525 11:24:26.537711 15746 net.cpp:425] conv1_a <- amsFeatures
I0525 11:24:26.537721 15746 net.cpp:399] conv1_a -> conv1_a
I0525 11:24:26.538451 15746 net.cpp:141] Setting up conv1_a
I0525 11:24:26.538465 15746 net.cpp:148] Top shape: 128 128 9 58 (8552448)
I0525 11:24:26.538470 15746 net.cpp:156] Memory required for data: 39376384
I0525 11:24:26.538485 15746 layer_factory.hpp:77] Creating layer relu1_a
I0525 11:24:26.538496 15746 net.cpp:91] Creating Layer relu1_a
I0525 11:24:26.538501 15746 net.cpp:425] relu1_a <- conv1_a
I0525 11:24:26.538508 15746 net.cpp:386] relu1_a -> conv1_a (in-place)
I0525 11:24:26.538517 15746 net.cpp:141] Setting up relu1_a
I0525 11:24:26.538524 15746 net.cpp:148] Top shape: 128 128 9 58 (8552448)
I0525 11:24:26.538529 15746 net.cpp:156] Memory required for data: 73586176
I0525 11:24:26.538534 15746 layer_factory.hpp:77] Creating layer conv2_a
I0525 11:24:26.538543 15746 net.cpp:91] Creating Layer conv2_a
I0525 11:24:26.538548 15746 net.cpp:425] conv2_a <- conv1_a
I0525 11:24:26.538555 15746 net.cpp:399] conv2_a -> conv2_a
I0525 11:24:26.540391 15746 net.cpp:141] Setting up conv2_a
I0525 11:24:26.540408 15746 net.cpp:148] Top shape: 128 128 7 56 (6422528)
I0525 11:24:26.540415 15746 net.cpp:156] Memory required for data: 99276288
I0525 11:24:26.540426 15746 layer_factory.hpp:77] Creating layer pool2_a
I0525 11:24:26.540436 15746 net.cpp:91] Creating Layer pool2_a
I0525 11:24:26.540443 15746 net.cpp:425] pool2_a <- conv2_a
I0525 11:24:26.540451 15746 net.cpp:399] pool2_a -> pool2_a
I0525 11:24:26.540483 15746 net.cpp:141] Setting up pool2_a
I0525 11:24:26.540493 15746 net.cpp:148] Top shape: 128 128 4 28 (1835008)
I0525 11:24:26.540498 15746 net.cpp:156] Memory required for data: 106616320
I0525 11:24:26.540503 15746 layer_factory.hpp:77] Creating layer relu2_a
I0525 11:24:26.540510 15746 net.cpp:91] Creating Layer relu2_a
I0525 11:24:26.540515 15746 net.cpp:425] relu2_a <- pool2_a
I0525 11:24:26.540521 15746 net.cpp:386] relu2_a -> pool2_a (in-place)
I0525 11:24:26.540529 15746 net.cpp:141] Setting up relu2_a
I0525 11:24:26.540536 15746 net.cpp:148] Top shape: 128 128 4 28 (1835008)
I0525 11:24:26.540541 15746 net.cpp:156] Memory required for data: 113956352
I0525 11:24:26.540545 15746 layer_factory.hpp:77] Creating layer ip2_a
I0525 11:24:26.540555 15746 net.cpp:91] Creating Layer ip2_a
I0525 11:24:26.540560 15746 net.cpp:425] ip2_a <- pool2_a
I0525 11:24:26.540566 15746 net.cpp:399] ip2_a -> ip2_a
I0525 11:24:26.573084 15746 net.cpp:141] Setting up ip2_a
I0525 11:24:26.573106 15746 net.cpp:148] Top shape: 128 256 (32768)
I0525 11:24:26.573112 15746 net.cpp:156] Memory required for data: 114087424
I0525 11:24:26.573124 15746 layer_factory.hpp:77] Creating layer conv1_r
I0525 11:24:26.573140 15746 net.cpp:91] Creating Layer conv1_r
I0525 11:24:26.573146 15746 net.cpp:425] conv1_r <- ratemap
I0525 11:24:26.573154 15746 net.cpp:399] conv1_r -> conv1_r
I0525 11:24:26.573448 15746 net.cpp:141] Setting up conv1_r
I0525 11:24:26.573462 15746 net.cpp:148] Top shape: 128 128 9 58 (8552448)
I0525 11:24:26.573468 15746 net.cpp:156] Memory required for data: 148297216
I0525 11:24:26.573477 15746 layer_factory.hpp:77] Creating layer relu1_r
I0525 11:24:26.573487 15746 net.cpp:91] Creating Layer relu1_r
I0525 11:24:26.573494 15746 net.cpp:425] relu1_r <- conv1_r
I0525 11:24:26.573504 15746 net.cpp:386] relu1_r -> conv1_r (in-place)
I0525 11:24:26.573514 15746 net.cpp:141] Setting up relu1_r
I0525 11:24:26.573523 15746 net.cpp:148] Top shape: 128 128 9 58 (8552448)
I0525 11:24:26.573529 15746 net.cpp:156] Memory required for data: 182507008
I0525 11:24:26.573534 15746 layer_factory.hpp:77] Creating layer conv2_r
I0525 11:24:26.573547 15746 net.cpp:91] Creating Layer conv2_r
I0525 11:24:26.573554 15746 net.cpp:425] conv2_r <- conv1_r
I0525 11:24:26.573561 15746 net.cpp:399] conv2_r -> conv2_r
I0525 11:24:26.575429 15746 net.cpp:141] Setting up conv2_r
I0525 11:24:26.575446 15746 net.cpp:148] Top shape: 128 128 7 56 (6422528)
I0525 11:24:26.575453 15746 net.cpp:156] Memory required for data: 208197120
I0525 11:24:26.575462 15746 layer_factory.hpp:77] Creating layer pool2_r
I0525 11:24:26.575472 15746 net.cpp:91] Creating Layer pool2_r
I0525 11:24:26.575479 15746 net.cpp:425] pool2_r <- conv2_r
I0525 11:24:26.575490 15746 net.cpp:399] pool2_r -> pool2_r
I0525 11:24:26.575527 15746 net.cpp:141] Setting up pool2_r
I0525 11:24:26.575536 15746 net.cpp:148] Top shape: 128 128 4 28 (1835008)
I0525 11:24:26.575541 15746 net.cpp:156] Memory required for data: 215537152
I0525 11:24:26.575546 15746 layer_factory.hpp:77] Creating layer relu2_r
I0525 11:24:26.575552 15746 net.cpp:91] Creating Layer relu2_r
I0525 11:24:26.575557 15746 net.cpp:425] relu2_r <- pool2_r
I0525 11:24:26.575565 15746 net.cpp:386] relu2_r -> pool2_r (in-place)
I0525 11:24:26.575573 15746 net.cpp:141] Setting up relu2_r
I0525 11:24:26.575579 15746 net.cpp:148] Top shape: 128 128 4 28 (1835008)
I0525 11:24:26.575584 15746 net.cpp:156] Memory required for data: 222877184
I0525 11:24:26.575590 15746 layer_factory.hpp:77] Creating layer ip2_r
I0525 11:24:26.575601 15746 net.cpp:91] Creating Layer ip2_r
I0525 11:24:26.575606 15746 net.cpp:425] ip2_r <- pool2_r
I0525 11:24:26.575613 15746 net.cpp:399] ip2_r -> ip2_r
I0525 11:24:26.608091 15746 net.cpp:141] Setting up ip2_r
I0525 11:24:26.608114 15746 net.cpp:148] Top shape: 128 256 (32768)
I0525 11:24:26.608119 15746 net.cpp:156] Memory required for data: 223008256
I0525 11:24:26.608129 15746 layer_factory.hpp:77] Creating layer concat_ar
I0525 11:24:26.608139 15746 net.cpp:91] Creating Layer concat_ar
I0525 11:24:26.608146 15746 net.cpp:425] concat_ar <- ip2_a
I0525 11:24:26.608155 15746 net.cpp:425] concat_ar <- ip2_r
I0525 11:24:26.608163 15746 net.cpp:399] concat_ar -> ip2
I0525 11:24:26.608183 15746 net.cpp:141] Setting up concat_ar
I0525 11:24:26.608193 15746 net.cpp:148] Top shape: 128 512 (65536)
I0525 11:24:26.608198 15746 net.cpp:156] Memory required for data: 223270400
I0525 11:24:26.608204 15746 layer_factory.hpp:77] Creating layer relu2
I0525 11:24:26.608212 15746 net.cpp:91] Creating Layer relu2
I0525 11:24:26.608217 15746 net.cpp:425] relu2 <- ip2
I0525 11:24:26.608223 15746 net.cpp:386] relu2 -> ip2 (in-place)
I0525 11:24:26.608232 15746 net.cpp:141] Setting up relu2
I0525 11:24:26.608237 15746 net.cpp:148] Top shape: 128 512 (65536)
I0525 11:24:26.608242 15746 net.cpp:156] Memory required for data: 223532544
I0525 11:24:26.608247 15746 layer_factory.hpp:77] Creating layer dropip2
I0525 11:24:26.608258 15746 net.cpp:91] Creating Layer dropip2
I0525 11:24:26.608266 15746 net.cpp:425] dropip2 <- ip2
I0525 11:24:26.608273 15746 net.cpp:386] dropip2 -> ip2 (in-place)
I0525 11:24:26.608294 15746 net.cpp:141] Setting up dropip2
I0525 11:24:26.608301 15746 net.cpp:148] Top shape: 128 512 (65536)
I0525 11:24:26.608305 15746 net.cpp:156] Memory required for data: 223794688
I0525 11:24:26.608310 15746 layer_factory.hpp:77] Creating layer ip3
I0525 11:24:26.608321 15746 net.cpp:91] Creating Layer ip3
I0525 11:24:26.608326 15746 net.cpp:425] ip3 <- ip2
I0525 11:24:26.608336 15746 net.cpp:399] ip3 -> ip3
I0525 11:24:26.608487 15746 net.cpp:141] Setting up ip3
I0525 11:24:26.608496 15746 net.cpp:148] Top shape: 128 11 (1408)
I0525 11:24:26.608501 15746 net.cpp:156] Memory required for data: 223800320
I0525 11:24:26.608510 15746 layer_factory.hpp:77] Creating layer loss
I0525 11:24:26.608521 15746 net.cpp:91] Creating Layer loss
I0525 11:24:26.608526 15746 net.cpp:425] loss <- ip3
I0525 11:24:26.608532 15746 net.cpp:425] loss <- label
I0525 11:24:26.608539 15746 net.cpp:399] loss -> loss
I0525 11:24:26.608568 15746 net.cpp:141] Setting up loss
…
