…
I0420 12:17:17.436745  8415 solver.cpp:91] Creating training net from net file: /mnt/antares_raid/home/cindy/adhara/experiments/18/train_val.prototxt
I0420 12:17:17.484046  8415 net.cpp:313] The NetState phase (0) differed from the phase (1) specified by a rule in layer data
I0420 12:17:17.484484  8415 net.cpp:49] Initializing net from parameters: 
name: "SoundNet"
state {
  phase: TRAIN
}
layer {
  name: "data"
  type: "HDF5Data"
  top: "amsFeatures"
  top: "ratemap"
  top: "label"
  include {
    phase: TRAIN
  }
  hdf5_data_param {
    source: "/mnt/antares_raid/home/cindy/adhara/experiments/twoears_data_train.txt"
    batch_size: 128
  }
}
layer {
  name: "conv1_a"
  type: "Convolution"
  bottom: "amsFeatures"
  top: "conv1_a"
  param {
    lr_mult: 1
    decay_mult: 1
  }
  param {
    lr_mult: 2
    decay_mult: 0
  }
  convolution_param {
    num_output: 128
    stride: 1
    weight_filler {
      type: "xavier"
    }
    bias_filler {
      type: "constant"
    }
    kernel_h: 8
    kernel_w: 6
  }
}
layer {
  name: "relu1_a"
  type: "ReLU"
  bottom: "conv1_a"
  top: "conv1_a"
}
layer {
  name: "conv2_a"
  type: "Convolution"
  bottom: "conv1_a"
  top: "conv2_a"
  param {
    lr_mult: 1
    decay_mult: 1
  }
  param {
    lr_mult: 2
    decay_mult: 0
  }
  convolution_param {
    num_output: 128
    stride: 1
    weight_filler {
      type: "xavier"
    }
    bias_filler {
      type: "constant"
    }
    kernel_h: 3
    kernel_w: 3
  }
}
layer {
  name: "pool2_a"
  type: "Pooling"
  bottom: "conv2_a"
  top: "pool2_a"
  pooling_param {
    pool: MAX
    kernel_size: 2
    stride: 2
  }
}
layer {
  name: "relu2_a"
  type: "ReLU"
  bottom: "pool2_a"
  top: "pool2_a"
}
layer {
  name: "ip2_a"
  type: "InnerProduct"
  bottom: "pool2_a"
  top: "ip2_a"
  param {
    lr_mult: 1
  }
  param {
    lr_mult: 2
  }
  inner_product_param {
    num_output: 256
    weight_filler {
      type: "xavier"
    }
    bias_filler {
      type: "constant"
    }
  }
}
layer {
  name: "conv1_r"
  type: "Convolution"
  bottom: "ratemap"
  top: "conv1_r"
  param {
    lr_mult: 1
    decay_mult: 1
  }
  param {
    lr_mult: 2
    decay_mult: 0
  }
  convolution_param {
    num_output: 128
    stride: 1
    weight_filler {
      type: "xavier"
    }
    bias_filler {
      type: "constant"
    }
    kernel_h: 8
    kernel_w: 6
  }
}
layer {
  name: "relu1_r"
  type: "ReLU"
  bottom: "conv1_r"
  top: "conv1_r"
}
layer {
  name: "conv2_r"
  type: "Convolution"
  bottom: "conv1_r"
  top: "conv2_r"
  param {
    lr_mult: 1
    decay_mult: 1
  }
  param {
    lr_mult: 2
    decay_mult: 0
  }
  convolution_param {
    num_output: 128
    stride: 1
    weight_filler {
      type: "xavier"
    }
    bias_filler {
      type: "constant"
    }
    kernel_h: 3
    kernel_w: 3
  }
}
layer {
  name: "pool2_r"
  type: "Pooling"
  bottom: "conv2_r"
  top: "pool2_r"
  pooling_param {
    pool: MAX
    kernel_size: 2
    stride: 2
  }
}
layer {
  name: "relu2_r"
  type: "ReLU"
  bottom: "pool2_r"
  top: "pool2_r"
}
layer {
  name: "ip2_r"
  type: "InnerProduct"
  bottom: "pool2_r"
  top: "ip2_r"
  param {
    lr_mult: 1
  }
  param {
    lr_mult: 2
  }
  inner_product_param {
    num_output: 256
    weight_filler {
      type: "xavier"
    }
    bias_filler {
      type: "constant"
    }
  }
}
layer {
  name: "concat_ar"
  type: "Concat"
  bottom: "ip2_a"
  bottom: "ip2_r"
  top: "ip2"
  concat_param {
    axis: 1
  }
}
layer {
  name: "relu2"
  type: "ReLU"
  bottom: "ip2"
  top: "ip2"
}
layer {
  name: "ip3"
  type: "InnerProduct"
  bottom: "ip2"
  top: "ip3"
  param {
    lr_mult: 1
  }
  param {
    lr_mult: 2
  }
  inner_product_param {
    num_output: 11
    weight_filler {
      type: "xavier"
    }
    bias_filler {
      type: "constant"
    }
  }
}
layer {
  name: "loss"
  type: "SigmoidCrossEntropyLoss"
  bottom: "ip3"
  bottom: "label"
  top: "loss"
}
I0420 12:17:17.484848  8415 layer_factory.hpp:77] Creating layer data
I0420 12:17:17.484889  8415 net.cpp:91] Creating Layer data
I0420 12:17:17.484905  8415 net.cpp:399] data -> amsFeatures
I0420 12:17:17.484973  8415 net.cpp:399] data -> ratemap
I0420 12:17:17.484988  8415 net.cpp:399] data -> label
I0420 12:17:17.485011  8415 hdf5_data_layer.cpp:79] Loading list of HDF5 filenames from: /mnt/antares_raid/home/cindy/adhara/experiments/twoears_data_train.txt
I0420 12:17:17.505949  8415 hdf5_data_layer.cpp:93] Number of HDF5 files: 5
I0420 12:17:17.594558  8415 hdf5.cpp:32] Datatype class: H5T_FLOAT
I0420 12:17:52.052955  8415 net.cpp:141] Setting up data
I0420 12:17:52.053144  8415 net.cpp:148] Top shape: 128 9 16 63 (1161216)
I0420 12:17:52.053153  8415 net.cpp:148] Top shape: 128 1 16 63 (129024)
I0420 12:17:52.053158  8415 net.cpp:148] Top shape: 128 1 11 1 (1408)
I0420 12:17:52.053160  8415 net.cpp:156] Memory required for data: 5166592
I0420 12:17:52.053181  8415 layer_factory.hpp:77] Creating layer conv1_a
I0420 12:17:52.056378  8415 net.cpp:91] Creating Layer conv1_a
I0420 12:17:52.056397  8415 net.cpp:425] conv1_a <- amsFeatures
I0420 12:17:52.056416  8415 net.cpp:399] conv1_a -> conv1_a
I0420 12:17:52.058729  8415 net.cpp:141] Setting up conv1_a
I0420 12:17:52.058750  8415 net.cpp:148] Top shape: 128 128 9 58 (8552448)
I0420 12:17:52.058754  8415 net.cpp:156] Memory required for data: 39376384
I0420 12:17:52.058779  8415 layer_factory.hpp:77] Creating layer relu1_a
I0420 12:17:52.058794  8415 net.cpp:91] Creating Layer relu1_a
I0420 12:17:52.058799  8415 net.cpp:425] relu1_a <- conv1_a
I0420 12:17:52.058804  8415 net.cpp:386] relu1_a -> conv1_a (in-place)
I0420 12:17:52.058817  8415 net.cpp:141] Setting up relu1_a
I0420 12:17:52.058822  8415 net.cpp:148] Top shape: 128 128 9 58 (8552448)
I0420 12:17:52.058825  8415 net.cpp:156] Memory required for data: 73586176
I0420 12:17:52.058828  8415 layer_factory.hpp:77] Creating layer conv2_a
I0420 12:17:52.058838  8415 net.cpp:91] Creating Layer conv2_a
I0420 12:17:52.058841  8415 net.cpp:425] conv2_a <- conv1_a
I0420 12:17:52.058848  8415 net.cpp:399] conv2_a -> conv2_a
I0420 12:17:52.060782  8415 net.cpp:141] Setting up conv2_a
I0420 12:17:52.060796  8415 net.cpp:148] Top shape: 128 128 7 56 (6422528)
I0420 12:17:52.060799  8415 net.cpp:156] Memory required for data: 99276288
I0420 12:17:52.060808  8415 layer_factory.hpp:77] Creating layer pool2_a
I0420 12:17:52.060818  8415 net.cpp:91] Creating Layer pool2_a
I0420 12:17:52.060823  8415 net.cpp:425] pool2_a <- conv2_a
I0420 12:17:52.060828  8415 net.cpp:399] pool2_a -> pool2_a
I0420 12:17:52.060906  8415 net.cpp:141] Setting up pool2_a
I0420 12:17:52.060914  8415 net.cpp:148] Top shape: 128 128 4 28 (1835008)
I0420 12:17:52.060916  8415 net.cpp:156] Memory required for data: 106616320
I0420 12:17:52.060920  8415 layer_factory.hpp:77] Creating layer relu2_a
I0420 12:17:52.060930  8415 net.cpp:91] Creating Layer relu2_a
I0420 12:17:52.060935  8415 net.cpp:425] relu2_a <- pool2_a
I0420 12:17:52.060940  8415 net.cpp:386] relu2_a -> pool2_a (in-place)
I0420 12:17:52.060946  8415 net.cpp:141] Setting up relu2_a
I0420 12:17:52.060951  8415 net.cpp:148] Top shape: 128 128 4 28 (1835008)
I0420 12:17:52.060953  8415 net.cpp:156] Memory required for data: 113956352
I0420 12:17:52.060971  8415 layer_factory.hpp:77] Creating layer ip2_a
I0420 12:17:52.060982  8415 net.cpp:91] Creating Layer ip2_a
I0420 12:17:52.060986  8415 net.cpp:425] ip2_a <- pool2_a
I0420 12:17:52.060992  8415 net.cpp:399] ip2_a -> ip2_a
I0420 12:17:52.099654  8415 net.cpp:141] Setting up ip2_a
I0420 12:17:52.099712  8415 net.cpp:148] Top shape: 128 256 (32768)
I0420 12:17:52.099721  8415 net.cpp:156] Memory required for data: 114087424
I0420 12:17:52.099743  8415 layer_factory.hpp:77] Creating layer conv1_r
I0420 12:17:52.099834  8415 net.cpp:91] Creating Layer conv1_r
I0420 12:17:52.099848  8415 net.cpp:425] conv1_r <- ratemap
I0420 12:17:52.099861  8415 net.cpp:399] conv1_r -> conv1_r
I0420 12:17:52.100795  8415 net.cpp:141] Setting up conv1_r
I0420 12:17:52.100828  8415 net.cpp:148] Top shape: 128 128 9 58 (8552448)
I0420 12:17:52.100838  8415 net.cpp:156] Memory required for data: 148297216
I0420 12:17:52.100849  8415 layer_factory.hpp:77] Creating layer relu1_r
I0420 12:17:52.100865  8415 net.cpp:91] Creating Layer relu1_r
I0420 12:17:52.100874  8415 net.cpp:425] relu1_r <- conv1_r
I0420 12:17:52.100884  8415 net.cpp:386] relu1_r -> conv1_r (in-place)
I0420 12:17:52.100899  8415 net.cpp:141] Setting up relu1_r
I0420 12:17:52.100909  8415 net.cpp:148] Top shape: 128 128 9 58 (8552448)
I0420 12:17:52.100915  8415 net.cpp:156] Memory required for data: 182507008
I0420 12:17:52.100921  8415 layer_factory.hpp:77] Creating layer conv2_r
I0420 12:17:52.100946  8415 net.cpp:91] Creating Layer conv2_r
I0420 12:17:52.100955  8415 net.cpp:425] conv2_r <- conv1_r
I0420 12:17:52.100965  8415 net.cpp:399] conv2_r -> conv2_r
I0420 12:17:52.103101  8415 net.cpp:141] Setting up conv2_r
I0420 12:17:52.103150  8415 net.cpp:148] Top shape: 128 128 7 56 (6422528)
I0420 12:17:52.103160  8415 net.cpp:156] Memory required for data: 208197120
I0420 12:17:52.103191  8415 layer_factory.hpp:77] Creating layer pool2_r
I0420 12:17:52.103216  8415 net.cpp:91] Creating Layer pool2_r
I0420 12:17:52.103229  8415 net.cpp:425] pool2_r <- conv2_r
I0420 12:17:52.103243  8415 net.cpp:399] pool2_r -> pool2_r
I0420 12:17:52.103296  8415 net.cpp:141] Setting up pool2_r
I0420 12:17:52.103307  8415 net.cpp:148] Top shape: 128 128 4 28 (1835008)
I0420 12:17:52.103312  8415 net.cpp:156] Memory required for data: 215537152
I0420 12:17:52.103319  8415 layer_factory.hpp:77] Creating layer relu2_r
I0420 12:17:52.103340  8415 net.cpp:91] Creating Layer relu2_r
I0420 12:17:52.103349  8415 net.cpp:425] relu2_r <- pool2_r
I0420 12:17:52.103358  8415 net.cpp:386] relu2_r -> pool2_r (in-place)
I0420 12:17:52.103368  8415 net.cpp:141] Setting up relu2_r
I0420 12:17:52.103375  8415 net.cpp:148] Top shape: 128 128 4 28 (1835008)
I0420 12:17:52.103381  8415 net.cpp:156] Memory required for data: 222877184
I0420 12:17:52.103389  8415 layer_factory.hpp:77] Creating layer ip2_r
I0420 12:17:52.103407  8415 net.cpp:91] Creating Layer ip2_r
I0420 12:17:52.103422  8415 net.cpp:425] ip2_r <- pool2_r
I0420 12:17:52.103438  8415 net.cpp:399] ip2_r -> ip2_r
I0420 12:17:52.143421  8415 net.cpp:141] Setting up ip2_r
I0420 12:17:52.143465  8415 net.cpp:148] Top shape: 128 256 (32768)
I0420 12:17:52.143471  8415 net.cpp:156] Memory required for data: 223008256
I0420 12:17:52.143486  8415 layer_factory.hpp:77] Creating layer concat_ar
I0420 12:17:52.143522  8415 net.cpp:91] Creating Layer concat_ar
I0420 12:17:52.143532  8415 net.cpp:425] concat_ar <- ip2_a
I0420 12:17:52.143542  8415 net.cpp:425] concat_ar <- ip2_r
I0420 12:17:52.143550  8415 net.cpp:399] concat_ar -> ip2
I0420 12:17:52.143587  8415 net.cpp:141] Setting up concat_ar
I0420 12:17:52.143599  8415 net.cpp:148] Top shape: 128 512 (65536)
I0420 12:17:52.143605  8415 net.cpp:156] Memory required for data: 223270400
I0420 12:17:52.143613  8415 layer_factory.hpp:77] Creating layer relu2
I0420 12:17:52.143622  8415 net.cpp:91] Creating Layer relu2
I0420 12:17:52.143636  8415 net.cpp:425] relu2 <- ip2
I0420 12:17:52.143649  8415 net.cpp:386] relu2 -> ip2 (in-place)
I0420 12:17:52.143668  8415 net.cpp:141] Setting up relu2
I0420 12:17:52.143683  8415 net.cpp:148] Top shape: 128 512 (65536)
I0420 12:17:52.143690  8415 net.cpp:156] Memory required for data: 223532544
I0420 12:17:52.143697  8415 layer_factory.hpp:77] Creating layer ip3
I0420 12:17:52.143710  8415 net.cpp:91] Creating Layer ip3
I0420 12:17:52.143718  8415 net.cpp:425] ip3 <- ip2
I0420 12:17:52.143726  8415 net.cpp:399] ip3 -> ip3
I0420 12:17:52.143913  8415 net.cpp:141] Setting up ip3
I0420 12:17:52.143925  8415 net.cpp:148] Top shape: 128 11 (1408)
I0420 12:17:52.143934  8415 net.cpp:156] Memory required for data: 223538176
I0420 12:17:52.143941  8415 layer_factory.hpp:77] Creating layer loss
I0420 12:17:52.143962  8415 net.cpp:91] Creating Layer loss
I0420 12:17:52.143973  8415 net.cpp:425] loss <- ip3
I0420 12:17:52.143981  8415 net.cpp:425] loss <- label
I0420 12:17:52.143991  8415 net.cpp:399] loss -> loss
I0420 12:17:52.144035  8415 net.cpp:141] Setting up loss
…
