…
I0420 17:28:23.100786 20613 solver.cpp:91] Creating training net from net file: /mnt/antares_raid/home/cindy/adhara/experiments/18/train_val.prototxt
I0420 17:28:23.101708 20613 net.cpp:313] The NetState phase (0) differed from the phase (1) specified by a rule in layer data
I0420 17:28:23.101910 20613 net.cpp:49] Initializing net from parameters: 
name: "SoundNet"
state {
  phase: TRAIN
}
layer {
  name: "data"
  type: "HDF5Data"
  top: "amsFeatures"
  top: "ratemap"
  top: "label"
  include {
    phase: TRAIN
  }
  hdf5_data_param {
    source: "/mnt/antares_raid/home/cindy/adhara/experiments/twoears_data_train.txt"
    batch_size: 128
  }
}
layer {
  name: "conv1_a"
  type: "Convolution"
  bottom: "amsFeatures"
  top: "conv1_a"
  param {
    lr_mult: 1
    decay_mult: 1
  }
  param {
    lr_mult: 2
    decay_mult: 0
  }
  convolution_param {
    num_output: 128
    stride: 1
    weight_filler {
      type: "xavier"
    }
    bias_filler {
      type: "constant"
    }
    kernel_h: 8
    kernel_w: 6
  }
}
layer {
  name: "relu1_a"
  type: "ReLU"
  bottom: "conv1_a"
  top: "conv1_a"
}
layer {
  name: "conv2_a"
  type: "Convolution"
  bottom: "conv1_a"
  top: "conv2_a"
  param {
    lr_mult: 1
    decay_mult: 1
  }
  param {
    lr_mult: 2
    decay_mult: 0
  }
  convolution_param {
    num_output: 128
    stride: 1
    weight_filler {
      type: "xavier"
    }
    bias_filler {
      type: "constant"
    }
    kernel_h: 3
    kernel_w: 3
  }
}
layer {
  name: "pool2_a"
  type: "Pooling"
  bottom: "conv2_a"
  top: "pool2_a"
  pooling_param {
    pool: MAX
    kernel_size: 2
    stride: 2
  }
}
layer {
  name: "relu2_a"
  type: "ReLU"
  bottom: "pool2_a"
  top: "pool2_a"
}
layer {
  name: "ip2_a"
  type: "InnerProduct"
  bottom: "pool2_a"
  top: "ip2_a"
  param {
    lr_mult: 1
  }
  param {
    lr_mult: 2
  }
  inner_product_param {
    num_output: 256
    weight_filler {
      type: "xavier"
    }
    bias_filler {
      type: "constant"
    }
  }
}
layer {
  name: "conv1_r"
  type: "Convolution"
  bottom: "ratemap"
  top: "conv1_r"
  param {
    lr_mult: 1
    decay_mult: 1
  }
  param {
    lr_mult: 2
    decay_mult: 0
  }
  convolution_param {
    num_output: 128
    stride: 1
    weight_filler {
      type: "xavier"
    }
    bias_filler {
      type: "constant"
    }
    kernel_h: 8
    kernel_w: 6
  }
}
layer {
  name: "relu1_r"
  type: "ReLU"
  bottom: "conv1_r"
  top: "conv1_r"
}
layer {
  name: "conv2_r"
  type: "Convolution"
  bottom: "conv1_r"
  top: "conv2_r"
  param {
    lr_mult: 1
    decay_mult: 1
  }
  param {
    lr_mult: 2
    decay_mult: 0
  }
  convolution_param {
    num_output: 128
    stride: 1
    weight_filler {
      type: "xavier"
    }
    bias_filler {
      type: "constant"
    }
    kernel_h: 3
    kernel_w: 3
  }
}
layer {
  name: "pool2_r"
  type: "Pooling"
  bottom: "conv2_r"
  top: "pool2_r"
  pooling_param {
    pool: MAX
    kernel_size: 2
    stride: 2
  }
}
layer {
  name: "relu2_r"
  type: "ReLU"
  bottom: "pool2_r"
  top: "pool2_r"
}
layer {
  name: "ip2_r"
  type: "InnerProduct"
  bottom: "pool2_r"
  top: "ip2_r"
  param {
    lr_mult: 1
  }
  param {
    lr_mult: 2
  }
  inner_product_param {
    num_output: 256
    weight_filler {
      type: "xavier"
    }
    bias_filler {
      type: "constant"
    }
  }
}
layer {
  name: "concat_ar"
  type: "Concat"
  bottom: "ip2_a"
  bottom: "ip2_r"
  top: "ip2"
  concat_param {
    axis: 1
  }
}
layer {
  name: "relu2"
  type: "ReLU"
  bottom: "ip2"
  top: "ip2"
}
layer {
  name: "ip3"
  type: "InnerProduct"
  bottom: "ip2"
  top: "ip3"
  param {
    lr_mult: 1
  }
  param {
    lr_mult: 2
  }
  inner_product_param {
    num_output: 11
    weight_filler {
      type: "xavier"
    }
    bias_filler {
      type: "constant"
    }
  }
}
layer {
  name: "loss"
  type: "SigmoidCrossEntropyLoss"
  bottom: "ip3"
  bottom: "label"
  top: "loss"
}
I0420 17:28:23.102702 20613 layer_factory.hpp:77] Creating layer data
I0420 17:28:23.102730 20613 net.cpp:91] Creating Layer data
I0420 17:28:23.102742 20613 net.cpp:399] data -> amsFeatures
I0420 17:28:23.102777 20613 net.cpp:399] data -> ratemap
I0420 17:28:23.102790 20613 net.cpp:399] data -> label
I0420 17:28:23.102807 20613 hdf5_data_layer.cpp:79] Loading list of HDF5 filenames from: /mnt/antares_raid/home/cindy/adhara/experiments/twoears_data_train.txt
I0420 17:28:23.103155 20613 hdf5_data_layer.cpp:93] Number of HDF5 files: 5
I0420 17:28:23.104596 20613 hdf5.cpp:32] Datatype class: H5T_FLOAT
I0420 17:28:28.671424 20613 net.cpp:141] Setting up data
I0420 17:28:28.671488 20613 net.cpp:148] Top shape: 128 9 16 63 (1161216)
I0420 17:28:28.671497 20613 net.cpp:148] Top shape: 128 1 16 63 (129024)
I0420 17:28:28.671505 20613 net.cpp:148] Top shape: 128 1 11 1 (1408)
I0420 17:28:28.671512 20613 net.cpp:156] Memory required for data: 5166592
I0420 17:28:28.671535 20613 layer_factory.hpp:77] Creating layer conv1_a
I0420 17:28:28.671608 20613 net.cpp:91] Creating Layer conv1_a
I0420 17:28:28.671620 20613 net.cpp:425] conv1_a <- amsFeatures
I0420 17:28:28.671638 20613 net.cpp:399] conv1_a -> conv1_a
I0420 17:28:28.673817 20613 net.cpp:141] Setting up conv1_a
I0420 17:28:28.673837 20613 net.cpp:148] Top shape: 128 128 9 58 (8552448)
I0420 17:28:28.673846 20613 net.cpp:156] Memory required for data: 39376384
I0420 17:28:28.673871 20613 layer_factory.hpp:77] Creating layer relu1_a
I0420 17:28:28.673888 20613 net.cpp:91] Creating Layer relu1_a
I0420 17:28:28.673898 20613 net.cpp:425] relu1_a <- conv1_a
I0420 17:28:28.673907 20613 net.cpp:386] relu1_a -> conv1_a (in-place)
I0420 17:28:28.673921 20613 net.cpp:141] Setting up relu1_a
I0420 17:28:28.673929 20613 net.cpp:148] Top shape: 128 128 9 58 (8552448)
I0420 17:28:28.673935 20613 net.cpp:156] Memory required for data: 73586176
I0420 17:28:28.673941 20613 layer_factory.hpp:77] Creating layer conv2_a
I0420 17:28:28.673954 20613 net.cpp:91] Creating Layer conv2_a
I0420 17:28:28.673961 20613 net.cpp:425] conv2_a <- conv1_a
I0420 17:28:28.673970 20613 net.cpp:399] conv2_a -> conv2_a
I0420 17:28:28.675866 20613 net.cpp:141] Setting up conv2_a
I0420 17:28:28.675884 20613 net.cpp:148] Top shape: 128 128 7 56 (6422528)
I0420 17:28:28.675891 20613 net.cpp:156] Memory required for data: 99276288
I0420 17:28:28.675904 20613 layer_factory.hpp:77] Creating layer pool2_a
I0420 17:28:28.675916 20613 net.cpp:91] Creating Layer pool2_a
I0420 17:28:28.675923 20613 net.cpp:425] pool2_a <- conv2_a
I0420 17:28:28.675932 20613 net.cpp:399] pool2_a -> pool2_a
I0420 17:28:28.676004 20613 net.cpp:141] Setting up pool2_a
I0420 17:28:28.676017 20613 net.cpp:148] Top shape: 128 128 4 28 (1835008)
I0420 17:28:28.676024 20613 net.cpp:156] Memory required for data: 106616320
I0420 17:28:28.676030 20613 layer_factory.hpp:77] Creating layer relu2_a
I0420 17:28:28.676040 20613 net.cpp:91] Creating Layer relu2_a
I0420 17:28:28.676046 20613 net.cpp:425] relu2_a <- pool2_a
I0420 17:28:28.676054 20613 net.cpp:386] relu2_a -> pool2_a (in-place)
I0420 17:28:28.676064 20613 net.cpp:141] Setting up relu2_a
I0420 17:28:28.676071 20613 net.cpp:148] Top shape: 128 128 4 28 (1835008)
I0420 17:28:28.676077 20613 net.cpp:156] Memory required for data: 113956352
I0420 17:28:28.676084 20613 layer_factory.hpp:77] Creating layer ip2_a
I0420 17:28:28.676098 20613 net.cpp:91] Creating Layer ip2_a
I0420 17:28:28.676105 20613 net.cpp:425] ip2_a <- pool2_a
I0420 17:28:28.676112 20613 net.cpp:399] ip2_a -> ip2_a
I0420 17:28:28.713258 20613 net.cpp:141] Setting up ip2_a
I0420 17:28:28.713292 20613 net.cpp:148] Top shape: 128 256 (32768)
I0420 17:28:28.713300 20613 net.cpp:156] Memory required for data: 114087424
I0420 17:28:28.713321 20613 layer_factory.hpp:77] Creating layer conv1_r
I0420 17:28:28.713353 20613 net.cpp:91] Creating Layer conv1_r
I0420 17:28:28.713364 20613 net.cpp:425] conv1_r <- ratemap
I0420 17:28:28.713376 20613 net.cpp:399] conv1_r -> conv1_r
I0420 17:28:28.714227 20613 net.cpp:141] Setting up conv1_r
I0420 17:28:28.714246 20613 net.cpp:148] Top shape: 128 128 9 58 (8552448)
I0420 17:28:28.714252 20613 net.cpp:156] Memory required for data: 148297216
I0420 17:28:28.714265 20613 layer_factory.hpp:77] Creating layer relu1_r
I0420 17:28:28.714279 20613 net.cpp:91] Creating Layer relu1_r
I0420 17:28:28.714287 20613 net.cpp:425] relu1_r <- conv1_r
I0420 17:28:28.714296 20613 net.cpp:386] relu1_r -> conv1_r (in-place)
I0420 17:28:28.714308 20613 net.cpp:141] Setting up relu1_r
I0420 17:28:28.714316 20613 net.cpp:148] Top shape: 128 128 9 58 (8552448)
I0420 17:28:28.714323 20613 net.cpp:156] Memory required for data: 182507008
I0420 17:28:28.714329 20613 layer_factory.hpp:77] Creating layer conv2_r
I0420 17:28:28.714344 20613 net.cpp:91] Creating Layer conv2_r
I0420 17:28:28.714351 20613 net.cpp:425] conv2_r <- conv1_r
I0420 17:28:28.714360 20613 net.cpp:399] conv2_r -> conv2_r
I0420 17:28:28.716272 20613 net.cpp:141] Setting up conv2_r
I0420 17:28:28.716290 20613 net.cpp:148] Top shape: 128 128 7 56 (6422528)
I0420 17:28:28.716297 20613 net.cpp:156] Memory required for data: 208197120
I0420 17:28:28.716312 20613 layer_factory.hpp:77] Creating layer pool2_r
I0420 17:28:28.716323 20613 net.cpp:91] Creating Layer pool2_r
I0420 17:28:28.716331 20613 net.cpp:425] pool2_r <- conv2_r
I0420 17:28:28.716341 20613 net.cpp:399] pool2_r -> pool2_r
I0420 17:28:28.716382 20613 net.cpp:141] Setting up pool2_r
I0420 17:28:28.716393 20613 net.cpp:148] Top shape: 128 128 4 28 (1835008)
I0420 17:28:28.716399 20613 net.cpp:156] Memory required for data: 215537152
I0420 17:28:28.716408 20613 layer_factory.hpp:77] Creating layer relu2_r
I0420 17:28:28.716418 20613 net.cpp:91] Creating Layer relu2_r
I0420 17:28:28.716424 20613 net.cpp:425] relu2_r <- pool2_r
I0420 17:28:28.716431 20613 net.cpp:386] relu2_r -> pool2_r (in-place)
I0420 17:28:28.716440 20613 net.cpp:141] Setting up relu2_r
I0420 17:28:28.716447 20613 net.cpp:148] Top shape: 128 128 4 28 (1835008)
I0420 17:28:28.716454 20613 net.cpp:156] Memory required for data: 222877184
I0420 17:28:28.716459 20613 layer_factory.hpp:77] Creating layer ip2_r
I0420 17:28:28.716475 20613 net.cpp:91] Creating Layer ip2_r
I0420 17:28:28.716481 20613 net.cpp:425] ip2_r <- pool2_r
I0420 17:28:28.716490 20613 net.cpp:399] ip2_r -> ip2_r
I0420 17:28:28.753026 20613 net.cpp:141] Setting up ip2_r
I0420 17:28:28.753052 20613 net.cpp:148] Top shape: 128 256 (32768)
I0420 17:28:28.753059 20613 net.cpp:156] Memory required for data: 223008256
I0420 17:28:28.753077 20613 layer_factory.hpp:77] Creating layer concat_ar
I0420 17:28:28.753096 20613 net.cpp:91] Creating Layer concat_ar
I0420 17:28:28.753106 20613 net.cpp:425] concat_ar <- ip2_a
I0420 17:28:28.753115 20613 net.cpp:425] concat_ar <- ip2_r
I0420 17:28:28.753123 20613 net.cpp:399] concat_ar -> ip2
I0420 17:28:28.753159 20613 net.cpp:141] Setting up concat_ar
I0420 17:28:28.753170 20613 net.cpp:148] Top shape: 128 512 (65536)
I0420 17:28:28.753176 20613 net.cpp:156] Memory required for data: 223270400
I0420 17:28:28.753185 20613 layer_factory.hpp:77] Creating layer relu2
I0420 17:28:28.753195 20613 net.cpp:91] Creating Layer relu2
I0420 17:28:28.753201 20613 net.cpp:425] relu2 <- ip2
I0420 17:28:28.753207 20613 net.cpp:386] relu2 -> ip2 (in-place)
I0420 17:28:28.753217 20613 net.cpp:141] Setting up relu2
I0420 17:28:28.753224 20613 net.cpp:148] Top shape: 128 512 (65536)
I0420 17:28:28.753231 20613 net.cpp:156] Memory required for data: 223532544
I0420 17:28:28.753237 20613 layer_factory.hpp:77] Creating layer ip3
I0420 17:28:28.753250 20613 net.cpp:91] Creating Layer ip3
I0420 17:28:28.753257 20613 net.cpp:425] ip3 <- ip2
I0420 17:28:28.753265 20613 net.cpp:399] ip3 -> ip3
I0420 17:28:28.753422 20613 net.cpp:141] Setting up ip3
I0420 17:28:28.753434 20613 net.cpp:148] Top shape: 128 11 (1408)
I0420 17:28:28.753443 20613 net.cpp:156] Memory required for data: 223538176
I0420 17:28:28.753453 20613 layer_factory.hpp:77] Creating layer loss
I0420 17:28:28.753470 20613 net.cpp:91] Creating Layer loss
I0420 17:28:28.753479 20613 net.cpp:425] loss <- ip3
I0420 17:28:28.753486 20613 net.cpp:425] loss <- label
I0420 17:28:28.753497 20613 net.cpp:399] loss -> loss
I0420 17:28:28.753537 20613 net.cpp:141] Setting up loss
…
