…
I0418 20:53:06.537719 22468 net.cpp:313] The NetState phase (0) differed from the phase (1) specified by a rule in layer acc10
I0418 20:53:06.537729 22468 net.cpp:313] The NetState phase (0) differed from the phase (1) specified by a rule in layer acc11
I0418 20:53:06.538094 22468 net.cpp:49] Initializing net from parameters: 
name: "SoundNet"
state {
  phase: TRAIN
}
layer {
  name: "data"
  type: "HDF5Data"
  top: "amsFeatures"
  top: "ratemap"
  top: "label"
  include {
    phase: TRAIN
  }
  hdf5_data_param {
    source: "/mnt/antares_raid/home/cindy/merope/experiments/twoears_data_train.txt"
    batch_size: 128
  }
}
layer {
  name: "conv1_a"
  type: "Convolution"
  bottom: "amsFeatures"
  top: "conv1_a"
  param {
    lr_mult: 1
    decay_mult: 1
  }
  param {
    lr_mult: 2
    decay_mult: 0
  }
  convolution_param {
    num_output: 128
    stride: 1
    weight_filler {
      type: "xavier"
    }
    bias_filler {
      type: "constant"
    }
    kernel_h: 8
    kernel_w: 6
  }
}
layer {
  name: "relu1_a"
  type: "ReLU"
  bottom: "conv1_a"
  top: "conv1_a"
}
layer {
  name: "conv2_a"
  type: "Convolution"
  bottom: "conv1_a"
  top: "conv2_a"
  param {
    lr_mult: 1
    decay_mult: 1
  }
  param {
    lr_mult: 2
    decay_mult: 0
  }
  convolution_param {
    num_output: 128
    stride: 1
    weight_filler {
      type: "xavier"
    }
    bias_filler {
      type: "constant"
    }
    kernel_h: 3
    kernel_w: 3
  }
}
layer {
  name: "pool2_a"
  type: "Pooling"
  bottom: "conv2_a"
  top: "pool2_a"
  pooling_param {
    pool: MAX
    kernel_size: 2
    stride: 2
  }
}
layer {
  name: "relu2_a"
  type: "ReLU"
  bottom: "pool2_a"
  top: "pool2_a"
}
layer {
  name: "ip2_a"
  type: "InnerProduct"
  bottom: "pool2_a"
  top: "ip2_a"
  param {
    lr_mult: 1
  }
  param {
    lr_mult: 2
  }
  inner_product_param {
    num_output: 256
    weight_filler {
      type: "xavier"
    }
    bias_filler {
      type: "constant"
    }
  }
}
layer {
  name: "conv1_r"
  type: "Convolution"
  bottom: "ratemap"
  top: "conv1_r"
  param {
    lr_mult: 1
    decay_mult: 1
  }
  param {
    lr_mult: 2
    decay_mult: 0
  }
  convolution_param {
    num_output: 128
    stride: 1
    weight_filler {
      type: "xavier"
    }
    bias_filler {
      type: "constant"
    }
    kernel_h: 8
    kernel_w: 6
  }
}
layer {
  name: "relu1_r"
  type: "ReLU"
  bottom: "conv1_r"
  top: "conv1_r"
}
layer {
  name: "conv2_r"
  type: "Convolution"
  bottom: "conv1_r"
  top: "conv2_r"
  param {
    lr_mult: 1
    decay_mult: 1
  }
  param {
    lr_mult: 2
    decay_mult: 0
  }
  convolution_param {
    num_output: 128
    stride: 1
    weight_filler {
      type: "xavier"
    }
    bias_filler {
      type: "constant"
    }
    kernel_h: 3
    kernel_w: 3
  }
}
layer {
  name: "pool2_r"
  type: "Pooling"
  bottom: "conv2_r"
  top: "pool2_r"
  pooling_param {
    pool: MAX
    kernel_size: 2
    stride: 2
  }
}
layer {
  name: "relu2_r"
  type: "ReLU"
  bottom: "pool2_r"
  top: "pool2_r"
}
layer {
  name: "ip2_r"
  type: "InnerProduct"
  bottom: "pool2_r"
  top: "ip2_r"
  param {
    lr_mult: 1
  }
  param {
    lr_mult: 2
  }
  inner_product_param {
    num_output: 256
    weight_filler {
      type: "xavier"
    }
    bias_filler {
      type: "constant"
    }
  }
}
layer {
  name: "concat_ar"
  type: "Concat"
  bottom: "ip2_a"
  bottom: "ip2_r"
  top: "ip2"
  concat_param {
    axis: 1
  }
}
layer {
  name: "relu2"
  type: "ReLU"
  bottom: "ip2"
  top: "ip2"
}
layer {
  name: "label_split"
  type: "Slice"
  bottom: "label"
  top: "label01"
  top: "label02"
  top: "label03"
  top: "label04"
  top: "label05"
  top: "label06"
  top: "label07"
  top: "label08"
  top: "label09"
  top: "label10"
  top: "label11"
  slice_param {
    slice_point: 1
    slice_point: 2
    slice_point: 3
    slice_point: 4
    slice_point: 5
    slice_point: 6
    slice_point: 7
    slice_point: 8
    slice_point: 9
    slice_point: 10
    axis: 2
  }
}
layer {
  name: "predict01"
  type: "InnerProduct"
  bottom: "ip2"
  top: "predict01"
  param {
    lr_mult: 1
  }
  param {
    lr_mult: 2
  }
  inner_product_param {
    num_output: 2
    weight_filler {
      type: "xavier"
    }
    bias_filler {
      type: "constant"
    }
  }
}
layer {
  name: "loss01"
  type: "SoftmaxWithLoss"
  bottom: "predict01"
  bottom: "label01"
  top: "loss01"
}
layer {
  name: "predict02"
  type: "InnerProduct"
  bottom: "ip2"
  top: "predict02"
  param {
    lr_mult: 1
  }
  param {
    lr_mult: 2
  }
  inner_product_param {
    num_output: 2
    weight_filler {
      type: "xavier"
    }
    bias_filler {
      type: "constant"
    }
  }
}
layer {
  name: "loss02"
  type: "SoftmaxWithLoss"
  bottom: "predict02"
  bottom: "label02"
  top: "loss02"
}
layer {
  name: "predict03"
  type: "InnerProduct"
  bottom: "ip2"
  top: "predict03"
  param {
    lr_mult: 1
  }
  param {
    lr_mult: 2
  }
  inner_product_param {
    num_output: 2
    weight_filler {
      type: "xavier"
    }
    bias_filler {
      type: "constant"
    }
  }
}
layer {
  name: "loss03"
  type: "SoftmaxWithLoss"
  bottom: "predict03"
  bottom: "label03"
  top: "loss03"
}
layer {
  name: "predict04"
  type: "InnerProduct"
  bottom: "ip2"
  top: "predict04"
  param {
    lr_mult: 1
  }
  param {
    lr_mult: 2
  }
  inner_product_param {
    num_output: 2
    weight_filler {
      type: "xavier"
    }
    bias_filler {
      type: "constant"
    }
  }
}
layer {
  name: "loss04"
  type: "SoftmaxWithLoss"
  bottom: "predict04"
  bottom: "label04"
  top: "loss04"
}
layer {
  name: "predict05"
  type: "InnerProduct"
  bottom: "ip2"
  top: "predict05"
  param {
    lr_mult: 1
  }
  param {
    lr_mult: 2
  }
  inner_product_param {
    num_output: 2
    weight_filler {
      type: "xavier"
    }
    bias_filler {
      type: "constant"
    }
  }
}
layer {
  name: "loss05"
  type: "SoftmaxWithLoss"
  bottom: "predict05"
  bottom: "label05"
  top: "loss05"
}
layer {
  name: "predict06"
  type: "InnerProduct"
  bottom: "ip2"
  top: "predict06"
  param {
    lr_mult: 1
  }
  param {
    lr_mult: 2
  }
  inner_product_param {
    num_output: 2
    weight_filler {
      type: "xavier"
    }
    bias_filler {
      type: "constant"
    }
  }
}
layer {
  name: "loss06"
  type: "SoftmaxWithLoss"
  bottom: "predict06"
  bottom: "label06"
  top: "loss06"
}
layer {
  name: "predict07"
  type: "InnerProduct"
  bottom: "ip2"
  top: "predict07"
  param {
    lr_mult: 1
  }
  param {
    lr_mult: 2
  }
  inner_product_param {
    num_output: 2
    weight_filler {
      type: "xavier"
    }
    bias_filler {
      type: "constant"
    }
  }
}
layer {
  name: "loss07"
  type: "SoftmaxWithLoss"
  bottom: "predict07"
  bottom: "label07"
  top: "loss07"
}
layer {
  name: "predict08"
  type: "InnerProduct"
  bottom: "ip2"
  top: "predict08"
  param {
    lr_mult: 1
  }
  param {
    lr_mult: 2
  }
  inner_product_param {
    num_output: 2
    weight_filler {
      type: "xavier"
    }
    bias_filler {
      type: "constant"
    }
  }
}
layer {
  name: "loss08"
  type: "SoftmaxWithLoss"
  bottom: "predict08"
  bottom: "label08"
  top: "loss08"
}
layer {
  name: "predict09"
  type: "InnerProduct"
  bottom: "ip2"
  top: "predict09"
  param {
    lr_mult: 1
  }
  param {
    lr_mult: 2
  }
  inner_product_param {
    num_output: 2
    weight_filler {
      type: "xavier"
    }
    bias_filler {
      type: "constant"
    }
  }
}
layer {
  name: "loss09"
  type: "SoftmaxWithLoss"
  bottom: "predict09"
  bottom: "label09"
  top: "loss09"
}
layer {
  name: "predict10"
  type: "InnerProduct"
  bottom: "ip2"
  top: "predict10"
  param {
    lr_mult: 1
  }
  param {
    lr_mult: 2
  }
  inner_product_param {
    num_output: 2
    weight_filler {
      type: "xavier"
    }
    bias_filler {
      type: "constant"
    }
  }
}
layer {
  name: "loss10"
  type: "SoftmaxWithLoss"
  bottom: "predict10"
  bottom: "label10"
  top: "loss10"
}
layer {
  name: "predict11"
  type: "InnerProduct"
  bottom: "ip2"
  top: "predict11"
  param {
    lr_mult: 1
  }
  param {
    lr_mult: 2
  }
  inner_product_param {
    num_output: 2
    weight_filler {
      type: "xavier"
    }
    bias_filler {
      type: "constant"
    }
  }
}
layer {
  name: "loss11"
  type: "SoftmaxWithLoss"
  bottom: "predict11"
  bottom: "label11"
  top: "loss11"
}
I0418 20:53:06.539538 22468 layer_factory.hpp:77] Creating layer data
I0418 20:53:06.539564 22468 net.cpp:91] Creating Layer data
I0418 20:53:06.539577 22468 net.cpp:399] data -> amsFeatures
I0418 20:53:06.539608 22468 net.cpp:399] data -> ratemap
I0418 20:53:06.539623 22468 net.cpp:399] data -> label
I0418 20:53:06.539639 22468 hdf5_data_layer.cpp:79] Loading list of HDF5 filenames from: /mnt/antares_raid/home/cindy/merope/experiments/twoears_data_train.txt
I0418 20:53:06.548425 22468 hdf5_data_layer.cpp:93] Number of HDF5 files: 5
I0418 20:53:07.097381 22468 hdf5.cpp:32] Datatype class: H5T_FLOAT
I0418 20:54:15.412421 22468 net.cpp:141] Setting up data
I0418 20:54:15.430887 22468 net.cpp:148] Top shape: 128 9 16 63 (1161216)
I0418 20:54:15.430917 22468 net.cpp:148] Top shape: 128 1 16 63 (129024)
I0418 20:54:15.430938 22468 net.cpp:148] Top shape: 128 1 11 1 (1408)
I0418 20:54:15.430956 22468 net.cpp:156] Memory required for data: 5166592
I0418 20:54:15.430974 22468 layer_factory.hpp:77] Creating layer conv1_a
I0418 20:54:15.431006 22468 net.cpp:91] Creating Layer conv1_a
I0418 20:54:15.431020 22468 net.cpp:425] conv1_a <- amsFeatures
I0418 20:54:15.431037 22468 net.cpp:399] conv1_a -> conv1_a
I0418 20:54:15.433174 22468 net.cpp:141] Setting up conv1_a
I0418 20:54:15.433209 22468 net.cpp:148] Top shape: 128 128 9 58 (8552448)
I0418 20:54:15.433225 22468 net.cpp:156] Memory required for data: 39376384
I0418 20:54:15.433264 22468 layer_factory.hpp:77] Creating layer relu1_a
I0418 20:54:15.433287 22468 net.cpp:91] Creating Layer relu1_a
I0418 20:54:15.433305 22468 net.cpp:425] relu1_a <- conv1_a
I0418 20:54:15.433323 22468 net.cpp:386] relu1_a -> conv1_a (in-place)
I0418 20:54:15.433351 22468 net.cpp:141] Setting up relu1_a
I0418 20:54:15.433370 22468 net.cpp:148] Top shape: 128 128 9 58 (8552448)
I0418 20:54:15.433384 22468 net.cpp:156] Memory required for data: 73586176
I0418 20:54:15.433400 22468 layer_factory.hpp:77] Creating layer conv2_a
I0418 20:54:15.433424 22468 net.cpp:91] Creating Layer conv2_a
I0418 20:54:15.433441 22468 net.cpp:425] conv2_a <- conv1_a
I0418 20:54:15.433461 22468 net.cpp:399] conv2_a -> conv2_a
I0418 20:54:15.436281 22468 net.cpp:141] Setting up conv2_a
I0418 20:54:15.436317 22468 net.cpp:148] Top shape: 128 128 7 56 (6422528)
I0418 20:54:15.436334 22468 net.cpp:156] Memory required for data: 99276288
I0418 20:54:15.436359 22468 layer_factory.hpp:77] Creating layer pool2_a
I0418 20:54:15.436384 22468 net.cpp:91] Creating Layer pool2_a
I0418 20:54:15.436401 22468 net.cpp:425] pool2_a <- conv2_a
I0418 20:54:15.436420 22468 net.cpp:399] pool2_a -> pool2_a
I0418 20:54:15.436537 22468 net.cpp:141] Setting up pool2_a
I0418 20:54:15.436564 22468 net.cpp:148] Top shape: 128 128 4 28 (1835008)
I0418 20:54:15.436580 22468 net.cpp:156] Memory required for data: 106616320
I0418 20:54:15.436596 22468 layer_factory.hpp:77] Creating layer relu2_a
I0418 20:54:15.436615 22468 net.cpp:91] Creating Layer relu2_a
I0418 20:54:15.436631 22468 net.cpp:425] relu2_a <- pool2_a
I0418 20:54:15.436650 22468 net.cpp:386] relu2_a -> pool2_a (in-place)
I0418 20:54:15.436672 22468 net.cpp:141] Setting up relu2_a
I0418 20:54:15.436691 22468 net.cpp:148] Top shape: 128 128 4 28 (1835008)
I0418 20:54:15.436707 22468 net.cpp:156] Memory required for data: 113956352
I0418 20:54:15.436722 22468 layer_factory.hpp:77] Creating layer ip2_a
I0418 20:54:15.436746 22468 net.cpp:91] Creating Layer ip2_a
I0418 20:54:15.436764 22468 net.cpp:425] ip2_a <- pool2_a
I0418 20:54:15.436784 22468 net.cpp:399] ip2_a -> ip2_a
I0418 20:54:15.466024 22468 net.cpp:141] Setting up ip2_a
I0418 20:54:15.466063 22468 net.cpp:148] Top shape: 128 256 (32768)
I0418 20:54:15.466071 22468 net.cpp:156] Memory required for data: 114087424
I0418 20:54:15.466090 22468 layer_factory.hpp:77] Creating layer conv1_r
I0418 20:54:15.466111 22468 net.cpp:91] Creating Layer conv1_r
I0418 20:54:15.466121 22468 net.cpp:425] conv1_r <- ratemap
I0418 20:54:15.466135 22468 net.cpp:399] conv1_r -> conv1_r
I0418 20:54:15.466924 22468 net.cpp:141] Setting up conv1_r
I0418 20:54:15.466946 22468 net.cpp:148] Top shape: 128 128 9 58 (8552448)
I0418 20:54:15.466954 22468 net.cpp:156] Memory required for data: 148297216
I0418 20:54:15.466966 22468 layer_factory.hpp:77] Creating layer relu1_r
I0418 20:54:15.466982 22468 net.cpp:91] Creating Layer relu1_r
I0418 20:54:15.466991 22468 net.cpp:425] relu1_r <- conv1_r
I0418 20:54:15.467001 22468 net.cpp:386] relu1_r -> conv1_r (in-place)
I0418 20:54:15.467013 22468 net.cpp:141] Setting up relu1_r
I0418 20:54:15.467022 22468 net.cpp:148] Top shape: 128 128 9 58 (8552448)
I0418 20:54:15.467030 22468 net.cpp:156] Memory required for data: 182507008
I0418 20:54:15.467036 22468 layer_factory.hpp:77] Creating layer conv2_r
I0418 20:54:15.467051 22468 net.cpp:91] Creating Layer conv2_r
I0418 20:54:15.467061 22468 net.cpp:425] conv2_r <- conv1_r
I0418 20:54:15.467072 22468 net.cpp:399] conv2_r -> conv2_r
I0418 20:54:15.468626 22468 net.cpp:141] Setting up conv2_r
I0418 20:54:15.468652 22468 net.cpp:148] Top shape: 128 128 7 56 (6422528)
I0418 20:54:15.468659 22468 net.cpp:156] Memory required for data: 208197120
I0418 20:54:15.468673 22468 layer_factory.hpp:77] Creating layer pool2_r
I0418 20:54:15.468686 22468 net.cpp:91] Creating Layer pool2_r
I0418 20:54:15.468694 22468 net.cpp:425] pool2_r <- conv2_r
I0418 20:54:15.468704 22468 net.cpp:399] pool2_r -> pool2_r
I0418 20:54:15.468752 22468 net.cpp:141] Setting up pool2_r
I0418 20:54:15.468768 22468 net.cpp:148] Top shape: 128 128 4 28 (1835008)
I0418 20:54:15.468776 22468 net.cpp:156] Memory required for data: 215537152
I0418 20:54:15.468783 22468 layer_factory.hpp:77] Creating layer relu2_r
I0418 20:54:15.468794 22468 net.cpp:91] Creating Layer relu2_r
I0418 20:54:15.468802 22468 net.cpp:425] relu2_r <- pool2_r
I0418 20:54:15.468814 22468 net.cpp:386] relu2_r -> pool2_r (in-place)
I0418 20:54:15.468825 22468 net.cpp:141] Setting up relu2_r
I0418 20:54:15.468835 22468 net.cpp:148] Top shape: 128 128 4 28 (1835008)
I0418 20:54:15.468842 22468 net.cpp:156] Memory required for data: 222877184
I0418 20:54:15.468850 22468 layer_factory.hpp:77] Creating layer ip2_r
I0418 20:54:15.468863 22468 net.cpp:91] Creating Layer ip2_r
I0418 20:54:15.468871 22468 net.cpp:425] ip2_r <- pool2_r
I0418 20:54:15.468883 22468 net.cpp:399] ip2_r -> ip2_r
I0418 20:54:15.496670 22468 net.cpp:141] Setting up ip2_r
I0418 20:54:15.496711 22468 net.cpp:148] Top shape: 128 256 (32768)
I0418 20:54:15.496719 22468 net.cpp:156] Memory required for data: 223008256
I0418 20:54:15.496733 22468 layer_factory.hpp:77] Creating layer concat_ar
I0418 20:54:15.496753 22468 net.cpp:91] Creating Layer concat_ar
I0418 20:54:15.496764 22468 net.cpp:425] concat_ar <- ip2_a
I0418 20:54:15.496775 22468 net.cpp:425] concat_ar <- ip2_r
I0418 20:54:15.496788 22468 net.cpp:399] concat_ar -> ip2
I0418 20:54:15.496826 22468 net.cpp:141] Setting up concat_ar
I0418 20:54:15.496843 22468 net.cpp:148] Top shape: 128 512 (65536)
I0418 20:54:15.496851 22468 net.cpp:156] Memory required for data: 223270400
I0418 20:54:15.496860 22468 layer_factory.hpp:77] Creating layer relu2
I0418 20:54:15.496870 22468 net.cpp:91] Creating Layer relu2
I0418 20:54:15.496877 22468 net.cpp:425] relu2 <- ip2
I0418 20:54:15.496886 22468 net.cpp:386] relu2 -> ip2 (in-place)
I0418 20:54:15.496898 22468 net.cpp:141] Setting up relu2
I0418 20:54:15.496907 22468 net.cpp:148] Top shape: 128 512 (65536)
I0418 20:54:15.496914 22468 net.cpp:156] Memory required for data: 223532544
I0418 20:54:15.496922 22468 layer_factory.hpp:77] Creating layer ip2_relu2_0_split
I0418 20:54:15.496934 22468 net.cpp:91] Creating Layer ip2_relu2_0_split
I0418 20:54:15.496942 22468 net.cpp:425] ip2_relu2_0_split <- ip2
I0418 20:54:15.496953 22468 net.cpp:399] ip2_relu2_0_split -> ip2_relu2_0_split_0
I0418 20:54:15.496966 22468 net.cpp:399] ip2_relu2_0_split -> ip2_relu2_0_split_1
I0418 20:54:15.496978 22468 net.cpp:399] ip2_relu2_0_split -> ip2_relu2_0_split_2
I0418 20:54:15.496989 22468 net.cpp:399] ip2_relu2_0_split -> ip2_relu2_0_split_3
I0418 20:54:15.496999 22468 net.cpp:399] ip2_relu2_0_split -> ip2_relu2_0_split_4
I0418 20:54:15.497011 22468 net.cpp:399] ip2_relu2_0_split -> ip2_relu2_0_split_5
I0418 20:54:15.497022 22468 net.cpp:399] ip2_relu2_0_split -> ip2_relu2_0_split_6
I0418 20:54:15.497033 22468 net.cpp:399] ip2_relu2_0_split -> ip2_relu2_0_split_7
I0418 20:54:15.497043 22468 net.cpp:399] ip2_relu2_0_split -> ip2_relu2_0_split_8
I0418 20:54:15.497054 22468 net.cpp:399] ip2_relu2_0_split -> ip2_relu2_0_split_9
I0418 20:54:15.497066 22468 net.cpp:399] ip2_relu2_0_split -> ip2_relu2_0_split_10
I0418 20:54:15.497202 22468 net.cpp:141] Setting up ip2_relu2_0_split
I0418 20:54:15.497217 22468 net.cpp:148] Top shape: 128 512 (65536)
I0418 20:54:15.497225 22468 net.cpp:148] Top shape: 128 512 (65536)
I0418 20:54:15.497234 22468 net.cpp:148] Top shape: 128 512 (65536)
I0418 20:54:15.497242 22468 net.cpp:148] Top shape: 128 512 (65536)
I0418 20:54:15.497251 22468 net.cpp:148] Top shape: 128 512 (65536)
I0418 20:54:15.497259 22468 net.cpp:148] Top shape: 128 512 (65536)
I0418 20:54:15.497267 22468 net.cpp:148] Top shape: 128 512 (65536)
I0418 20:54:15.497275 22468 net.cpp:148] Top shape: 128 512 (65536)
I0418 20:54:15.497283 22468 net.cpp:148] Top shape: 128 512 (65536)
I0418 20:54:15.497292 22468 net.cpp:148] Top shape: 128 512 (65536)
I0418 20:54:15.497299 22468 net.cpp:148] Top shape: 128 512 (65536)
I0418 20:54:15.497306 22468 net.cpp:156] Memory required for data: 226416128
I0418 20:54:15.497314 22468 layer_factory.hpp:77] Creating layer label_split
I0418 20:54:15.497334 22468 net.cpp:91] Creating Layer label_split
I0418 20:54:15.497344 22468 net.cpp:425] label_split <- label
I0418 20:54:15.497354 22468 net.cpp:399] label_split -> label01
I0418 20:54:15.497370 22468 net.cpp:399] label_split -> label02
I0418 20:54:15.497381 22468 net.cpp:399] label_split -> label03
I0418 20:54:15.497393 22468 net.cpp:399] label_split -> label04
I0418 20:54:15.497405 22468 net.cpp:399] label_split -> label05
I0418 20:54:15.497416 22468 net.cpp:399] label_split -> label06
I0418 20:54:15.497426 22468 net.cpp:399] label_split -> label07
I0418 20:54:15.497439 22468 net.cpp:399] label_split -> label08
I0418 20:54:15.497452 22468 net.cpp:399] label_split -> label09
I0418 20:54:15.497463 22468 net.cpp:399] label_split -> label10
I0418 20:54:15.497476 22468 net.cpp:399] label_split -> label11
I0418 20:54:15.497620 22468 net.cpp:141] Setting up label_split
I0418 20:54:15.497637 22468 net.cpp:148] Top shape: 128 1 1 1 (128)
I0418 20:54:15.497645 22468 net.cpp:148] Top shape: 128 1 1 1 (128)
I0418 20:54:15.497653 22468 net.cpp:148] Top shape: 128 1 1 1 (128)
I0418 20:54:15.497661 22468 net.cpp:148] Top shape: 128 1 1 1 (128)
I0418 20:54:15.497669 22468 net.cpp:148] Top shape: 128 1 1 1 (128)
I0418 20:54:15.497678 22468 net.cpp:148] Top shape: 128 1 1 1 (128)
I0418 20:54:15.497685 22468 net.cpp:148] Top shape: 128 1 1 1 (128)
I0418 20:54:15.497694 22468 net.cpp:148] Top shape: 128 1 1 1 (128)
I0418 20:54:15.497701 22468 net.cpp:148] Top shape: 128 1 1 1 (128)
I0418 20:54:15.497710 22468 net.cpp:148] Top shape: 128 1 1 1 (128)
I0418 20:54:15.497719 22468 net.cpp:148] Top shape: 128 1 1 1 (128)
I0418 20:54:15.497725 22468 net.cpp:156] Memory required for data: 226421760
I0418 20:54:15.497732 22468 layer_factory.hpp:77] Creating layer predict01
I0418 20:54:15.497745 22468 net.cpp:91] Creating Layer predict01
I0418 20:54:15.497753 22468 net.cpp:425] predict01 <- ip2_relu2_0_split_0
I0418 20:54:15.497764 22468 net.cpp:399] predict01 -> predict01
I0418 20:54:15.497884 22468 net.cpp:141] Setting up predict01
I0418 20:54:15.497900 22468 net.cpp:148] Top shape: 128 2 (256)
I0418 20:54:15.497906 22468 net.cpp:156] Memory required for data: 226422784
I0418 20:54:15.497917 22468 layer_factory.hpp:77] Creating layer loss01
I0418 20:54:15.497931 22468 net.cpp:91] Creating Layer loss01
I0418 20:54:15.497941 22468 net.cpp:425] loss01 <- predict01
I0418 20:54:15.497951 22468 net.cpp:425] loss01 <- label01
I0418 20:54:15.497961 22468 net.cpp:399] loss01 -> loss01
I0418 20:54:15.497978 22468 layer_factory.hpp:77] Creating layer loss01
I0418 20:54:15.498072 22468 net.cpp:141] Setting up loss01
I0418 20:54:15.498088 22468 net.cpp:148] Top shape: (1)
I0418 20:54:15.498095 22468 net.cpp:151]     with loss weight 1
I0418 20:54:15.535490 22468 net.cpp:156] Memory required for data: 226422788
I0418 20:54:15.535511 22468 layer_factory.hpp:77] Creating layer predict02
I0418 20:54:15.535537 22468 net.cpp:91] Creating Layer predict02
I0418 20:54:15.535547 22468 net.cpp:425] predict02 <- ip2_relu2_0_split_1
I0418 20:54:15.535557 22468 net.cpp:399] predict02 -> predict02
I0418 20:54:15.535675 22468 net.cpp:141] Setting up predict02
I0418 20:54:15.535691 22468 net.cpp:148] Top shape: 128 2 (256)
I0418 20:54:15.535699 22468 net.cpp:156] Memory required for data: 226423812
I0418 20:54:15.535713 22468 layer_factory.hpp:77] Creating layer loss02
I0418 20:54:15.535724 22468 net.cpp:91] Creating Layer loss02
I0418 20:54:15.535733 22468 net.cpp:425] loss02 <- predict02
I0418 20:54:15.535742 22468 net.cpp:425] loss02 <- label02
I0418 20:54:15.535753 22468 net.cpp:399] loss02 -> loss02
I0418 20:54:15.535765 22468 layer_factory.hpp:77] Creating layer loss02
I0418 20:54:15.535845 22468 net.cpp:141] Setting up loss02
I0418 20:54:15.535861 22468 net.cpp:148] Top shape: (1)
I0418 20:54:15.535868 22468 net.cpp:151]     with loss weight 1
I0418 20:54:15.535879 22468 net.cpp:156] Memory required for data: 226423816
I0418 20:54:15.535887 22468 layer_factory.hpp:77] Creating layer predict03
I0418 20:54:15.535899 22468 net.cpp:91] Creating Layer predict03
I0418 20:54:15.535907 22468 net.cpp:425] predict03 <- ip2_relu2_0_split_2
I0418 20:54:15.535922 22468 net.cpp:399] predict03 -> predict03
I0418 20:54:15.536026 22468 net.cpp:141] Setting up predict03
I0418 20:54:15.536042 22468 net.cpp:148] Top shape: 128 2 (256)
I0418 20:54:15.536051 22468 net.cpp:156] Memory required for data: 226424840
I0418 20:54:15.536067 22468 layer_factory.hpp:77] Creating layer loss03
I0418 20:54:15.536079 22468 net.cpp:91] Creating Layer loss03
I0418 20:54:15.536087 22468 net.cpp:425] loss03 <- predict03
I0418 20:54:15.536097 22468 net.cpp:425] loss03 <- label03
I0418 20:54:15.536106 22468 net.cpp:399] loss03 -> loss03
I0418 20:54:15.536119 22468 layer_factory.hpp:77] Creating layer loss03
I0418 20:54:15.536206 22468 net.cpp:141] Setting up loss03
I0418 20:54:15.536221 22468 net.cpp:148] Top shape: (1)
I0418 20:54:15.536228 22468 net.cpp:151]     with loss weight 1
I0418 20:54:15.536239 22468 net.cpp:156] Memory required for data: 226424844
I0418 20:54:15.536247 22468 layer_factory.hpp:77] Creating layer predict04
I0418 20:54:15.536259 22468 net.cpp:91] Creating Layer predict04
I0418 20:54:15.536267 22468 net.cpp:425] predict04 <- ip2_relu2_0_split_3
I0418 20:54:15.536279 22468 net.cpp:399] predict04 -> predict04
I0418 20:54:15.536382 22468 net.cpp:141] Setting up predict04
I0418 20:54:15.536398 22468 net.cpp:148] Top shape: 128 2 (256)
I0418 20:54:15.536406 22468 net.cpp:156] Memory required for data: 226425868
I0418 20:54:15.536417 22468 layer_factory.hpp:77] Creating layer loss04
I0418 20:54:15.536427 22468 net.cpp:91] Creating Layer loss04
I0418 20:54:15.536437 22468 net.cpp:425] loss04 <- predict04
I0418 20:54:15.536445 22468 net.cpp:425] loss04 <- label04
I0418 20:54:15.536454 22468 net.cpp:399] loss04 -> loss04
I0418 20:54:15.536475 22468 layer_factory.hpp:77] Creating layer loss04
I0418 20:54:15.536557 22468 net.cpp:141] Setting up loss04
I0418 20:54:15.536572 22468 net.cpp:148] Top shape: (1)
I0418 20:54:15.536579 22468 net.cpp:151]     with loss weight 1
I0418 20:54:15.536591 22468 net.cpp:156] Memory required for data: 226425872
I0418 20:54:15.536599 22468 layer_factory.hpp:77] Creating layer predict05
I0418 20:54:15.536610 22468 net.cpp:91] Creating Layer predict05
I0418 20:54:15.536618 22468 net.cpp:425] predict05 <- ip2_relu2_0_split_4
I0418 20:54:15.536631 22468 net.cpp:399] predict05 -> predict05
I0418 20:54:15.536737 22468 net.cpp:141] Setting up predict05
I0418 20:54:15.536753 22468 net.cpp:148] Top shape: 128 2 (256)
I0418 20:54:15.536761 22468 net.cpp:156] Memory required for data: 226426896
I0418 20:54:15.536772 22468 layer_factory.hpp:77] Creating layer loss05
I0418 20:54:15.536784 22468 net.cpp:91] Creating Layer loss05
I0418 20:54:15.536793 22468 net.cpp:425] loss05 <- predict05
I0418 20:54:15.536803 22468 net.cpp:425] loss05 <- label05
I0418 20:54:15.536813 22468 net.cpp:399] loss05 -> loss05
I0418 20:54:15.536825 22468 layer_factory.hpp:77] Creating layer loss05
I0418 20:54:15.536906 22468 net.cpp:141] Setting up loss05
I0418 20:54:15.536921 22468 net.cpp:148] Top shape: (1)
I0418 20:54:15.536927 22468 net.cpp:151]     with loss weight 1
I0418 20:54:15.536938 22468 net.cpp:156] Memory required for data: 226426900
I0418 20:54:15.536947 22468 layer_factory.hpp:77] Creating layer predict06
I0418 20:54:15.536963 22468 net.cpp:91] Creating Layer predict06
I0418 20:54:15.536972 22468 net.cpp:425] predict06 <- ip2_relu2_0_split_5
I0418 20:54:15.536984 22468 net.cpp:399] predict06 -> predict06
I0418 20:54:15.537091 22468 net.cpp:141] Setting up predict06
I0418 20:54:15.537107 22468 net.cpp:148] Top shape: 128 2 (256)
I0418 20:54:15.537116 22468 net.cpp:156] Memory required for data: 226427924
I0418 20:54:15.537127 22468 layer_factory.hpp:77] Creating layer loss06
I0418 20:54:15.537137 22468 net.cpp:91] Creating Layer loss06
I0418 20:54:15.537145 22468 net.cpp:425] loss06 <- predict06
I0418 20:54:15.537154 22468 net.cpp:425] loss06 <- label06
I0418 20:54:15.537164 22468 net.cpp:399] loss06 -> loss06
I0418 20:54:15.537176 22468 layer_factory.hpp:77] Creating layer loss06
I0418 20:54:15.537257 22468 net.cpp:141] Setting up loss06
I0418 20:54:15.537271 22468 net.cpp:148] Top shape: (1)
I0418 20:54:15.537279 22468 net.cpp:151]     with loss weight 1
I0418 20:54:15.537289 22468 net.cpp:156] Memory required for data: 226427928
I0418 20:54:15.537298 22468 layer_factory.hpp:77] Creating layer predict07
I0418 20:54:15.537309 22468 net.cpp:91] Creating Layer predict07
I0418 20:54:15.537317 22468 net.cpp:425] predict07 <- ip2_relu2_0_split_6
I0418 20:54:15.537331 22468 net.cpp:399] predict07 -> predict07
I0418 20:54:15.537437 22468 net.cpp:141] Setting up predict07
I0418 20:54:15.537453 22468 net.cpp:148] Top shape: 128 2 (256)
I0418 20:54:15.537461 22468 net.cpp:156] Memory required for data: 226428952
I0418 20:54:15.537472 22468 layer_factory.hpp:77] Creating layer loss07
I0418 20:54:15.537484 22468 net.cpp:91] Creating Layer loss07
I0418 20:54:15.537492 22468 net.cpp:425] loss07 <- predict07
I0418 20:54:15.537503 22468 net.cpp:425] loss07 <- label07
I0418 20:54:15.537511 22468 net.cpp:399] loss07 -> loss07
I0418 20:54:15.537524 22468 layer_factory.hpp:77] Creating layer loss07
I0418 20:54:15.537606 22468 net.cpp:141] Setting up loss07
I0418 20:54:15.537619 22468 net.cpp:148] Top shape: (1)
I0418 20:54:15.537627 22468 net.cpp:151]     with loss weight 1
I0418 20:54:15.537637 22468 net.cpp:156] Memory required for data: 226428956
I0418 20:54:15.537647 22468 layer_factory.hpp:77] Creating layer predict08
I0418 20:54:15.537660 22468 net.cpp:91] Creating Layer predict08
I0418 20:54:15.537669 22468 net.cpp:425] predict08 <- ip2_relu2_0_split_7
I0418 20:54:15.537680 22468 net.cpp:399] predict08 -> predict08
I0418 20:54:15.537786 22468 net.cpp:141] Setting up predict08
I0418 20:54:15.537801 22468 net.cpp:148] Top shape: 128 2 (256)
I0418 20:54:15.537807 22468 net.cpp:156] Memory required for data: 226429980
I0418 20:54:15.537818 22468 layer_factory.hpp:77] Creating layer loss08
I0418 20:54:15.537832 22468 net.cpp:91] Creating Layer loss08
I0418 20:54:15.537840 22468 net.cpp:425] loss08 <- predict08
I0418 20:54:15.537849 22468 net.cpp:425] loss08 <- label08
I0418 20:54:15.537863 22468 net.cpp:399] loss08 -> loss08
I0418 20:54:15.537876 22468 layer_factory.hpp:77] Creating layer loss08
I0418 20:54:15.537956 22468 net.cpp:141] Setting up loss08
I0418 20:54:15.537971 22468 net.cpp:148] Top shape: (1)
I0418 20:54:15.537978 22468 net.cpp:151]     with loss weight 1
I0418 20:54:15.537988 22468 net.cpp:156] Memory required for data: 226429984
I0418 20:54:15.537997 22468 layer_factory.hpp:77] Creating layer predict09
I0418 20:54:15.538008 22468 net.cpp:91] Creating Layer predict09
I0418 20:54:15.538017 22468 net.cpp:425] predict09 <- ip2_relu2_0_split_8
I0418 20:54:15.538030 22468 net.cpp:399] predict09 -> predict09
I0418 20:54:15.538136 22468 net.cpp:141] Setting up predict09
I0418 20:54:15.538152 22468 net.cpp:148] Top shape: 128 2 (256)
I0418 20:54:15.538159 22468 net.cpp:156] Memory required for data: 226431008
I0418 20:54:15.538171 22468 layer_factory.hpp:77] Creating layer loss09
I0418 20:54:15.538182 22468 net.cpp:91] Creating Layer loss09
I0418 20:54:15.538189 22468 net.cpp:425] loss09 <- predict09
I0418 20:54:15.538198 22468 net.cpp:425] loss09 <- label09
I0418 20:54:15.538208 22468 net.cpp:399] loss09 -> loss09
I0418 20:54:15.538220 22468 layer_factory.hpp:77] Creating layer loss09
I0418 20:54:15.538305 22468 net.cpp:141] Setting up loss09
I0418 20:54:15.538319 22468 net.cpp:148] Top shape: (1)
I0418 20:54:15.538327 22468 net.cpp:151]     with loss weight 1
I0418 20:54:15.538337 22468 net.cpp:156] Memory required for data: 226431012
I0418 20:54:15.538347 22468 layer_factory.hpp:77] Creating layer predict10
I0418 20:54:15.538357 22468 net.cpp:91] Creating Layer predict10
I0418 20:54:15.538367 22468 net.cpp:425] predict10 <- ip2_relu2_0_split_9
I0418 20:54:15.538378 22468 net.cpp:399] predict10 -> predict10
I0418 20:54:15.538481 22468 net.cpp:141] Setting up predict10
I0418 20:54:15.538496 22468 net.cpp:148] Top shape: 128 2 (256)
I0418 20:54:15.538504 22468 net.cpp:156] Memory required for data: 226432036
I0418 20:54:15.538516 22468 layer_factory.hpp:77] Creating layer loss10
I0418 20:54:15.538525 22468 net.cpp:91] Creating Layer loss10
I0418 20:54:15.538533 22468 net.cpp:425] loss10 <- predict10
I0418 20:54:15.538542 22468 net.cpp:425] loss10 <- label10
I0418 20:54:15.538552 22468 net.cpp:399] loss10 -> loss10
I0418 20:54:15.538564 22468 layer_factory.hpp:77] Creating layer loss10
I0418 20:54:15.538643 22468 net.cpp:141] Setting up loss10
I0418 20:54:15.538658 22468 net.cpp:148] Top shape: (1)
I0418 20:54:15.538666 22468 net.cpp:151]     with loss weight 1
I0418 20:54:15.538676 22468 net.cpp:156] Memory required for data: 226432040
I0418 20:54:15.538684 22468 layer_factory.hpp:77] Creating layer predict11
I0418 20:54:15.538697 22468 net.cpp:91] Creating Layer predict11
I0418 20:54:15.538704 22468 net.cpp:425] predict11 <- ip2_relu2_0_split_10
I0418 20:54:15.538717 22468 net.cpp:399] predict11 -> predict11
I0418 20:54:15.538822 22468 net.cpp:141] Setting up predict11
I0418 20:54:15.538838 22468 net.cpp:148] Top shape: 128 2 (256)
I0418 20:54:15.538846 22468 net.cpp:156] Memory required for data: 226433064
I0418 20:54:15.538864 22468 layer_factory.hpp:77] Creating layer loss11
I0418 20:54:15.538877 22468 net.cpp:91] Creating Layer loss11
I0418 20:54:15.538887 22468 net.cpp:425] loss11 <- predict11
I0418 20:54:15.538895 22468 net.cpp:425] loss11 <- label11
I0418 20:54:15.538905 22468 net.cpp:399] loss11 -> loss11
I0418 20:54:15.538918 22468 layer_factory.hpp:77] Creating layer loss11
…
I0418 20:54:15.542913 22468 solver.cpp:181] Creating test net (#0) specified by net file: /mnt/antares_raid/home/cindy/merope/experiments/16/train_val_acc_no_drop.prototxt
I0418 20:54:15.542985 22468 net.cpp:313] The NetState phase (1) differed from the phase (0) specified by a rule in layer data
I0418 20:54:15.543804 22468 net.cpp:49] Initializing net from parameters: 
name: "SoundNet"
state {
  phase: TEST
}
layer {
  name: "data"
  type: "HDF5Data"
  top: "amsFeatures"
  top: "ratemap"
  top: "label"
  include {
    phase: TEST
  }
  hdf5_data_param {
    source: "/mnt/antares_raid/home/cindy/merope/experiments/twoears_data_test.txt"
    batch_size: 128
  }
}
layer {
  name: "conv1_a"
  type: "Convolution"
  bottom: "amsFeatures"
  top: "conv1_a"
  param {
    lr_mult: 1
    decay_mult: 1
  }
  param {
    lr_mult: 2
    decay_mult: 0
  }
  convolution_param {
    num_output: 128
    stride: 1
    weight_filler {
      type: "xavier"
    }
    bias_filler {
      type: "constant"
    }
    kernel_h: 8
    kernel_w: 6
  }
}
layer {
  name: "relu1_a"
  type: "ReLU"
  bottom: "conv1_a"
  top: "conv1_a"
}
layer {
  name: "conv2_a"
  type: "Convolution"
  bottom: "conv1_a"
  top: "conv2_a"
  param {
    lr_mult: 1
    decay_mult: 1
  }
  param {
    lr_mult: 2
    decay_mult: 0
  }
  convolution_param {
    num_output: 128
    stride: 1
    weight_filler {
      type: "xavier"
    }
    bias_filler {
      type: "constant"
    }
    kernel_h: 3
    kernel_w: 3
  }
}
layer {
  name: "pool2_a"
  type: "Pooling"
  bottom: "conv2_a"
  top: "pool2_a"
  pooling_param {
    pool: MAX
    kernel_size: 2
    stride: 2
  }
}
layer {
  name: "relu2_a"
  type: "ReLU"
  bottom: "pool2_a"
  top: "pool2_a"
}
layer {
  name: "ip2_a"
  type: "InnerProduct"
  bottom: "pool2_a"
  top: "ip2_a"
  param {
    lr_mult: 1
  }
  param {
    lr_mult: 2
  }
  inner_product_param {
    num_output: 256
    weight_filler {
      type: "xavier"
    }
    bias_filler {
      type: "constant"
    }
  }
}
layer {
  name: "conv1_r"
  type: "Convolution"
  bottom: "ratemap"
  top: "conv1_r"
  param {
    lr_mult: 1
    decay_mult: 1
  }
  param {
    lr_mult: 2
    decay_mult: 0
  }
  convolution_param {
    num_output: 128
    stride: 1
    weight_filler {
      type: "xavier"
    }
    bias_filler {
      type: "constant"
    }
    kernel_h: 8
    kernel_w: 6
  }
}
layer {
  name: "relu1_r"
  type: "ReLU"
  bottom: "conv1_r"
  top: "conv1_r"
}
layer {
  name: "conv2_r"
  type: "Convolution"
  bottom: "conv1_r"
  top: "conv2_r"
  param {
    lr_mult: 1
    decay_mult: 1
  }
  param {
    lr_mult: 2
    decay_mult: 0
  }
  convolution_param {
    num_output: 128
    stride: 1
    weight_filler {
      type: "xavier"
    }
    bias_filler {
      type: "constant"
    }
    kernel_h: 3
    kernel_w: 3
  }
}
layer {
  name: "pool2_r"
  type: "Pooling"
  bottom: "conv2_r"
  top: "pool2_r"
  pooling_param {
    pool: MAX
    kernel_size: 2
    stride: 2
  }
}
layer {
  name: "relu2_r"
  type: "ReLU"
  bottom: "pool2_r"
  top: "pool2_r"
}
layer {
  name: "ip2_r"
  type: "InnerProduct"
  bottom: "pool2_r"
  top: "ip2_r"
  param {
    lr_mult: 1
  }
  param {
    lr_mult: 2
  }
  inner_product_param {
    num_output: 256
    weight_filler {
      type: "xavier"
    }
    bias_filler {
      type: "constant"
    }
  }
}
layer {
  name: "concat_ar"
  type: "Concat"
  bottom: "ip2_a"
  bottom: "ip2_r"
  top: "ip2"
  concat_param {
    axis: 1
  }
}
layer {
  name: "relu2"
  type: "ReLU"
  bottom: "ip2"
  top: "ip2"
}
layer {
  name: "label_split"
  type: "Slice"
  bottom: "label"
  top: "label01"
  top: "label02"
  top: "label03"
  top: "label04"
  top: "label05"
  top: "label06"
  top: "label07"
  top: "label08"
  top: "label09"
  top: "label10"
  top: "label11"
  slice_param {
    slice_point: 1
    slice_point: 2
    slice_point: 3
    slice_point: 4
    slice_point: 5
    slice_point: 6
    slice_point: 7
    slice_point: 8
    slice_point: 9
    slice_point: 10
    axis: 2
  }
}
layer {
  name: "predict01"
  type: "InnerProduct"
  bottom: "ip2"
  top: "predict01"
  param {
    lr_mult: 1
  }
  param {
    lr_mult: 2
  }
  inner_product_param {
    num_output: 2
    weight_filler {
      type: "xavier"
    }
    bias_filler {
      type: "constant"
    }
  }
}
layer {
  name: "loss01"
  type: "SoftmaxWithLoss"
  bottom: "predict01"
  bottom: "label01"
  top: "loss01"
}
layer {
  name: "acc01"
  type: "Accuracy"
  bottom: "predict01"
  bottom: "label01"
  top: "acc01"
  include {
    phase: TEST
  }
}
layer {
  name: "predict02"
  type: "InnerProduct"
  bottom: "ip2"
  top: "predict02"
  param {
    lr_mult: 1
  }
  param {
    lr_mult: 2
  }
  inner_product_param {
    num_output: 2
    weight_filler {
      type: "xavier"
    }
    bias_filler {
      type: "constant"
    }
  }
}
layer {
  name: "loss02"
  type: "SoftmaxWithLoss"
  bottom: "predict02"
  bottom: "label02"
  top: "loss02"
}
layer {
  name: "acc02"
  type: "Accuracy"
  bottom: "predict02"
  bottom: "label02"
  top: "acc02"
  include {
    phase: TEST
  }
}
layer {
  name: "predict03"
  type: "InnerProduct"
  bottom: "ip2"
  top: "predict03"
  param {
    lr_mult: 1
  }
  param {
    lr_mult: 2
  }
  inner_product_param {
    num_output: 2
    weight_filler {
      type: "xavier"
    }
    bias_filler {
      type: "constant"
    }
  }
}
layer {
  name: "loss03"
  type: "SoftmaxWithLoss"
  bottom: "predict03"
  bottom: "label03"
  top: "loss03"
}
layer {
  name: "acc03"
  type: "Accuracy"
  bottom: "predict03"
  bottom: "label03"
  top: "acc03"
  include {
    phase: TEST
  }
}
layer {
  name: "predict04"
  type: "InnerProduct"
  bottom: "ip2"
  top: "predict04"
  param {
    lr_mult: 1
  }
  param {
    lr_mult: 2
  }
  inner_product_param {
    num_output: 2
    weight_filler {
      type: "xavier"
    }
    bias_filler {
      type: "constant"
    }
  }
}
layer {
  name: "loss04"
  type: "SoftmaxWithLoss"
  bottom: "predict04"
  bottom: "label04"
  top: "loss04"
}
layer {
  name: "acc04"
  type: "Accuracy"
  bottom: "predict04"
  bottom: "label04"
  top: "acc04"
  include {
    phase: TEST
  }
}
layer {
  name: "predict05"
  type: "InnerProduct"
  bottom: "ip2"
  top: "predict05"
  param {
    lr_mult: 1
  }
  param {
    lr_mult: 2
  }
  inner_product_param {
    num_output: 2
    weight_filler {
      type: "xavier"
    }
    bias_filler {
      type: "constant"
    }
  }
}
layer {
  name: "loss05"
  type: "SoftmaxWithLoss"
  bottom: "predict05"
  bottom: "label05"
  top: "loss05"
}
layer {
  name: "acc05"
  type: "Accuracy"
  bottom: "predict05"
  bottom: "label05"
  top: "acc05"
  include {
    phase: TEST
  }
}
layer {
  name: "predict06"
  type: "InnerProduct"
  bottom: "ip2"
  top: "predict06"
  param {
    lr_mult: 1
  }
  param {
    lr_mult: 2
  }
  inner_product_param {
    num_output: 2
    weight_filler {
      type: "xavier"
    }
    bias_filler {
      type: "constant"
    }
  }
}
layer {
  name: "loss06"
  type: "SoftmaxWithLoss"
  bottom: "predict06"
  bottom: "label06"
  top: "loss06"
}
layer {
  name: "acc06"
  type: "Accuracy"
  bottom: "predict06"
  bottom: "label06"
  top: "acc06"
  include {
    phase: TEST
  }
}
layer {
  name: "predict07"
  type: "InnerProduct"
  bottom: "ip2"
  top: "predict07"
  param {
    lr_mult: 1
  }
  param {
    lr_mult: 2
  }
  inner_product_param {
    num_output: 2
    weight_filler {
      type: "xavier"
    }
    bias_filler {
      type: "constant"
    }
  }
}
layer {
  name: "loss07"
  type: "SoftmaxWithLoss"
  bottom: "predict07"
  bottom: "label07"
  top: "loss07"
}
layer {
  name: "acc07"
  type: "Accuracy"
  bottom: "predict07"
  bottom: "label07"
  top: "acc07"
  include {
    phase: TEST
  }
}
layer {
  name: "predict08"
  type: "InnerProduct"
  bottom: "ip2"
  top: "predict08"
  param {
    lr_mult: 1
  }
  param {
    lr_mult: 2
  }
  inner_product_param {
    num_output: 2
    weight_filler {
      type: "xavier"
    }
    bias_filler {
      type: "constant"
    }
  }
}
layer {
  name: "loss08"
  type: "SoftmaxWithLoss"
  bottom: "predict08"
  bottom: "label08"
  top: "loss08"
}
layer {
  name: "acc08"
  type: "Accuracy"
  bottom: "predict08"
  bottom: "label08"
  top: "acc08"
  include {
    phase: TEST
  }
}
layer {
  name: "predict09"
  type: "InnerProduct"
  bottom: "ip2"
  top: "predict09"
  param {
    lr_mult: 1
  }
  param {
    lr_mult: 2
  }
  inner_product_param {
    num_output: 2
    weight_filler {
      type: "xavier"
    }
    bias_filler {
      type: "constant"
    }
  }
}
layer {
  name: "loss09"
  type: "SoftmaxWithLoss"
  bottom: "predict09"
  bottom: "label09"
  top: "loss09"
}
layer {
  name: "acc09"
  type: "Accuracy"
  bottom: "predict09"
  bottom: "label09"
  top: "acc09"
  include {
    phase: TEST
  }
}
layer {
  name: "predict10"
  type: "InnerProduct"
  bottom: "ip2"
  top: "predict10"
  param {
    lr_mult: 1
  }
  param {
    lr_mult: 2
  }
  inner_product_param {
    num_output: 2
    weight_filler {
      type: "xavier"
    }
    bias_filler {
      type: "constant"
    }
  }
}
layer {
  name: "loss10"
  type: "SoftmaxWithLoss"
  bottom: "predict10"
  bottom: "label10"
  top: "loss10"
}
layer {
  name: "acc10"
  type: "Accuracy"
  bottom: "predict10"
  bottom: "label10"
  top: "acc10"
  include {
    phase: TEST
  }
}
layer {
  name: "predict11"
  type: "InnerProduct"
  bottom: "ip2"
  top: "predict11"
  param {
    lr_mult: 1
  }
  param {
    lr_mult: 2
  }
  inner_product_param {
    num_output: 2
    weight_filler {
      type: "xavier"
    }
    bias_filler {
      type: "constant"
    }
  }
}
layer {
  name: "loss11"
  type: "SoftmaxWithLoss"
  bottom: "predict11"
  bottom: "label11"
  top: "loss11"
}
layer {
  name: "acc11"
  type: "Accuracy"
  bottom: "predict11"
  bottom: "label11"
  top: "acc11"
  include {
    phase: TEST
  }
}
I0418 20:54:15.544832 22468 layer_factory.hpp:77] Creating layer data
I0418 20:54:15.544855 22468 net.cpp:91] Creating Layer data
I0418 20:54:15.544867 22468 net.cpp:399] data -> amsFeatures
I0418 20:54:15.544884 22468 net.cpp:399] data -> ratemap
I0418 20:54:15.544898 22468 net.cpp:399] data -> label
I0418 20:54:15.544914 22468 hdf5_data_layer.cpp:79] Loading list of HDF5 filenames from: /mnt/antares_raid/home/cindy/merope/experiments/twoears_data_test.txt
I0418 20:54:15.553794 22468 hdf5_data_layer.cpp:93] Number of HDF5 files: 2
I0418 20:55:27.024175 22468 net.cpp:141] Setting up data
I0418 20:55:27.024734 22468 net.cpp:148] Top shape: 128 9 16 63 (1161216)
I0418 20:55:27.024752 22468 net.cpp:148] Top shape: 128 1 16 63 (129024)
I0418 20:55:27.024763 22468 net.cpp:148] Top shape: 128 1 11 1 (1408)
I0418 20:55:27.024771 22468 net.cpp:156] Memory required for data: 5166592
I0418 20:55:27.024785 22468 layer_factory.hpp:77] Creating layer conv1_a
I0418 20:55:27.024813 22468 net.cpp:91] Creating Layer conv1_a
I0418 20:55:27.024824 22468 net.cpp:425] conv1_a <- amsFeatures
I0418 20:55:27.024840 22468 net.cpp:399] conv1_a -> conv1_a
I0418 20:55:27.025951 22468 net.cpp:141] Setting up conv1_a
I0418 20:55:27.025971 22468 net.cpp:148] Top shape: 128 128 9 58 (8552448)
I0418 20:55:27.025979 22468 net.cpp:156] Memory required for data: 39376384
I0418 20:55:27.026000 22468 layer_factory.hpp:77] Creating layer relu1_a
I0418 20:55:27.026015 22468 net.cpp:91] Creating Layer relu1_a
I0418 20:55:27.026024 22468 net.cpp:425] relu1_a <- conv1_a
I0418 20:55:27.026036 22468 net.cpp:386] relu1_a -> conv1_a (in-place)
I0418 20:55:27.026051 22468 net.cpp:141] Setting up relu1_a
I0418 20:55:27.026062 22468 net.cpp:148] Top shape: 128 128 9 58 (8552448)
I0418 20:55:27.026069 22468 net.cpp:156] Memory required for data: 73586176
I0418 20:55:27.026077 22468 layer_factory.hpp:77] Creating layer conv2_a
I0418 20:55:27.026093 22468 net.cpp:91] Creating Layer conv2_a
I0418 20:55:27.026101 22468 net.cpp:425] conv2_a <- conv1_a
I0418 20:55:27.026113 22468 net.cpp:399] conv2_a -> conv2_a
I0418 20:55:27.029079 22468 net.cpp:141] Setting up conv2_a
I0418 20:55:27.029103 22468 net.cpp:148] Top shape: 128 128 7 56 (6422528)
I0418 20:55:27.029111 22468 net.cpp:156] Memory required for data: 99276288
I0418 20:55:27.029129 22468 layer_factory.hpp:77] Creating layer pool2_a
I0418 20:55:27.029145 22468 net.cpp:91] Creating Layer pool2_a
I0418 20:55:27.029153 22468 net.cpp:425] pool2_a <- conv2_a
I0418 20:55:27.029165 22468 net.cpp:399] pool2_a -> pool2_a
I0418 20:55:27.029238 22468 net.cpp:141] Setting up pool2_a
I0418 20:55:27.029253 22468 net.cpp:148] Top shape: 128 128 4 28 (1835008)
I0418 20:55:27.029261 22468 net.cpp:156] Memory required for data: 106616320
I0418 20:55:27.029269 22468 layer_factory.hpp:77] Creating layer relu2_a
I0418 20:55:27.029281 22468 net.cpp:91] Creating Layer relu2_a
I0418 20:55:27.029289 22468 net.cpp:425] relu2_a <- pool2_a
I0418 20:55:27.029301 22468 net.cpp:386] relu2_a -> pool2_a (in-place)
I0418 20:55:27.029314 22468 net.cpp:141] Setting up relu2_a
I0418 20:55:27.029325 22468 net.cpp:148] Top shape: 128 128 4 28 (1835008)
I0418 20:55:27.029333 22468 net.cpp:156] Memory required for data: 113956352
I0418 20:55:27.029340 22468 layer_factory.hpp:77] Creating layer ip2_a
I0418 20:55:27.029356 22468 net.cpp:91] Creating Layer ip2_a
I0418 20:55:27.029364 22468 net.cpp:425] ip2_a <- pool2_a
I0418 20:55:27.029376 22468 net.cpp:399] ip2_a -> ip2_a
I0418 20:55:27.062860 22468 net.cpp:141] Setting up ip2_a
I0418 20:55:27.062901 22468 net.cpp:148] Top shape: 128 256 (32768)
I0418 20:55:27.062911 22468 net.cpp:156] Memory required for data: 114087424
I0418 20:55:27.062929 22468 layer_factory.hpp:77] Creating layer conv1_r
I0418 20:55:27.062952 22468 net.cpp:91] Creating Layer conv1_r
I0418 20:55:27.062963 22468 net.cpp:425] conv1_r <- ratemap
I0418 20:55:27.062976 22468 net.cpp:399] conv1_r -> conv1_r
I0418 20:55:27.063273 22468 net.cpp:141] Setting up conv1_r
I0418 20:55:27.063295 22468 net.cpp:148] Top shape: 128 128 9 58 (8552448)
I0418 20:55:27.063303 22468 net.cpp:156] Memory required for data: 148297216
I0418 20:55:27.063315 22468 layer_factory.hpp:77] Creating layer relu1_r
I0418 20:55:27.063330 22468 net.cpp:91] Creating Layer relu1_r
I0418 20:55:27.063340 22468 net.cpp:425] relu1_r <- conv1_r
I0418 20:55:27.063350 22468 net.cpp:386] relu1_r -> conv1_r (in-place)
I0418 20:55:27.063364 22468 net.cpp:141] Setting up relu1_r
I0418 20:55:27.063374 22468 net.cpp:148] Top shape: 128 128 9 58 (8552448)
I0418 20:55:27.063382 22468 net.cpp:156] Memory required for data: 182507008
I0418 20:55:27.063390 22468 layer_factory.hpp:77] Creating layer conv2_r
I0418 20:55:27.063403 22468 net.cpp:91] Creating Layer conv2_r
I0418 20:55:27.063412 22468 net.cpp:425] conv2_r <- conv1_r
I0418 20:55:27.063426 22468 net.cpp:399] conv2_r -> conv2_r
I0418 20:55:27.065126 22468 net.cpp:141] Setting up conv2_r
I0418 20:55:27.065150 22468 net.cpp:148] Top shape: 128 128 7 56 (6422528)
I0418 20:55:27.065158 22468 net.cpp:156] Memory required for data: 208197120
I0418 20:55:27.065174 22468 layer_factory.hpp:77] Creating layer pool2_r
I0418 20:55:27.065187 22468 net.cpp:91] Creating Layer pool2_r
I0418 20:55:27.065196 22468 net.cpp:425] pool2_r <- conv2_r
I0418 20:55:27.065209 22468 net.cpp:399] pool2_r -> pool2_r
I0418 20:55:27.065258 22468 net.cpp:141] Setting up pool2_r
I0418 20:55:27.065274 22468 net.cpp:148] Top shape: 128 128 4 28 (1835008)
I0418 20:55:27.065282 22468 net.cpp:156] Memory required for data: 215537152
I0418 20:55:27.065290 22468 layer_factory.hpp:77] Creating layer relu2_r
I0418 20:55:27.065302 22468 net.cpp:91] Creating Layer relu2_r
I0418 20:55:27.065311 22468 net.cpp:425] relu2_r <- pool2_r
I0418 20:55:27.065321 22468 net.cpp:386] relu2_r -> pool2_r (in-place)
I0418 20:55:27.065332 22468 net.cpp:141] Setting up relu2_r
I0418 20:55:27.065342 22468 net.cpp:148] Top shape: 128 128 4 28 (1835008)
I0418 20:55:27.065351 22468 net.cpp:156] Memory required for data: 222877184
I0418 20:55:27.065358 22468 layer_factory.hpp:77] Creating layer ip2_r
I0418 20:55:27.065371 22468 net.cpp:91] Creating Layer ip2_r
I0418 20:55:27.065381 22468 net.cpp:425] ip2_r <- pool2_r
I0418 20:55:27.065392 22468 net.cpp:399] ip2_r -> ip2_r
I0418 20:55:27.093312 22468 net.cpp:141] Setting up ip2_r
I0418 20:55:27.093351 22468 net.cpp:148] Top shape: 128 256 (32768)
I0418 20:55:27.093360 22468 net.cpp:156] Memory required for data: 223008256
I0418 20:55:27.093375 22468 layer_factory.hpp:77] Creating layer concat_ar
I0418 20:55:27.093394 22468 net.cpp:91] Creating Layer concat_ar
I0418 20:55:27.093405 22468 net.cpp:425] concat_ar <- ip2_a
I0418 20:55:27.093416 22468 net.cpp:425] concat_ar <- ip2_r
I0418 20:55:27.093427 22468 net.cpp:399] concat_ar -> ip2
I0418 20:55:27.093458 22468 net.cpp:141] Setting up concat_ar
I0418 20:55:27.093473 22468 net.cpp:148] Top shape: 128 512 (65536)
I0418 20:55:27.093480 22468 net.cpp:156] Memory required for data: 223270400
I0418 20:55:27.093489 22468 layer_factory.hpp:77] Creating layer relu2
I0418 20:55:27.093502 22468 net.cpp:91] Creating Layer relu2
I0418 20:55:27.093511 22468 net.cpp:425] relu2 <- ip2
I0418 20:55:27.093521 22468 net.cpp:386] relu2 -> ip2 (in-place)
I0418 20:55:27.093533 22468 net.cpp:141] Setting up relu2
I0418 20:55:27.093543 22468 net.cpp:148] Top shape: 128 512 (65536)
I0418 20:55:27.093550 22468 net.cpp:156] Memory required for data: 223532544
I0418 20:55:27.093557 22468 layer_factory.hpp:77] Creating layer ip2_relu2_0_split
I0418 20:55:27.093570 22468 net.cpp:91] Creating Layer ip2_relu2_0_split
I0418 20:55:27.093577 22468 net.cpp:425] ip2_relu2_0_split <- ip2
I0418 20:55:27.093587 22468 net.cpp:399] ip2_relu2_0_split -> ip2_relu2_0_split_0
I0418 20:55:27.093600 22468 net.cpp:399] ip2_relu2_0_split -> ip2_relu2_0_split_1
I0418 20:55:27.093611 22468 net.cpp:399] ip2_relu2_0_split -> ip2_relu2_0_split_2
I0418 20:55:27.093624 22468 net.cpp:399] ip2_relu2_0_split -> ip2_relu2_0_split_3
I0418 20:55:27.093636 22468 net.cpp:399] ip2_relu2_0_split -> ip2_relu2_0_split_4
I0418 20:55:27.093650 22468 net.cpp:399] ip2_relu2_0_split -> ip2_relu2_0_split_5
I0418 20:55:27.093662 22468 net.cpp:399] ip2_relu2_0_split -> ip2_relu2_0_split_6
I0418 20:55:27.093672 22468 net.cpp:399] ip2_relu2_0_split -> ip2_relu2_0_split_7
I0418 20:55:27.093683 22468 net.cpp:399] ip2_relu2_0_split -> ip2_relu2_0_split_8
I0418 20:55:27.093695 22468 net.cpp:399] ip2_relu2_0_split -> ip2_relu2_0_split_9
I0418 20:55:27.093706 22468 net.cpp:399] ip2_relu2_0_split -> ip2_relu2_0_split_10
I0418 20:55:27.093891 22468 net.cpp:141] Setting up ip2_relu2_0_split
I0418 20:55:27.093912 22468 net.cpp:148] Top shape: 128 512 (65536)
I0418 20:55:27.093922 22468 net.cpp:148] Top shape: 128 512 (65536)
I0418 20:55:27.093930 22468 net.cpp:148] Top shape: 128 512 (65536)
I0418 20:55:27.093940 22468 net.cpp:148] Top shape: 128 512 (65536)
I0418 20:55:27.093948 22468 net.cpp:148] Top shape: 128 512 (65536)
I0418 20:55:27.093957 22468 net.cpp:148] Top shape: 128 512 (65536)
I0418 20:55:27.093966 22468 net.cpp:148] Top shape: 128 512 (65536)
I0418 20:55:27.093974 22468 net.cpp:148] Top shape: 128 512 (65536)
I0418 20:55:27.093982 22468 net.cpp:148] Top shape: 128 512 (65536)
I0418 20:55:27.093991 22468 net.cpp:148] Top shape: 128 512 (65536)
I0418 20:55:27.093999 22468 net.cpp:148] Top shape: 128 512 (65536)
I0418 20:55:27.094007 22468 net.cpp:156] Memory required for data: 226416128
I0418 20:55:27.094014 22468 layer_factory.hpp:77] Creating layer label_split
I0418 20:55:27.094032 22468 net.cpp:91] Creating Layer label_split
I0418 20:55:27.094040 22468 net.cpp:425] label_split <- label
I0418 20:55:27.094053 22468 net.cpp:399] label_split -> label01
I0418 20:55:27.094068 22468 net.cpp:399] label_split -> label02
I0418 20:55:27.094079 22468 net.cpp:399] label_split -> label03
I0418 20:55:27.094091 22468 net.cpp:399] label_split -> label04
I0418 20:55:27.094102 22468 net.cpp:399] label_split -> label05
I0418 20:55:27.094113 22468 net.cpp:399] label_split -> label06
I0418 20:55:27.094125 22468 net.cpp:399] label_split -> label07
I0418 20:55:27.094136 22468 net.cpp:399] label_split -> label08
I0418 20:55:27.094146 22468 net.cpp:399] label_split -> label09
I0418 20:55:27.094158 22468 net.cpp:399] label_split -> label10
I0418 20:55:27.094172 22468 net.cpp:399] label_split -> label11
I0418 20:55:27.094357 22468 net.cpp:141] Setting up label_split
I0418 20:55:27.094378 22468 net.cpp:148] Top shape: 128 1 1 1 (128)
I0418 20:55:27.094388 22468 net.cpp:148] Top shape: 128 1 1 1 (128)
I0418 20:55:27.094396 22468 net.cpp:148] Top shape: 128 1 1 1 (128)
I0418 20:55:27.094405 22468 net.cpp:148] Top shape: 128 1 1 1 (128)
I0418 20:55:27.094414 22468 net.cpp:148] Top shape: 128 1 1 1 (128)
I0418 20:55:27.094422 22468 net.cpp:148] Top shape: 128 1 1 1 (128)
I0418 20:55:27.094431 22468 net.cpp:148] Top shape: 128 1 1 1 (128)
I0418 20:55:27.094439 22468 net.cpp:148] Top shape: 128 1 1 1 (128)
I0418 20:55:27.094449 22468 net.cpp:148] Top shape: 128 1 1 1 (128)
I0418 20:55:27.094457 22468 net.cpp:148] Top shape: 128 1 1 1 (128)
I0418 20:55:27.094465 22468 net.cpp:148] Top shape: 128 1 1 1 (128)
I0418 20:55:27.094472 22468 net.cpp:156] Memory required for data: 226421760
I0418 20:55:27.094481 22468 layer_factory.hpp:77] Creating layer label01_label_split_0_split
I0418 20:55:27.094494 22468 net.cpp:91] Creating Layer label01_label_split_0_split
I0418 20:55:27.094503 22468 net.cpp:425] label01_label_split_0_split <- label01
I0418 20:55:27.094514 22468 net.cpp:399] label01_label_split_0_split -> label01_label_split_0_split_0
I0418 20:55:27.094526 22468 net.cpp:399] label01_label_split_0_split -> label01_label_split_0_split_1
I0418 20:55:27.094569 22468 net.cpp:141] Setting up label01_label_split_0_split
I0418 20:55:27.094584 22468 net.cpp:148] Top shape: 128 1 1 1 (128)
I0418 20:55:27.094594 22468 net.cpp:148] Top shape: 128 1 1 1 (128)
I0418 20:55:27.094601 22468 net.cpp:156] Memory required for data: 226422784
I0418 20:55:27.094609 22468 layer_factory.hpp:77] Creating layer label02_label_split_1_split
I0418 20:55:27.094619 22468 net.cpp:91] Creating Layer label02_label_split_1_split
I0418 20:55:27.094629 22468 net.cpp:425] label02_label_split_1_split <- label02
I0418 20:55:27.094638 22468 net.cpp:399] label02_label_split_1_split -> label02_label_split_1_split_0
I0418 20:55:27.094651 22468 net.cpp:399] label02_label_split_1_split -> label02_label_split_1_split_1
I0418 20:55:27.094699 22468 net.cpp:141] Setting up label02_label_split_1_split
I0418 20:55:27.094727 22468 net.cpp:148] Top shape: 128 1 1 1 (128)
I0418 20:55:27.094748 22468 net.cpp:148] Top shape: 128 1 1 1 (128)
I0418 20:55:27.094763 22468 net.cpp:156] Memory required for data: 226423808
I0418 20:55:27.094771 22468 layer_factory.hpp:77] Creating layer label03_label_split_2_split
I0418 20:55:27.094782 22468 net.cpp:91] Creating Layer label03_label_split_2_split
I0418 20:55:27.094790 22468 net.cpp:425] label03_label_split_2_split <- label03
I0418 20:55:27.094805 22468 net.cpp:399] label03_label_split_2_split -> label03_label_split_2_split_0
I0418 20:55:27.094818 22468 net.cpp:399] label03_label_split_2_split -> label03_label_split_2_split_1
I0418 20:55:27.094867 22468 net.cpp:141] Setting up label03_label_split_2_split
I0418 20:55:27.094890 22468 net.cpp:148] Top shape: 128 1 1 1 (128)
I0418 20:55:27.094907 22468 net.cpp:148] Top shape: 128 1 1 1 (128)
I0418 20:55:27.094923 22468 net.cpp:156] Memory required for data: 226424832
I0418 20:55:27.094933 22468 layer_factory.hpp:77] Creating layer label04_label_split_3_split
I0418 20:55:27.094944 22468 net.cpp:91] Creating Layer label04_label_split_3_split
I0418 20:55:27.094952 22468 net.cpp:425] label04_label_split_3_split <- label04
I0418 20:55:27.094965 22468 net.cpp:399] label04_label_split_3_split -> label04_label_split_3_split_0
I0418 20:55:27.094985 22468 net.cpp:399] label04_label_split_3_split -> label04_label_split_3_split_1
I0418 20:55:27.095041 22468 net.cpp:141] Setting up label04_label_split_3_split
I0418 20:55:27.095072 22468 net.cpp:148] Top shape: 128 1 1 1 (128)
I0418 20:55:27.095084 22468 net.cpp:148] Top shape: 128 1 1 1 (128)
I0418 20:55:27.095093 22468 net.cpp:156] Memory required for data: 226425856
I0418 20:55:27.095105 22468 layer_factory.hpp:77] Creating layer label05_label_split_4_split
I0418 20:55:27.095118 22468 net.cpp:91] Creating Layer label05_label_split_4_split
I0418 20:55:27.095125 22468 net.cpp:425] label05_label_split_4_split <- label05
I0418 20:55:27.095139 22468 net.cpp:399] label05_label_split_4_split -> label05_label_split_4_split_0
I0418 20:55:27.095151 22468 net.cpp:399] label05_label_split_4_split -> label05_label_split_4_split_1
I0418 20:55:27.095197 22468 net.cpp:141] Setting up label05_label_split_4_split
I0418 20:55:27.095219 22468 net.cpp:148] Top shape: 128 1 1 1 (128)
I0418 20:55:27.095237 22468 net.cpp:148] Top shape: 128 1 1 1 (128)
I0418 20:55:27.095253 22468 net.cpp:156] Memory required for data: 226426880
I0418 20:55:27.095266 22468 layer_factory.hpp:77] Creating layer label06_label_split_5_split
I0418 20:55:27.095279 22468 net.cpp:91] Creating Layer label06_label_split_5_split
I0418 20:55:27.095288 22468 net.cpp:425] label06_label_split_5_split <- label06
I0418 20:55:27.095299 22468 net.cpp:399] label06_label_split_5_split -> label06_label_split_5_split_0
I0418 20:55:27.095310 22468 net.cpp:399] label06_label_split_5_split -> label06_label_split_5_split_1
I0418 20:55:27.095356 22468 net.cpp:141] Setting up label06_label_split_5_split
I0418 20:55:27.095372 22468 net.cpp:148] Top shape: 128 1 1 1 (128)
I0418 20:55:27.095381 22468 net.cpp:148] Top shape: 128 1 1 1 (128)
I0418 20:55:27.095389 22468 net.cpp:156] Memory required for data: 226427904
I0418 20:55:27.095398 22468 layer_factory.hpp:77] Creating layer label07_label_split_6_split
I0418 20:55:27.095408 22468 net.cpp:91] Creating Layer label07_label_split_6_split
I0418 20:55:27.095417 22468 net.cpp:425] label07_label_split_6_split <- label07
I0418 20:55:27.095429 22468 net.cpp:399] label07_label_split_6_split -> label07_label_split_6_split_0
I0418 20:55:27.095441 22468 net.cpp:399] label07_label_split_6_split -> label07_label_split_6_split_1
I0418 20:55:27.095489 22468 net.cpp:141] Setting up label07_label_split_6_split
I0418 20:55:27.095516 22468 net.cpp:148] Top shape: 128 1 1 1 (128)
I0418 20:55:27.095532 22468 net.cpp:148] Top shape: 128 1 1 1 (128)
I0418 20:55:27.095541 22468 net.cpp:156] Memory required for data: 226428928
I0418 20:55:27.095551 22468 layer_factory.hpp:77] Creating layer label08_label_split_7_split
I0418 20:55:27.095568 22468 net.cpp:91] Creating Layer label08_label_split_7_split
I0418 20:55:27.095579 22468 net.cpp:425] label08_label_split_7_split <- label08
I0418 20:55:27.095590 22468 net.cpp:399] label08_label_split_7_split -> label08_label_split_7_split_0
I0418 20:55:27.095602 22468 net.cpp:399] label08_label_split_7_split -> label08_label_split_7_split_1
I0418 20:55:27.095654 22468 net.cpp:141] Setting up label08_label_split_7_split
I0418 20:55:27.095679 22468 net.cpp:148] Top shape: 128 1 1 1 (128)
I0418 20:55:27.095695 22468 net.cpp:148] Top shape: 128 1 1 1 (128)
I0418 20:55:27.095701 22468 net.cpp:156] Memory required for data: 226429952
I0418 20:55:27.095710 22468 layer_factory.hpp:77] Creating layer label09_label_split_8_split
I0418 20:55:27.095724 22468 net.cpp:91] Creating Layer label09_label_split_8_split
I0418 20:55:27.095734 22468 net.cpp:425] label09_label_split_8_split <- label09
I0418 20:55:27.095746 22468 net.cpp:399] label09_label_split_8_split -> label09_label_split_8_split_0
I0418 20:55:27.095757 22468 net.cpp:399] label09_label_split_8_split -> label09_label_split_8_split_1
I0418 20:55:27.095804 22468 net.cpp:141] Setting up label09_label_split_8_split
I0418 20:55:27.095829 22468 net.cpp:148] Top shape: 128 1 1 1 (128)
I0418 20:55:27.095846 22468 net.cpp:148] Top shape: 128 1 1 1 (128)
I0418 20:55:27.095856 22468 net.cpp:156] Memory required for data: 226430976
I0418 20:55:27.095867 22468 layer_factory.hpp:77] Creating layer label10_label_split_9_split
I0418 20:55:27.095880 22468 net.cpp:91] Creating Layer label10_label_split_9_split
I0418 20:55:27.095890 22468 net.cpp:425] label10_label_split_9_split <- label10
I0418 20:55:27.095902 22468 net.cpp:399] label10_label_split_9_split -> label10_label_split_9_split_0
I0418 20:55:27.095916 22468 net.cpp:399] label10_label_split_9_split -> label10_label_split_9_split_1
I0418 20:55:27.095963 22468 net.cpp:141] Setting up label10_label_split_9_split
I0418 20:55:27.095988 22468 net.cpp:148] Top shape: 128 1 1 1 (128)
I0418 20:55:27.096004 22468 net.cpp:148] Top shape: 128 1 1 1 (128)
I0418 20:55:27.096011 22468 net.cpp:156] Memory required for data: 226432000
I0418 20:55:27.096020 22468 layer_factory.hpp:77] Creating layer label11_label_split_10_split
I0418 20:55:27.096035 22468 net.cpp:91] Creating Layer label11_label_split_10_split
I0418 20:55:27.096043 22468 net.cpp:425] label11_label_split_10_split <- label11
I0418 20:55:27.096053 22468 net.cpp:399] label11_label_split_10_split -> label11_label_split_10_split_0
I0418 20:55:27.096065 22468 net.cpp:399] label11_label_split_10_split -> label11_label_split_10_split_1
I0418 20:55:27.096114 22468 net.cpp:141] Setting up label11_label_split_10_split
I0418 20:55:27.096132 22468 net.cpp:148] Top shape: 128 1 1 1 (128)
I0418 20:55:27.096141 22468 net.cpp:148] Top shape: 128 1 1 1 (128)
I0418 20:55:27.096149 22468 net.cpp:156] Memory required for data: 226433024
I0418 20:55:27.096158 22468 layer_factory.hpp:77] Creating layer predict01
I0418 20:55:27.096170 22468 net.cpp:91] Creating Layer predict01
I0418 20:55:27.096179 22468 net.cpp:425] predict01 <- ip2_relu2_0_split_0
I0418 20:55:27.096190 22468 net.cpp:399] predict01 -> predict01
I0418 20:55:27.096333 22468 net.cpp:141] Setting up predict01
I0418 20:55:27.096355 22468 net.cpp:148] Top shape: 128 2 (256)
I0418 20:55:27.096364 22468 net.cpp:156] Memory required for data: 226434048
I0418 20:55:27.096375 22468 layer_factory.hpp:77] Creating layer predict01_predict01_0_split
I0418 20:55:27.096388 22468 net.cpp:91] Creating Layer predict01_predict01_0_split
I0418 20:55:27.096398 22468 net.cpp:425] predict01_predict01_0_split <- predict01
I0418 20:55:27.096408 22468 net.cpp:399] predict01_predict01_0_split -> predict01_predict01_0_split_0
I0418 20:55:27.096421 22468 net.cpp:399] predict01_predict01_0_split -> predict01_predict01_0_split_1
I0418 20:55:27.096459 22468 net.cpp:141] Setting up predict01_predict01_0_split
I0418 20:55:27.096480 22468 net.cpp:148] Top shape: 128 2 (256)
I0418 20:55:27.096489 22468 net.cpp:148] Top shape: 128 2 (256)
I0418 20:55:27.096498 22468 net.cpp:156] Memory required for data: 226436096
I0418 20:55:27.096506 22468 layer_factory.hpp:77] Creating layer loss01
I0418 20:55:27.096519 22468 net.cpp:91] Creating Layer loss01
I0418 20:55:27.096529 22468 net.cpp:425] loss01 <- predict01_predict01_0_split_0
I0418 20:55:27.096539 22468 net.cpp:425] loss01 <- label01_label_split_0_split_0
I0418 20:55:27.096549 22468 net.cpp:399] loss01 -> loss01
…
