…
I0511 13:22:30.076788 27330 solver.cpp:91] Creating training net from net file: /mnt/antares_raid/home/cindy/adhara/experiments/24/train_val.prototxt
I0511 13:22:30.078035 27330 net.cpp:313] The NetState phase (0) differed from the phase (1) specified by a rule in layer data
I0511 13:22:30.078274 27330 net.cpp:49] Initializing net from parameters: 
name: "SoundNet"
state {
  phase: TRAIN
}
layer {
  name: "data"
  type: "HDF5Data"
  top: "amsFeatures"
  top: "ratemap"
  top: "label"
  include {
    phase: TRAIN
  }
  hdf5_data_param {
    source: "/mnt/antares_raid/home/cindy/adhara/experiments/twoears_data_train.txt"
    batch_size: 128
  }
}
layer {
  name: "ratemap"
  type: "Python"
  bottom: "ratemap"
  top: "ratemap"
  include {
    phase: TRAIN
  }
  python_param {
    module: "nideep.layers.jitterlayer"
    layer: "JitterLayer"
    param_str: "{\'min_shift_f\':-8,\'max_shift_f\':8,\'min_shift_t\':-30,\'max_shift_t\':30}"
  }
}
layer {
  name: "amsFeatures"
  type: "Python"
  bottom: "amsFeatures"
  top: "amsFeatures"
  include {
    phase: TRAIN
  }
  python_param {
    module: "nideep.layers.jitterlayer"
    layer: "JitterLayer"
    param_str: "{\'min_shift_f\':-8,\'max_shift_f\':8,\'min_shift_t\':-30,\'max_shift_t\':30}"
  }
}
layer {
  name: "conv1_a"
  type: "Convolution"
  bottom: "amsFeatures"
  top: "conv1_a"
  param {
    lr_mult: 1
    decay_mult: 1
  }
  param {
    lr_mult: 2
    decay_mult: 0
  }
  convolution_param {
    num_output: 128
    stride: 1
    weight_filler {
      type: "xavier"
    }
    bias_filler {
      type: "constant"
    }
    kernel_h: 8
    kernel_w: 6
  }
}
layer {
  name: "relu1_a"
  type: "ReLU"
  bottom: "conv1_a"
  top: "conv1_a"
}
layer {
  name: "conv2_a"
  type: "Convolution"
  bottom: "conv1_a"
  top: "conv2_a"
  param {
    lr_mult: 1
    decay_mult: 1
  }
  param {
    lr_mult: 2
    decay_mult: 0
  }
  convolution_param {
    num_output: 128
    stride: 1
    weight_filler {
      type: "xavier"
    }
    bias_filler {
      type: "constant"
    }
    kernel_h: 3
    kernel_w: 3
  }
}
layer {
  name: "pool2_a"
  type: "Pooling"
  bottom: "conv2_a"
  top: "pool2_a"
  pooling_param {
    pool: MAX
    kernel_size: 2
    stride: 2
  }
}
layer {
  name: "relu2_a"
  type: "ReLU"
  bottom: "pool2_a"
  top: "pool2_a"
}
layer {
  name: "ip2_a"
  type: "InnerProduct"
  bottom: "pool2_a"
  top: "ip2_a"
  param {
    lr_mult: 1
  }
  param {
    lr_mult: 2
  }
  inner_product_param {
    num_output: 256
    weight_filler {
      type: "xavier"
    }
    bias_filler {
      type: "constant"
    }
  }
}
layer {
  name: "conv1_r"
  type: "Convolution"
  bottom: "ratemap"
  top: "conv1_r"
  param {
    lr_mult: 1
    decay_mult: 1
  }
  param {
    lr_mult: 2
    decay_mult: 0
  }
  convolution_param {
    num_output: 128
    stride: 1
    weight_filler {
      type: "xavier"
    }
    bias_filler {
      type: "constant"
    }
    kernel_h: 8
    kernel_w: 6
  }
}
layer {
  name: "relu1_r"
  type: "ReLU"
  bottom: "conv1_r"
  top: "conv1_r"
}
layer {
  name: "conv2_r"
  type: "Convolution"
  bottom: "conv1_r"
  top: "conv2_r"
  param {
    lr_mult: 1
    decay_mult: 1
  }
  param {
    lr_mult: 2
    decay_mult: 0
  }
  convolution_param {
    num_output: 128
    stride: 1
    weight_filler {
      type: "xavier"
    }
    bias_filler {
      type: "constant"
    }
    kernel_h: 3
    kernel_w: 3
  }
}
layer {
  name: "pool2_r"
  type: "Pooling"
  bottom: "conv2_r"
  top: "pool2_r"
  pooling_param {
    pool: MAX
    kernel_size: 2
    stride: 2
  }
}
layer {
  name: "relu2_r"
  type: "ReLU"
  bottom: "pool2_r"
  top: "pool2_r"
}
layer {
  name: "ip2_r"
  type: "InnerProduct"
  bottom: "pool2_r"
  top: "ip2_r"
  param {
    lr_mult: 1
  }
  param {
    lr_mult: 2
  }
  inner_product_param {
    num_output: 256
    weight_filler {
      type: "xavier"
    }
    bias_filler {
      type: "constant"
    }
  }
}
layer {
  name: "concat_ar"
  type: "Concat"
  bottom: "ip2_a"
  bottom: "ip2_r"
  top: "ip2"
  concat_param {
    axis: 1
  }
}
layer {
  name: "relu2"
  type: "ReLU"
  bottom: "ip2"
  top: "ip2"
}
layer {
  name: "ip3"
  type: "InnerProduct"
  bottom: "ip2"
  top: "ip3"
  param {
    lr_mult: 1
  }
  param {
    lr_mult: 2
  }
  inner_product_param {
    num_output: 11
    weight_filler {
      type: "xavier"
    }
    bias_filler {
      type: "constant"
    }
  }
}
layer {
  name: "loss"
  type: "SigmoidCrossEntropyLoss"
  bottom: "ip3"
  bottom: "label"
  top: "loss"
}
I0511 13:22:30.079190 27330 layer_factory.hpp:77] Creating layer data
I0511 13:22:30.079219 27330 net.cpp:91] Creating Layer data
I0511 13:22:30.079233 27330 net.cpp:399] data -> amsFeatures
I0511 13:22:30.079268 27330 net.cpp:399] data -> ratemap
I0511 13:22:30.079282 27330 net.cpp:399] data -> label
I0511 13:22:30.079298 27330 hdf5_data_layer.cpp:79] Loading list of HDF5 filenames from: /mnt/antares_raid/home/cindy/adhara/experiments/twoears_data_train.txt
I0511 13:22:30.079708 27330 hdf5_data_layer.cpp:93] Number of HDF5 files: 5
I0511 13:22:30.081128 27330 hdf5.cpp:32] Datatype class: H5T_FLOAT
I0511 13:22:35.702863 27330 net.cpp:141] Setting up data
I0511 13:22:35.702920 27330 net.cpp:148] Top shape: 128 9 16 63 (1161216)
I0511 13:22:35.702940 27330 net.cpp:148] Top shape: 128 1 16 63 (129024)
I0511 13:22:35.702947 27330 net.cpp:148] Top shape: 128 1 11 1 (1408)
I0511 13:22:35.702953 27330 net.cpp:156] Memory required for data: 5166592
I0511 13:22:35.702967 27330 layer_factory.hpp:77] Creating layer ratemap
I0511 13:22:36.154541 27330 net.cpp:91] Creating Layer ratemap
I0511 13:22:36.154578 27330 net.cpp:425] ratemap <- ratemap
I0511 13:22:36.154597 27330 net.cpp:386] ratemap -> ratemap (in-place)
I0511 13:22:36.155447 27330 net.cpp:141] Setting up ratemap
I0511 13:22:36.155470 27330 net.cpp:148] Top shape: 128 1 16 63 (129024)
I0511 13:22:36.155478 27330 net.cpp:156] Memory required for data: 5682688
I0511 13:22:36.155489 27330 layer_factory.hpp:77] Creating layer amsFeatures
I0511 13:22:36.155525 27330 net.cpp:91] Creating Layer amsFeatures
I0511 13:22:36.155536 27330 net.cpp:425] amsFeatures <- amsFeatures
I0511 13:22:36.155546 27330 net.cpp:386] amsFeatures -> amsFeatures (in-place)
I0511 13:22:36.158051 27330 net.cpp:141] Setting up amsFeatures
I0511 13:22:36.158072 27330 net.cpp:148] Top shape: 128 9 16 63 (1161216)
I0511 13:22:36.158079 27330 net.cpp:156] Memory required for data: 10327552
I0511 13:22:36.158087 27330 layer_factory.hpp:77] Creating layer conv1_a
I0511 13:22:36.158116 27330 net.cpp:91] Creating Layer conv1_a
I0511 13:22:36.158125 27330 net.cpp:425] conv1_a <- amsFeatures
I0511 13:22:36.158136 27330 net.cpp:399] conv1_a -> conv1_a
I0511 13:22:36.160593 27330 net.cpp:141] Setting up conv1_a
I0511 13:22:36.160615 27330 net.cpp:148] Top shape: 128 128 9 58 (8552448)
I0511 13:22:36.160622 27330 net.cpp:156] Memory required for data: 44537344
I0511 13:22:36.160651 27330 layer_factory.hpp:77] Creating layer relu1_a
I0511 13:22:36.160665 27330 net.cpp:91] Creating Layer relu1_a
I0511 13:22:36.160671 27330 net.cpp:425] relu1_a <- conv1_a
I0511 13:22:36.160681 27330 net.cpp:386] relu1_a -> conv1_a (in-place)
I0511 13:22:36.160694 27330 net.cpp:141] Setting up relu1_a
I0511 13:22:36.160703 27330 net.cpp:148] Top shape: 128 128 9 58 (8552448)
I0511 13:22:36.160712 27330 net.cpp:156] Memory required for data: 78747136
I0511 13:22:36.160718 27330 layer_factory.hpp:77] Creating layer conv2_a
I0511 13:22:36.160730 27330 net.cpp:91] Creating Layer conv2_a
I0511 13:22:36.160737 27330 net.cpp:425] conv2_a <- conv1_a
I0511 13:22:36.160747 27330 net.cpp:399] conv2_a -> conv2_a
I0511 13:22:36.162924 27330 net.cpp:141] Setting up conv2_a
I0511 13:22:36.162947 27330 net.cpp:148] Top shape: 128 128 7 56 (6422528)
I0511 13:22:36.162956 27330 net.cpp:156] Memory required for data: 104437248
I0511 13:22:36.162971 27330 layer_factory.hpp:77] Creating layer pool2_a
I0511 13:22:36.162981 27330 net.cpp:91] Creating Layer pool2_a
I0511 13:22:36.162989 27330 net.cpp:425] pool2_a <- conv2_a
I0511 13:22:36.162998 27330 net.cpp:399] pool2_a -> pool2_a
I0511 13:22:36.163054 27330 net.cpp:141] Setting up pool2_a
I0511 13:22:36.163066 27330 net.cpp:148] Top shape: 128 128 4 28 (1835008)
I0511 13:22:36.163074 27330 net.cpp:156] Memory required for data: 111777280
I0511 13:22:36.163079 27330 layer_factory.hpp:77] Creating layer relu2_a
I0511 13:22:36.163092 27330 net.cpp:91] Creating Layer relu2_a
I0511 13:22:36.163100 27330 net.cpp:425] relu2_a <- pool2_a
I0511 13:22:36.163108 27330 net.cpp:386] relu2_a -> pool2_a (in-place)
I0511 13:22:36.163118 27330 net.cpp:141] Setting up relu2_a
I0511 13:22:36.163126 27330 net.cpp:148] Top shape: 128 128 4 28 (1835008)
I0511 13:22:36.163132 27330 net.cpp:156] Memory required for data: 119117312
I0511 13:22:36.163138 27330 layer_factory.hpp:77] Creating layer ip2_a
I0511 13:22:36.163156 27330 net.cpp:91] Creating Layer ip2_a
I0511 13:22:36.163173 27330 net.cpp:425] ip2_a <- pool2_a
I0511 13:22:36.163184 27330 net.cpp:399] ip2_a -> ip2_a
I0511 13:22:36.200894 27330 net.cpp:141] Setting up ip2_a
I0511 13:22:36.200929 27330 net.cpp:148] Top shape: 128 256 (32768)
I0511 13:22:36.200935 27330 net.cpp:156] Memory required for data: 119248384
I0511 13:22:36.200950 27330 layer_factory.hpp:77] Creating layer conv1_r
I0511 13:22:36.200970 27330 net.cpp:91] Creating Layer conv1_r
I0511 13:22:36.200978 27330 net.cpp:425] conv1_r <- ratemap
I0511 13:22:36.200987 27330 net.cpp:399] conv1_r -> conv1_r
I0511 13:22:36.201856 27330 net.cpp:141] Setting up conv1_r
I0511 13:22:36.201884 27330 net.cpp:148] Top shape: 128 128 9 58 (8552448)
I0511 13:22:36.201889 27330 net.cpp:156] Memory required for data: 153458176
I0511 13:22:36.201900 27330 layer_factory.hpp:77] Creating layer relu1_r
I0511 13:22:36.201908 27330 net.cpp:91] Creating Layer relu1_r
I0511 13:22:36.201915 27330 net.cpp:425] relu1_r <- conv1_r
I0511 13:22:36.201933 27330 net.cpp:386] relu1_r -> conv1_r (in-place)
I0511 13:22:36.201942 27330 net.cpp:141] Setting up relu1_r
I0511 13:22:36.201949 27330 net.cpp:148] Top shape: 128 128 9 58 (8552448)
I0511 13:22:36.201954 27330 net.cpp:156] Memory required for data: 187667968
I0511 13:22:36.201961 27330 layer_factory.hpp:77] Creating layer conv2_r
I0511 13:22:36.201974 27330 net.cpp:91] Creating Layer conv2_r
I0511 13:22:36.201980 27330 net.cpp:425] conv2_r <- conv1_r
I0511 13:22:36.201988 27330 net.cpp:399] conv2_r -> conv2_r
I0511 13:22:36.203902 27330 net.cpp:141] Setting up conv2_r
I0511 13:22:36.203929 27330 net.cpp:148] Top shape: 128 128 7 56 (6422528)
I0511 13:22:36.203935 27330 net.cpp:156] Memory required for data: 213358080
I0511 13:22:36.203949 27330 layer_factory.hpp:77] Creating layer pool2_r
I0511 13:22:36.203969 27330 net.cpp:91] Creating Layer pool2_r
I0511 13:22:36.203975 27330 net.cpp:425] pool2_r <- conv2_r
I0511 13:22:36.203995 27330 net.cpp:399] pool2_r -> pool2_r
I0511 13:22:36.204035 27330 net.cpp:141] Setting up pool2_r
I0511 13:22:36.204044 27330 net.cpp:148] Top shape: 128 128 4 28 (1835008)
I0511 13:22:36.204049 27330 net.cpp:156] Memory required for data: 220698112
I0511 13:22:36.204054 27330 layer_factory.hpp:77] Creating layer relu2_r
I0511 13:22:36.204064 27330 net.cpp:91] Creating Layer relu2_r
I0511 13:22:36.204071 27330 net.cpp:425] relu2_r <- pool2_r
I0511 13:22:36.204077 27330 net.cpp:386] relu2_r -> pool2_r (in-place)
I0511 13:22:36.204085 27330 net.cpp:141] Setting up relu2_r
I0511 13:22:36.204092 27330 net.cpp:148] Top shape: 128 128 4 28 (1835008)
I0511 13:22:36.204107 27330 net.cpp:156] Memory required for data: 228038144
I0511 13:22:36.204113 27330 layer_factory.hpp:77] Creating layer ip2_r
I0511 13:22:36.204121 27330 net.cpp:91] Creating Layer ip2_r
I0511 13:22:36.204126 27330 net.cpp:425] ip2_r <- pool2_r
I0511 13:22:36.204138 27330 net.cpp:399] ip2_r -> ip2_r
I0511 13:22:36.239537 27330 net.cpp:141] Setting up ip2_r
I0511 13:22:36.239581 27330 net.cpp:148] Top shape: 128 256 (32768)
I0511 13:22:36.239588 27330 net.cpp:156] Memory required for data: 228169216
I0511 13:22:36.239596 27330 layer_factory.hpp:77] Creating layer concat_ar
I0511 13:22:36.239614 27330 net.cpp:91] Creating Layer concat_ar
I0511 13:22:36.239620 27330 net.cpp:425] concat_ar <- ip2_a
I0511 13:22:36.239627 27330 net.cpp:425] concat_ar <- ip2_r
I0511 13:22:36.239634 27330 net.cpp:399] concat_ar -> ip2
I0511 13:22:36.239660 27330 net.cpp:141] Setting up concat_ar
I0511 13:22:36.239668 27330 net.cpp:148] Top shape: 128 512 (65536)
I0511 13:22:36.239673 27330 net.cpp:156] Memory required for data: 228431360
I0511 13:22:36.239680 27330 layer_factory.hpp:77] Creating layer relu2
I0511 13:22:36.239694 27330 net.cpp:91] Creating Layer relu2
I0511 13:22:36.239699 27330 net.cpp:425] relu2 <- ip2
I0511 13:22:36.239706 27330 net.cpp:386] relu2 -> ip2 (in-place)
I0511 13:22:36.239714 27330 net.cpp:141] Setting up relu2
I0511 13:22:36.239722 27330 net.cpp:148] Top shape: 128 512 (65536)
I0511 13:22:36.239727 27330 net.cpp:156] Memory required for data: 228693504
I0511 13:22:36.239732 27330 layer_factory.hpp:77] Creating layer ip3
I0511 13:22:36.239740 27330 net.cpp:91] Creating Layer ip3
I0511 13:22:36.239745 27330 net.cpp:425] ip3 <- ip2
I0511 13:22:36.239763 27330 net.cpp:399] ip3 -> ip3
I0511 13:22:36.239918 27330 net.cpp:141] Setting up ip3
I0511 13:22:36.239928 27330 net.cpp:148] Top shape: 128 11 (1408)
I0511 13:22:36.239933 27330 net.cpp:156] Memory required for data: 228699136
I0511 13:22:36.239941 27330 layer_factory.hpp:77] Creating layer loss
I0511 13:22:36.239955 27330 net.cpp:91] Creating Layer loss
I0511 13:22:36.239974 27330 net.cpp:425] loss <- ip3
I0511 13:22:36.239981 27330 net.cpp:425] loss <- label
I0511 13:22:36.239991 27330 net.cpp:399] loss -> loss
I0511 13:22:36.240030 27330 net.cpp:141] Setting up loss
…
I0511 13:22:36.241142 27330 net.cpp:313] The NetState phase (1) differed from the phase (0) specified by a rule in layer ratemap
I0511 13:22:36.241147 27330 net.cpp:313] The NetState phase (1) differed from the phase (0) specified by a rule in layer amsFeatures
I0511 13:22:36.241335 27330 net.cpp:49] Initializing net from parameters: 
name: "SoundNet"
state {
  phase: TEST
}
layer {
  name: "data"
  type: "HDF5Data"
  top: "amsFeatures"
  top: "ratemap"
  top: "label"
  include {
    phase: TEST
  }
  hdf5_data_param {
    source: "/mnt/antares_raid/home/cindy/adhara/experiments/twoears_data_test.txt"
    batch_size: 128
  }
}
layer {
  name: "conv1_a"
  type: "Convolution"
  bottom: "amsFeatures"
  top: "conv1_a"
  param {
    lr_mult: 1
    decay_mult: 1
  }
  param {
    lr_mult: 2
    decay_mult: 0
  }
  convolution_param {
    num_output: 128
    stride: 1
    weight_filler {
      type: "xavier"
    }
    bias_filler {
      type: "constant"
    }
    kernel_h: 8
    kernel_w: 6
  }
}
layer {
  name: "relu1_a"
  type: "ReLU"
  bottom: "conv1_a"
  top: "conv1_a"
}
layer {
  name: "conv2_a"
  type: "Convolution"
  bottom: "conv1_a"
  top: "conv2_a"
  param {
    lr_mult: 1
    decay_mult: 1
  }
  param {
    lr_mult: 2
    decay_mult: 0
  }
  convolution_param {
    num_output: 128
    stride: 1
    weight_filler {
      type: "xavier"
    }
    bias_filler {
      type: "constant"
    }
    kernel_h: 3
    kernel_w: 3
  }
}
layer {
  name: "pool2_a"
  type: "Pooling"
  bottom: "conv2_a"
  top: "pool2_a"
  pooling_param {
    pool: MAX
    kernel_size: 2
    stride: 2
  }
}
layer {
  name: "relu2_a"
  type: "ReLU"
  bottom: "pool2_a"
  top: "pool2_a"
}
layer {
  name: "ip2_a"
  type: "InnerProduct"
  bottom: "pool2_a"
  top: "ip2_a"
  param {
    lr_mult: 1
  }
  param {
    lr_mult: 2
  }
  inner_product_param {
    num_output: 256
    weight_filler {
      type: "xavier"
    }
    bias_filler {
      type: "constant"
    }
  }
}
layer {
  name: "conv1_r"
  type: "Convolution"
  bottom: "ratemap"
  top: "conv1_r"
  param {
    lr_mult: 1
    decay_mult: 1
  }
  param {
    lr_mult: 2
    decay_mult: 0
  }
  convolution_param {
    num_output: 128
    stride: 1
    weight_filler {
      type: "xavier"
    }
    bias_filler {
      type: "constant"
    }
    kernel_h: 8
    kernel_w: 6
  }
}
layer {
  name: "relu1_r"
  type: "ReLU"
  bottom: "conv1_r"
  top: "conv1_r"
}
layer {
  name: "conv2_r"
  type: "Convolution"
  bottom: "conv1_r"
  top: "conv2_r"
  param {
    lr_mult: 1
    decay_mult: 1
  }
  param {
    lr_mult: 2
    decay_mult: 0
  }
  convolution_param {
    num_output: 128
    stride: 1
    weight_filler {
      type: "xavier"
    }
    bias_filler {
      type: "constant"
    }
    kernel_h: 3
    kernel_w: 3
  }
}
layer {
  name: "pool2_r"
  type: "Pooling"
  bottom: "conv2_r"
  top: "pool2_r"
  pooling_param {
    pool: MAX
    kernel_size: 2
    stride: 2
  }
}
layer {
  name: "relu2_r"
  type: "ReLU"
  bottom: "pool2_r"
  top: "pool2_r"
}
layer {
  name: "ip2_r"
  type: "InnerProduct"
  bottom: "pool2_r"
  top: "ip2_r"
  param {
    lr_mult: 1
  }
  param {
    lr_mult: 2
  }
  inner_product_param {
    num_output: 256
    weight_filler {
      type: "xavier"
    }
    bias_filler {
      type: "constant"
    }
  }
}
layer {
  name: "concat_ar"
  type: "Concat"
  bottom: "ip2_a"
  bottom: "ip2_r"
  top: "ip2"
  concat_param {
    axis: 1
  }
}
layer {
  name: "relu2"
  type: "ReLU"
  bottom: "ip2"
  top: "ip2"
}
layer {
  name: "ip3"
  type: "InnerProduct"
  bottom: "ip2"
  top: "ip3"
  param {
    lr_mult: 1
  }
  param {
    lr_mult: 2
  }
  inner_product_param {
    num_output: 11
    weight_filler {
      type: "xavier"
    }
    bias_filler {
      type: "constant"
    }
  }
}
layer {
  name: "loss"
  type: "SigmoidCrossEntropyLoss"
  bottom: "ip3"
  bottom: "label"
  top: "loss"
}
I0511 13:22:36.242058 27330 layer_factory.hpp:77] Creating layer data
I0511 13:22:36.242070 27330 net.cpp:91] Creating Layer data
I0511 13:22:36.242077 27330 net.cpp:399] data -> amsFeatures
I0511 13:22:36.242090 27330 net.cpp:399] data -> ratemap
I0511 13:22:36.242110 27330 net.cpp:399] data -> label
I0511 13:22:36.242120 27330 hdf5_data_layer.cpp:79] Loading list of HDF5 filenames from: /mnt/antares_raid/home/cindy/adhara/experiments/twoears_data_test.txt
I0511 13:22:36.242445 27330 hdf5_data_layer.cpp:93] Number of HDF5 files: 2
I0511 13:22:41.794491 27330 net.cpp:141] Setting up data
I0511 13:22:41.794554 27330 net.cpp:148] Top shape: 128 9 16 63 (1161216)
I0511 13:22:41.794564 27330 net.cpp:148] Top shape: 128 1 16 63 (129024)
I0511 13:22:41.794572 27330 net.cpp:148] Top shape: 128 1 11 1 (1408)
I0511 13:22:41.794579 27330 net.cpp:156] Memory required for data: 5166592
I0511 13:22:41.794592 27330 layer_factory.hpp:77] Creating layer conv1_a
I0511 13:22:41.794634 27330 net.cpp:91] Creating Layer conv1_a
I0511 13:22:41.794642 27330 net.cpp:425] conv1_a <- amsFeatures
I0511 13:22:41.794653 27330 net.cpp:399] conv1_a -> conv1_a
I0511 13:22:41.795392 27330 net.cpp:141] Setting up conv1_a
I0511 13:22:41.795418 27330 net.cpp:148] Top shape: 128 128 9 58 (8552448)
I0511 13:22:41.795423 27330 net.cpp:156] Memory required for data: 39376384
I0511 13:22:41.795439 27330 layer_factory.hpp:77] Creating layer relu1_a
I0511 13:22:41.795449 27330 net.cpp:91] Creating Layer relu1_a
I0511 13:22:41.795456 27330 net.cpp:425] relu1_a <- conv1_a
I0511 13:22:41.795464 27330 net.cpp:386] relu1_a -> conv1_a (in-place)
I0511 13:22:41.795474 27330 net.cpp:141] Setting up relu1_a
I0511 13:22:41.795480 27330 net.cpp:148] Top shape: 128 128 9 58 (8552448)
I0511 13:22:41.795486 27330 net.cpp:156] Memory required for data: 73586176
I0511 13:22:41.795491 27330 layer_factory.hpp:77] Creating layer conv2_a
I0511 13:22:41.795503 27330 net.cpp:91] Creating Layer conv2_a
I0511 13:22:41.795509 27330 net.cpp:425] conv2_a <- conv1_a
I0511 13:22:41.795516 27330 net.cpp:399] conv2_a -> conv2_a
I0511 13:22:41.797479 27330 net.cpp:141] Setting up conv2_a
I0511 13:22:41.797508 27330 net.cpp:148] Top shape: 128 128 7 56 (6422528)
I0511 13:22:41.797514 27330 net.cpp:156] Memory required for data: 99276288
I0511 13:22:41.797535 27330 layer_factory.hpp:77] Creating layer pool2_a
I0511 13:22:41.797546 27330 net.cpp:91] Creating Layer pool2_a
I0511 13:22:41.797564 27330 net.cpp:425] pool2_a <- conv2_a
I0511 13:22:41.797574 27330 net.cpp:399] pool2_a -> pool2_a
I0511 13:22:41.797610 27330 net.cpp:141] Setting up pool2_a
I0511 13:22:41.797618 27330 net.cpp:148] Top shape: 128 128 4 28 (1835008)
I0511 13:22:41.797624 27330 net.cpp:156] Memory required for data: 106616320
I0511 13:22:41.797631 27330 layer_factory.hpp:77] Creating layer relu2_a
I0511 13:22:41.797637 27330 net.cpp:91] Creating Layer relu2_a
I0511 13:22:41.797643 27330 net.cpp:425] relu2_a <- pool2_a
I0511 13:22:41.797651 27330 net.cpp:386] relu2_a -> pool2_a (in-place)
I0511 13:22:41.797658 27330 net.cpp:141] Setting up relu2_a
I0511 13:22:41.797665 27330 net.cpp:148] Top shape: 128 128 4 28 (1835008)
I0511 13:22:41.797672 27330 net.cpp:156] Memory required for data: 113956352
I0511 13:22:41.797678 27330 layer_factory.hpp:77] Creating layer ip2_a
I0511 13:22:41.797688 27330 net.cpp:91] Creating Layer ip2_a
I0511 13:22:41.797693 27330 net.cpp:425] ip2_a <- pool2_a
I0511 13:22:41.797701 27330 net.cpp:399] ip2_a -> ip2_a
I0511 13:22:41.833195 27330 net.cpp:141] Setting up ip2_a
I0511 13:22:41.833230 27330 net.cpp:148] Top shape: 128 256 (32768)
I0511 13:22:41.833235 27330 net.cpp:156] Memory required for data: 114087424
I0511 13:22:41.833250 27330 layer_factory.hpp:77] Creating layer conv1_r
I0511 13:22:41.833263 27330 net.cpp:91] Creating Layer conv1_r
I0511 13:22:41.833271 27330 net.cpp:425] conv1_r <- ratemap
I0511 13:22:41.833279 27330 net.cpp:399] conv1_r -> conv1_r
I0511 13:22:41.833555 27330 net.cpp:141] Setting up conv1_r
I0511 13:22:41.833569 27330 net.cpp:148] Top shape: 128 128 9 58 (8552448)
I0511 13:22:41.833575 27330 net.cpp:156] Memory required for data: 148297216
I0511 13:22:41.833582 27330 layer_factory.hpp:77] Creating layer relu1_r
I0511 13:22:41.833592 27330 net.cpp:91] Creating Layer relu1_r
I0511 13:22:41.833601 27330 net.cpp:425] relu1_r <- conv1_r
I0511 13:22:41.833611 27330 net.cpp:386] relu1_r -> conv1_r (in-place)
I0511 13:22:41.833619 27330 net.cpp:141] Setting up relu1_r
I0511 13:22:41.833626 27330 net.cpp:148] Top shape: 128 128 9 58 (8552448)
I0511 13:22:41.833631 27330 net.cpp:156] Memory required for data: 182507008
I0511 13:22:41.833637 27330 layer_factory.hpp:77] Creating layer conv2_r
I0511 13:22:41.833650 27330 net.cpp:91] Creating Layer conv2_r
I0511 13:22:41.833655 27330 net.cpp:425] conv2_r <- conv1_r
I0511 13:22:41.833673 27330 net.cpp:399] conv2_r -> conv2_r
I0511 13:22:41.835691 27330 net.cpp:141] Setting up conv2_r
I0511 13:22:41.835711 27330 net.cpp:148] Top shape: 128 128 7 56 (6422528)
I0511 13:22:41.835717 27330 net.cpp:156] Memory required for data: 208197120
I0511 13:22:41.835729 27330 layer_factory.hpp:77] Creating layer pool2_r
I0511 13:22:41.835741 27330 net.cpp:91] Creating Layer pool2_r
I0511 13:22:41.835747 27330 net.cpp:425] pool2_r <- conv2_r
I0511 13:22:41.835755 27330 net.cpp:399] pool2_r -> pool2_r
I0511 13:22:41.835798 27330 net.cpp:141] Setting up pool2_r
I0511 13:22:41.835808 27330 net.cpp:148] Top shape: 128 128 4 28 (1835008)
I0511 13:22:41.835813 27330 net.cpp:156] Memory required for data: 215537152
I0511 13:22:41.835819 27330 layer_factory.hpp:77] Creating layer relu2_r
I0511 13:22:41.835826 27330 net.cpp:91] Creating Layer relu2_r
I0511 13:22:41.835832 27330 net.cpp:425] relu2_r <- pool2_r
I0511 13:22:41.835850 27330 net.cpp:386] relu2_r -> pool2_r (in-place)
I0511 13:22:41.835860 27330 net.cpp:141] Setting up relu2_r
I0511 13:22:41.835866 27330 net.cpp:148] Top shape: 128 128 4 28 (1835008)
I0511 13:22:41.835871 27330 net.cpp:156] Memory required for data: 222877184
I0511 13:22:41.835876 27330 layer_factory.hpp:77] Creating layer ip2_r
I0511 13:22:41.835886 27330 net.cpp:91] Creating Layer ip2_r
I0511 13:22:41.835891 27330 net.cpp:425] ip2_r <- pool2_r
I0511 13:22:41.835901 27330 net.cpp:399] ip2_r -> ip2_r
I0511 13:22:41.871939 27330 net.cpp:141] Setting up ip2_r
I0511 13:22:41.871973 27330 net.cpp:148] Top shape: 128 256 (32768)
I0511 13:22:41.871979 27330 net.cpp:156] Memory required for data: 223008256
I0511 13:22:41.871991 27330 layer_factory.hpp:77] Creating layer concat_ar
I0511 13:22:41.872004 27330 net.cpp:91] Creating Layer concat_ar
I0511 13:22:41.872010 27330 net.cpp:425] concat_ar <- ip2_a
I0511 13:22:41.872019 27330 net.cpp:425] concat_ar <- ip2_r
I0511 13:22:41.872027 27330 net.cpp:399] concat_ar -> ip2
I0511 13:22:41.872050 27330 net.cpp:141] Setting up concat_ar
I0511 13:22:41.872061 27330 net.cpp:148] Top shape: 128 512 (65536)
I0511 13:22:41.872067 27330 net.cpp:156] Memory required for data: 223270400
I0511 13:22:41.872072 27330 layer_factory.hpp:77] Creating layer relu2
I0511 13:22:41.872081 27330 net.cpp:91] Creating Layer relu2
I0511 13:22:41.872086 27330 net.cpp:425] relu2 <- ip2
I0511 13:22:41.872092 27330 net.cpp:386] relu2 -> ip2 (in-place)
I0511 13:22:41.872100 27330 net.cpp:141] Setting up relu2
I0511 13:22:41.872107 27330 net.cpp:148] Top shape: 128 512 (65536)
I0511 13:22:41.872112 27330 net.cpp:156] Memory required for data: 223532544
I0511 13:22:41.872118 27330 layer_factory.hpp:77] Creating layer ip3
I0511 13:22:41.872130 27330 net.cpp:91] Creating Layer ip3
I0511 13:22:41.872146 27330 net.cpp:425] ip3 <- ip2
I0511 13:22:41.872153 27330 net.cpp:399] ip3 -> ip3
I0511 13:22:41.872306 27330 net.cpp:141] Setting up ip3
I0511 13:22:41.872315 27330 net.cpp:148] Top shape: 128 11 (1408)
I0511 13:22:41.872320 27330 net.cpp:156] Memory required for data: 223538176
I0511 13:22:41.872328 27330 layer_factory.hpp:77] Creating layer loss
I0511 13:22:41.872340 27330 net.cpp:91] Creating Layer loss
I0511 13:22:41.872345 27330 net.cpp:425] loss <- ip3
I0511 13:22:41.872351 27330 net.cpp:425] loss <- label
I0511 13:22:41.872359 27330 net.cpp:399] loss -> loss
I0511 13:22:41.872391 27330 net.cpp:141] Setting up loss
…
